onnx-to-hls/example-onnx-model-files/conv2d_small_keras.onnx (onnx, 6593 bytes, 4 tensors)

W f4 [2, 1, 3, 3]
000000 9e 17 e5 3d 16 48 74 be 8c 44 6f 3c 82 8d cf 3e
       0.11186145 -0.23855624 0.014603745 0.4053765
000010 93 ca 69 be 58 4c b0 bd 74 c5 fe 3e 9f 16 c4 3e
       -0.22831182 -0.086083114 0.4976002 0.3829851
000020 e4 fe 3a 3e 73 73 f6 3e 08 67 bf 3d 53 7a 03 3f
       0.18261296 0.48134956 0.093458235 0.51358527
000030 83 18 4c 3e 99 28 b2 3e 34 36 57 3e 56 f9 23 3e
       0.19931225 0.347966 0.2101677 0.16013083
000040 08 e0 31 bc c7 13 e9 3d
       -0.010856636 0.11380725

B f4 [2]
000000 e0 f0 74 37 3a b7 83 39
       1.4599616e-05 0.00025122782

W1 f4 [128, 10]
000000 69 a0 83 3e 70 ca 21 3c 34 d4 47 be dc fe d3 3b
       0.2570832 0.009874925 -0.19514543 0.0064695906
000010 1a 9f 85 bd 4f 27 09 3e 9e d5 81 3d ad cb 4b be
       -0.06524487 0.13393901 0.06339572 -0.19901915
000020 1c da 3a 3d d0 c8 2b 3e 67 35 2c 3e d5 0e 84 be
       0.04561816 0.16775823 0.16817246 -0.25792566
000030 1d 35 c2 be 6b d7 2c be f5 3b c4 3d 83 e5 f6 bd
       -0.37931147 -0.1687905 0.095817484 -0.12055495
000040 9b 0f 99 bd 9e a5 f7 bc 22 f7 4e bd 0d 62 52 bb
       -0.0747368 -0.03023034 -0.050528653 -0.00321019
000050 fa de f6 3d 96 8b 74 be 1d e0 5c 3d aa c4 a4 3d
       0.12054248 -0.23881373 0.05392467 0.08045323
000060 4a 63 05 bd ee eb a6 3b 99 1b 86 bd 61 99 0f 3d
       -0.032565393 0.005094043 -0.065482326 0.035058383
000070 bc 7e 85 3d 5b a4 81 3e d1 ca 12 3f 89 91 da be
       0.06518313 0.25320706 0.57340723 -0.4268916
000080 f2 ed 79 be e8 fc 95 be 15 0c 6e be 23 44 f9 3d
       -0.24407175 -0.29294515 -0.23246796 0.12171199
000090 83 d3 d5 bc 63 e7 26 3e 3a 77 90 bd 70 2b 52 3e
       -0.026101833 0.16299205 -0.07053991 0.20524383
0000a0 42 a5 1f 3e cb 59 0a be 26 2d 8b bc bd 02 2d be
       0.15590385 -0.13510816 -0.016989302 -0.16895576
0000b0 6c 89 b9 3b bd b5 c2 bd 62 97 32 3e 59 5f 19 be
       0.005662134 -0.0950732 0.1744056 -0.14977778
0000c0 08 06 e4 bd 02 25 26 3c 14 e0 ba 3e 56 ec 12 be
       -0.11133963 0.010140659 0.36499083 -0.14347968
0000d0 ba 90 83 be 45 12 ab be d9 c3 25 be f6 64 c6 3d
       -0.25696355 -0.33412376 -0.16187991 0.096872255
0000e0 f0 d2 b5 bc 05 09 02 3e b9 14 83 3d 86 f8 d2 3d
       -0.02219531 0.12698753 0.06400437 0.10301308
0000f0 9e ee 78 3e c3 a4 4a be ce 7b 86 3d 7f 74 89 3d
       0.24309775 -0.19789414 0.065665826 0.06711673
000100 e2 0e 2d be ef 0d 69 3e 2b 25 5a 3e 2c 19 2e 3b
       -0.16900209 0.22759221 0.21303241 0.0026565297
000110 e6 7b 33 3e 34 21 a3 bd 93 4e 67 3b a0 b3 56 3e
       0.17527732 -0.07965317 0.0035294637 0.20966959
000120 e1 79 60 be 73 49 1c be ac d2 22 be 7c 9b cb 3d
       -0.21921493 -0.15262394 -0.15900677 0.09941766
000130 21 12 22 bd 85 1e 34 3e 1b cf 6e be 17 33 38 be
       -0.03956807 0.17589767 -0.23321192 -0.17988239
000140 c3 b2 9a bd cf aa d6 bd ab 09 67 be cb 76 d7 3d
       -0.07553627 -0.10481798 -0.22562282 0.10520705
000150 65 bf 09 be 0e ab 08 3e 53 6b 07 39 89 66 2c be
       -0.13451917 0.13346502 0.00012914585 -0.16835989
000160 5e 88 60 bd 2a 20 e2 bd 0b f7 10 3d 5b 00 89 3c
       -0.05481755 -0.11041291 0.03539185 0.016723802
000170 cd 58 d9 bd 3f c5 e0 3c 06 b1 8f be eb 5e 52 bd
       -0.106126405 0.027437804 -0.28064746 -0.051360052
000180 65 9b 74 be 21 b2 a0 3e ba 91 84 be 6d d0 9a be
       -0.23887403 0.31385902 -0.2589243 -0.3023714
000190 ce ee a8 3c e6 48 98 3e 7d 5b ad 3b c3 9e 0c 3d
       0.020621683 0.29743117 0.0052904473 0.034331094
0001a0 3c 60 19 be c3 81 c4 bc b5 36 36 be 5e 55 2b be
       -0.14978117 -0.023987656 -0.17794307 -0.16731784
0001b0 bf 4d de 3d 7b d6 47 be 43 b1 e4 3c d3 0a 2a 3e
       0.10854673 -0.19515412 0.027916556 0.16605692
0001c0 3a d5 0f 3d 91 82 02 3e 0e 97 7d be c7 2b cc bd
       0.035115458 0.1274512 -0.24764654 -0.09969287
0001d0 b9 e4 86 be 8c 8c e3 3d ec 0e 28 be 22 80 83 3d
       -0.26346377 0.111107916 -0.16411942 0.06420924
0001e0 8e 7b 3e be b3 08 63 bd 49 bb 8e 3c e5 91 9a 3d
       -0.1860182 -0.055428218 0.017423289 0.075473584
0001f0 a5 3a 71 be a9 d5 85 bd 35 d4 6d be 14 4f ce bd
       -0.23557527 -0.06534893 -0.23225482 -0.10073677
000200 1c c6 10 3b 8d 89 a9 3d 7c 16 25 be a3 59 82 bd
       0.0022090739 0.08278189 -0.16121858 -0.06364753
000210 aa 5c d5 bd be 75 8f 3e 2e c9 32 be fb 8d a3 be
       -0.10418065 0.28019518 -0.17459556 -0.3194426
000220 17 b8 16 be 21 62 a2 3e cc c2 59 bd 9f c7 41 3d
       -0.14718662 0.3171549 -0.05316429 0.047309514
000230 99 3d 4b bc 52 99 a1 bd ab 03 7d 3c 2d e7 41 3d
       -0.012404823 -0.07890572 0.015442769 0.047339607
000240 47 cb 4f 3e 46 eb 26 bd b2 f8 86 be 7f eb 53 3e
       0.20292388 -0.040751718 -0.26361614 0.20695303
000250 82 2d 5e bd 4c c3 8c 3d 87 fc a6 3c 3e 70 ab 3d
       -0.05424262 0.068731874 0.020384086 0.08371018
000260 fc 72 15 3e 87 18 20 bc e8 48 a7 3d ee 13 15 be
       0.14594644 -0.009771473 0.08168203 -0.14558384
000270 79 38 40 bf 87 de 4c 3e 0c a0 36 bd 04 9f cc 3d
       -0.7508617 0.20006762 -0.044586226 0.09991267
000280 b4 76 23 3e 42 79 6f bd 3e 23 84 be 99 de 3d 3e
       0.1596325 -0.05846525 -0.25808138 0.18541946
000290 79 fa 5c 3e 6e bb d9 bd 0c 59 81 3e a3 72 68 bd
       0.21579923 -0.106314525 0.2526325 -0.05674995
0002a0 c6 b8 2e 3d 09 f5 9a bc 5c 15 17 3e df 85 7b bc
       0.042656682 -0.01891567 0.14754242 -0.015351742
0002b0 77 6c 6c bd 59 aa ae be b3 c6 99 3c ac 37 67 3d
       -0.057720628 -0.3411434 0.018771505 0.056449577
0002c0 00 a8 a8 bd eb 90 dd bc 29 b2 e5 bd c8 2e 16 3e
       -0.082351685 -0.027046641 -0.11215622 0.14666283
0002d0 9a 9b 70 3e e6 61 6f be db 0b 8f bc 9e 0e ba bd
       0.23496857 -0.23377189 -0.017461708 -0.09084819
0002e0 a1 93 72 3e e2 f1 16 bc 14 42 0e 3e 83 81 e0 bd
       0.23689128 -0.009212943 0.13892394 -0.109622024
0002f0 3f f6 4b 3e 1e b0 f6 3b 1f a0 70 3e bb da b1 be
       0.19918154 0.007528319 0.23498581 -0.3473719
000300 10 f5 14 be c2 03 87 be 30 6f d0 bb 16 9d bb 3d
       -0.14546609 -0.26370054 -0.006360911 0.09160821
000310 b7 71 2c 3d 3a 80 d4 3d 59 a4 1f 3e c8 a5 36 bd
       0.042100634 0.1037602 0.15590037 -0.044591695
000320 4a be 51 3e c9 f9 85 be 1d 03 db bd 77 47 0b be
       0.20482746 -0.26167133 -0.10693953 -0.1360148
000330 50 db d9 ba ac f9 32 3c ed 51 71 3b 40 33 02 bd
       -0.0016621146 0.010923784 0.0036822513 -0.031787157
000340 12 7e ad 3c 1d 60 cf bd 47 e4 68 bd d5 c5 2a bd
       0.02117828 -0.10125754 -0.056858327 -0.041692574
000350 5f 38 35 bd a8 02 53 be 11 78 70 bc c8 8a d7 3c
       -0.044243213 -0.20606482 -0.014677064 0.026311293
000360 3d 1c 54 3e b1 4e bb bd 7e 92 79 3c cf d4 36 3d
       0.20713897 -0.091458686 0.01523268 0.044636544
000370 5a 0d 08 be 9c 1a 4d bd 44 82 44 be 6a 0a 3e 3e
       -0.13286343 -0.050074205 -0.19190317 0.1855866
000380 ab cf 48 be 48 df 75 3e b3 04 36 be 52 3e 9d 3c
       -0.19610469 0.24010956 -0.1777523 0.019194756
000390 92 e3 a9 bd 97 59 88 be 42 21 22 3e 9f 2f 6b 3e
       -0.08295359 -0.26630852 0.15833 0.22967385
0003a0 63 3c 40 be 59 ac 8f 3d 66 7a bd bc 63 e9 68 3c
       -0.18773036 0.070152946 -0.023129653 0.0142158
0003b0 97 99 d6 bd da 68 22 3e 22 98 7c 3d 96 3c 4f 3d
       -0.10478514 0.1586031 0.061668523 0.05059489
0003c0 9e 35 5c 3b ef 34 d6 bd ad e8 a9 3d 32 2c f7 3d
       0.0033601294 -0.10459315 0.082963325 0.120689765
0003d0 52 fe a1 3d b1 3f a6 bd 7d a0 29 be 28 9d 82 bd
       0.07909836 -0.08117617 -0.16565128 -0.063776314
0003e0 17 06 f2 3d dd 83 16 be ca 7c 99 3d e3 47 8d 3d
       0.11817568 -0.1469874 0.07494505 0.06898477
0003f0 0d 10 98 bd e1 22 00 be c3 fc 85 be c0 75 d3 bd
       -0.074249364 -0.12513305 -0.26169404 -0.103251934

B1 f4 [10]
000000 8e 75 2a 3e 63 54 a0 ba fe 18 ab ba 94 8a 6e bd
       0.16646406 -0.001223218 -0.0013053713 -0.058237627
000010 3d 76 79 bd 5d 1a a0 bc 66 62 b2 bc eb f0 9c 3d
       -0.060903776 -0.019543821 -0.021775436 0.07663139
000020 c7 41 38 be 2f 73 a0 bc
       -0.17993842 -0.019586174
