onnx-to-hls/example-onnx-model-files/conv1d_small_keras.onnx (onnx, 2931 bytes, 9 tensors)

W f4 [3, 4, 4]
-0.018937547 -0.007844773 0.004113166 0.005884148 0.052365042 -0.016787622 0.14340518 -0.19068162
0.0556011 0.11507263 0.1433768 -0.20911874 -0.35666972 0.0030920384 -0.034060437 -0.45892707
-0.037392635 -0.029544672 -0.051169418 0.043105587 0.017880304 0.107498474 -0.00087372615 0.13144527
0.07068018 0.12991987 0.049292363 0.027709844 0.23364241 0.1849761 0.23881884 0.100217156
0.028013721 0.049603805 0.21760888 -0.09039291 -0.016708665 -0.26426852 -0.080448344 -0.2751374
-0.17269771 -0.02209659 -0.0052979924 -0.2677149 0.3209614 0.19512719 0.051987026 0.0727229
00000000: ea22 9bbc 5d87 00bc bdc7 863b d0cf c03b
00000010: ba7c 563d 3286 89bc cfd8 123e 0b42 43be
00000020: fbbd 633d 33ab eb3d 5ed1 123e 3923 56be
00000030: 6a9d b6be cca3 4a3b f582 0bbd 7df8 eabe
00000040: 0529 19bd ab07 f2bc 0697 51bd 7c8f 303d
00000050: b779 923c 2928 dc3d c50a 65ba 9799 063e
00000060: c5c0 903d b709 053e cae6 493d c1ff e23c
00000070: f53f 6f3e 606a 3d3e ed8c 743e a73e cd3d
00000080: 087d e53c 5c2d 4b3d ddd4 5e3e eb1f b9bd
00000090: 9ce0 88bc 344e 87be 1ac2 a4bd cfde 8cbe
000000a0: abd7 30be e803 b5bc c89a adbb ed11 89be
000000b0: 0d55 a43e 6ccf 473e 59f0 543d beef 943d

B f4 [3]
-0.04257674 0.2953505 0.16558002
00000000: f364 2ebd 2e38 973e cf8d 293e

W1 f4 [2, 3, 4]
0.13292049 0.3977064 0.1386393 0.343276 -0.38321513 0.062263127 -0.06409502 0.005349392
-0.4072994 0.016437536 -0.054113187 0.066460535 -0.28721964 -0.17293274 -0.30474806 0.016782062
0.16378339 0.2952648 0.20911947 0.3120695 0.061263423 0.064699255 0.21517709 0.06576152
00000000: 4f1c 083e 2ca0 cb3e 76f7 0d3e dfc1 af3e
00000010: c634 c4be 9f07 7f3d 4044 83bd f449 af3b
00000020: 8c89 d0be 03a8 863c caa5 5dbd 761c 883d
00000030: 740e 93be 4815 31be f007 9cbe 897a 893c
00000040: d5b6 273e f32c 973e 6a23 563e 93c7 9f3e
00000050: 5bef 7a3d 0b81 843d 6257 5c3e faad 863d

B1 f4 [2]
0.119129196 0.08324994
00000000: 02fa f33d f27e aa3d

W2 f4 [1, 2, 4]
-0.08462492 -0.01656727 -0.40032932 -0.3427319 -0.45545653 0.30821413 0.37682623 0.33569402
00000000: d44f adbd 15b8 87bc f7f7 ccbe 8e7a afbe
00000010: 9931 e9be 3ece 9d3e 5eef c03e 16e0 ab3e

W3 f4 [10, 5]
0.6353959 0.32111478 0.5269603 -0.48353398 0.3170435 -0.06847322 -0.3579058 -0.106984355
-0.30626553 -0.29483798 0.21106529 -0.36677983 0.39639598 0.53512084 -0.033146884 0.18752131
0.04605197 0.14320566 -0.390342 -0.13325495 0.29741323 0.0994886 0.2103746 -0.04055061
0.48094204 0.17953472 0.02303317 -0.12654313 -0.01081829 -0.13617906 0.13913392 0.13592584
0.5403886 -0.016978486 0.006566972 -0.40191466 0.581406 0.29010403 -0.09314073 0.6571047
-0.059805658 -0.33119383 -0.10540189 -0.14370166 -0.31824532 -0.5630863 -0.30310908 -0.16619244
0.94740653 -0.4598057
00000000: 4ea9 223f 2869 a43e dfe6 063f c491 f7be
00000010: 8753 a23e b03b 8cbd 6e3f b7be 9d1a dbbd
00000020: d6ce 9cbe 01f5 96be 8021 583e 91ca bbbe
00000030: 6af4 ca3e aefd 083f 07c5 07bd 9605 403e
00000040: fea0 3c3d 81a4 123e e8da c7be fc73 08be
00000050: 8c46 983e aec0 cb3d 706c 573e 6518 26bd
00000060: 093e f63e f3d7 373e 0fb0 bc3c 8694 01be
00000070: 323f 31bc 8672 0bbe 1f79 0e3e 2530 0b3e
00000080: e856 0a3f 7716 8bbc c12f d73b c2c7 cdbe
00000090: 06d7 143f 8488 943e 91c0 bebd 0338 283f
000000a0: c7f6 74bd 3d92 a9be f2dc d7bd 8726 13be
000000b0: 0df1 a2be 6c26 10bf 1d31 9bbe 5a2e 2abe
000000c0: 3c89 723f a76b ebbe

B3 f4 [5]
-0.3277503 -0.14892897 -0.022744786 0.38877264 0.106620304
00000000: e3ce a7be d680 18be 4653 babc 350d c73e
00000010: bf5b da3d

W4 f4 [5, 5]
-0.26840332 0.5014272 -0.14415357 -0.45696557 -0.4099277 0.18170083 0.8188979 -0.6475965
-0.61183935 -0.13880509 -0.27944428 0.6080863 0.7366878 0.7995805 -0.2527284 0.2319334
-0.47638604 -1.0833145 -1.099306 0.6963587 -0.404032 -0.34517768 0.4965121 0.34857216
-0.15747531
00000000: 296c 89be 885d 003f fe9c 13be 64f7 e9be
00000010: 0be2 d1be c80f 3a3e 4ba3 513f e2c8 25bf
00000020: 81a1 1cbf ec22 0ebe 5213 8fbe 8bab 1b3f
00000030: 9297 3c3f 4fb1 4c3f 9e65 81be f37f 6d3e
00000040: dfe8 f3be 0daa 8abf 0fb6 8cbf 9044 323f
00000050: 48dd cebe 21bb b0be d536 fe3e 0d78 b23e
00000060: 3541 21be

B4 f4 [5]
0.33845747 -0.26747248 -0.17244026 -0.08983832 0.14726248
00000000: 4c4a ad3e 27f2 88be 2e94 30be 27fd b7bd
00000010: facb 163e
