onnx-to-hls/example-onnx-model-files/conv2d_small_mp_keras.onnx (onnx, 4757 bytes, 12 tensors)

W f4 [5, 1, 3, 3]
0	0x3db0cf8b	0.08633336
1	0x3e11bc18	0.14231908
2	0xbf610d71	-0.87911135
3	0x3e229ded	0.15880556
4	0xbedf1c65	-0.4357635
5	0x3dc6ac6d	0.09700856
6	0xbf26d16f	-0.6516332
7	0xbfdccb5b	-1.7249559
8	0xbfaa7947	-1.3318261
9	0x3dcc8509	0.09986312
10	0x3e4bd3bb	0.19904988
11	0x3decd8f2	0.115648165
12	0x3e3fb246	0.1872035
13	0x3ecf5110	0.40491533
14	0x3e186f88	0.14886296
15	0x3e319dd9	0.1734537
16	0x3e47b5a2	0.19502881
17	0x3de1450a	0.10999496
18	0x3e0ca0d4	0.13733226
19	0x3db4b756	0.08824031
20	0xbe8c05e2	-0.27348238
21	0x3e66b1bd	0.2252874
22	0x3f2aff94	0.6679623
23	0x3e7caeb9	0.24676026
24	0xbecc779a	-0.39935
25	0x3e9329ba	0.28742772
26	0x3e4b0ee4	0.19829899
27	0xbf8c2718	-1.094943
28	0xbf9b23c1	-1.2120286
29	0xbbde9116	-0.006792198
30	0xbf54024a	-0.8281599
31	0x3ded763c	0.11594817
32	0xbfb77ff1	-1.433592
33	0xbab7782a	-0.0013997604
34	0xbf44f981	-0.7694321
35	0xbfa3f4ad	-1.2809044
36	0xbfb4b8a7	-1.4118851
37	0xbfa9bbe9	-1.3260471
38	0x3cf31c4e	0.029676583
39	0xbf986eb2	-1.1908782
40	0xba852b5f	-0.001016002
41	0x3db5b97c	0.08873269
42	0x3d382fb3	0.044967365
43	0x3dd2f52c	0.10300669
44	0x3dc4d4af	0.09610879

B f4 [5]
0	0x3accbb99	0.0015619873
1	0xbb0a53ac	-0.0021107001
2	0xb0983b9f	-1.1076401e-09
3	0x3c8a5a96	0.016888898
4	0x38c7ae52	9.521529e-05

scale f4 [5]
0	0x3e3006b8	0.17190063
1	0x3d115bc6	0.035487913
2	0x3cc8e14b	0.02452149
3	0x3ea163c4	0.31521428
4	0x3e5e7355	0.21723683

bias f4 [5]
0	0xbc2dce75	-0.010608305
1	0xbc56c1a0	-0.013107687
2	0xbc0c8dc8	-0.008578725
3	0x3d94f76c	0.072737545
4	0xbc1cc404	-0.009568218

mean f4 [5]
0	0x00000000	0.0
1	0x00000000	0.0
2	0x00000000	0.0
3	0x80000000	-0.0
4	0x00000000	0.0

var f4 [5]
0	0x3f800000	1.0
1	0x3f800000	1.0
2	0x3f800000	1.0
3	0x3f800000	1.0
4	0x3f800000	1.0

W1 f4 [2, 5, 5, 5]
0	0xbd0e250f	-0.03470331
1	0xbd56f065	-0.05247535
2	0xbe27fff7	-0.16406237
3	0xbd91322a	-0.07089646
4	0xbe52f090	-0.2059958
5	0xbe8b8847	-0.2725241
6	0xbe84c789	-0.25933483
7	0xbe0dbab9	-0.1384076
8	0xbe360321	-0.17774631
9	0xbcdb1ca1	-0.02674705
10	0xbca17251	-0.01970783
11	0xbc1d73fb	-0.009610171
12	0xbddefbab	-0.108878456
13	0xbd7a80f5	-0.06115814
14	0xbd9699b6	-0.07353537
15	0xbc785f15	-0.015159388
16	0xbcdc7f89	-0.026916282
17	0xbddf99f3	-0.10918035
18	0xbe6a445d	-0.22877641
19	0xbc1c8e64	-0.009555433
20	0xbe021836	-0.12704548
21	0xbe9ec6d0	-0.31011057
22	0xbe92e2be	-0.28688616
23	0xbe5a1bfb	-0.21299736
24	0xbe000bc5	-0.1250449
25	0xbdb31fb7	-0.087462835
26	0xbd777129	-0.060410652
27	0xbd17b9c5	-0.037042398
28	0xbd6ba987	-0.05753472
29	0x3d98bcd8	0.07457894
30	0xbc84b025	-0.016197274
31	0xbd81a8f4	-0.063310534
32	0xbe22068d	-0.15822811
33	0xbe195d4a	-0.14976993
34	0xbbb73e09	-0.005592112
35	0x3c389e74	0.011268247
36	0xbd02bf1d	-0.03192054
37	0x3dc6b070	0.097016215
38	0xbd62298f	-0.055215415
39	0x3b89859b	0.004196835
40	0xbc99b0ef	-0.018761126
41	0xbe01f230	-0.12690043
42	0xbe8bb4f0	-0.27286482
43	0xbdc5eda5	-0.09664468
44	0xbd036e1c	-0.03208743
45	0xbdba44fb	-0.09095188
46	0xbddc6cd1	-0.107629426
47	0xbe4c8de4	-0.19976002
48	0xbe8bdd8c	-0.27317464
49	0xbeb1d25b	-0.347308
50	0xbdc2bed2	-0.09509052
51	0xbe0509d9	-0.12992038
52	0x3dff9ec3	0.12481453
53	0xbd6d1b77	-0.05788752
54	0xbe19730a	-0.1498529
55	0xbd1df349	-0.038562093
56	0xbe80e263	-0.2517272
57	0xbe3b93d8	-0.18318117
58	0xbdc3637c	-0.095404595
59	0xbcc4d5f4	-0.024027802
60	0x3c2571eb	0.010097961
61	0xbd519f2f	-0.0511772
62	0xbea99fd0	-0.3312974
63	0xbd83446b	-0.06409534
64	0x3d36db54	0.04464276
65	0xbd2a7caa	-0.041622795
66	0xbdf521fc	-0.11969373
67	0xbe9503ed	-0.29104558
68	0xbe976fc5	-0.2957746
69	0xbdef63ef	-0.11688983
70	0xbded8d11	-0.11599172
71	0xbda67008	-0.08126837
72	0xbe0d6715	-0.13808854
73	0xbe662f10	-0.2247889
74	0xbe495b92	-0.19663838
75	0xbbe4dd5c	-0.006984396
76	0xbd4ce026	-0.050018452
77	0xbce927be	-0.028461333
78	0xbe435d91	-0.19078662
79	0x3d35400f	0.044250544
80	0xbda9aba6	-0.082846925
81	0xbdea05bd	-0.11426876
82	0xbda9f82b	-0.082992874
83	0xbe4b880d	-0.19876118
84	0xbdc430df	-0.09579634
85	0xbb9545e5	-0.004555451
86	0xbdc559e6	-0.096362874
87	0xbdf1346a	-0.11777575
88	0xbd6bf2c5	-0.05760457
89	0x3cd27db2	0.025694702
90	0xbddcb543	-0.107767604
91	0xbe11e778	-0.14248455
92	0xbd016713	-0.03159244
93	0xbd8e0a4e	-0.06935559
94	0xbe5e523f	-0.21711062
95	0xbd264622	-0.040594228
96	0xbdba35ad	-0.09092269
97	0xbd509a0b	-0.050928157
98	0xbde73595	-0.11289517
99	0xbe72ffbe	-0.2373037
100	0xbd68218a	-0.05667261
101	0xbdd70c7c	-0.10500428
102	0xbe8d21df	-0.27564904
103	0xbd316bcf	-0.043315705
104	0xbde7b7f4	-0.11314383
105	0xbc6de8b1	-0.01452081
106	0xbdb23d18	-0.08703059
107	0xbe146c14	-0.14494354
108	0xbd34f6f1	-0.044180814
109	0xbb3ccdbe	-0.0028809155
110	0xbd87f769	-0.066389866
111	0xbe40a7d3	-0.1881402
112	0xbe57f5a8	-0.21089804
113	0xbbb01b61	-0.0053743576
114	0xbd338f74	-0.04383798
115	0xbe13a092	-0.14416721
116	0xbe9b8b4d	-0.30379716
117	0xbe9c6e59	-0.3055294
118	0xbdb8dc0e	-0.09026347
119	0xbe18a4ad	-0.14906569
120	0xbdcd6a3f	-0.100300305
121	0xbdfab044	-0.12240651
122	0xbcfacf9e	-0.030616578
123	0xbe83cc3b	-0.25741753
124	0xbe59dd72	-0.21275881
125	0xbcbcc357	-0.023042364
126	0x3c712325	0.014717852
127	0xbc8f219d	-0.017472083
128	0xbc6fd79c	-0.014638808
129	0xbca80a5f	-0.020512758
130	0x3d0164ee	0.031590395
131	0x3cb7fa0c	0.022458099
132	0xbc5bbc1b	-0.013411547
133	0xbcb15168	-0.021645263
134	0xbc636243	-0.013878408
135	0xbc65800d	-0.0140075805
136	0xbd02c1fc	-0.03192328
137	0xbde6bd5c	-0.11266586
138	0x3cf6d42e	0.030130472
139	0x3d041285	0.032244224
140	0xbc6972e0	-0.01424858
141	0xbb4186a8	-0.0029529724
142	0x3d0fabba	0.03507588
143	0x3d901b3e	0.07036446
144	0x3d6eced9	0.058302734
145	0xbcdfff6a	-0.02734347
146	0xbc42a6bd	-0.011880574
147	0x3d23b69e	0.03996908
148	0x3d463427	0.04838958
149	0x3dc30314	0.095220715
150	0x3e6f8f5f	0.23394535
151	0x3cc54057	0.024078531
152	0xbd22c470	-0.03973812
153	0xbd4e6e83	-0.05039836
154	0xbd8bfc9a	-0.06835289
155	0xbc80ce16	-0.01572327
156	0x3d20ee99	0.039290044
157	0xbccf3369	-0.025293069
158	0x3cd55e96	0.026046079
159	0x3947f0f6	0.00019067884
160	0xbd2070e8	-0.039170176
161	0xb9d86015	-0.00041270317
162	0x3dca87c8	0.098891795
163	0x3e65cb05	0.22440727
164	0x3dc57464	0.096413404
165	0xbd350edf	-0.044203635
166	0x3cb4512c	0.022011362
167	0x3e6cecf8	0.23137271
168	0x3efa5416	0.48892277
169	0x3eb27033	0.34851226
170	0xbd9e0bd1	-0.077170976
171	0x3c2e7988	0.0106490925
172	0x3dc41e0a	0.09576042
173	0x3ea505c5	0.32230964
174	0x3dcc205b	0.09967109
175	0x3e49c73e	0.19704911
176	0x3a9fb71d	0.0012185309
177	0xbd1f04ed	-0.038823057
178	0xbd7fcd99	-0.062451933
179	0xbd09f8ba	-0.03368447
180	0x3c319325	0.010838305
181	0x3d9d2a45	0.07674078
182	0x3bf04fa4	0.0073337127
183	0x3d3539fd	0.044244755
184	0x3cc0d8c8	0.02354087
185	0xbd4e5659	-0.050375316
186	0x3ce59ab0	0.028027862
187	0x3d1b9fc6	0.03799417
188	0x3e5580b2	0.20849875
189	0x3d16b0a1	0.03678954
190	0xbd05b327	-0.032641556
191	0x3d635449	0.055500302
192	0x3e51f30c	0.20502871
193	0x3eeed8e9	0.46649864
194	0x3e9f8688	0.31157327
195	0xbd5c6002	-0.053802498
196	0x3c33bf8d	0.010970962
197	0x3d10c3a7	0.03534284
198	0x3ea8d839	0.32977465
199	0x3d2add9c	0.04171525
200	0x3e248464	0.16066128
201	0xbdcca08c	-0.099915594
202	0xbc7f2dc1	-0.015574873
203	0xbc8b1ee8	-0.01698251
204	0xbe03488d	-0.12820645
205	0xbd96bf92	-0.07360758
206	0xbe1e96f5	-0.15487273
207	0x3c20f558	0.0098241195
208	0x3cf306ab	0.029666265
209	0xbe41dbdf	-0.1893153
210	0xbcba9c67	-0.022779657
211	0x3c6d7ace	0.014494611
212	0xbdec5dba	-0.115413144
213	0xbe1dd91a	-0.15414849
214	0xbdeb078a	-0.11476047
215	0x3cb7a051	0.022415312
216	0x3c0029be	0.007822452
217	0xbe04f612	-0.12984493
218	0xbe6718fa	-0.22568122
219	0xbd25ab64	-0.040446654
220	0xbddceb6e	-0.10787092
221	0xbe3b7da0	-0.18309641
222	0xbde3b2c2	-0.1111808
223	0xbd8f2694	-0.0698978
224	0xbe543860	-0.2072463
225	0xbbfb40bb	-0.0076676286
226	0xbd72f346	-0.059314035
227	0xbc8e8352	-0.017396603
228	0xbc894c2d	-0.016759956
229	0xba95676f	-0.0011398623
230	0xbcdcc818	-0.02695088
231	0xbe38204f	-0.17981075
232	0x3c898cc5	0.016790757
233	0x3cfbb4cd	0.030725861
234	0x3d4ae285	0.049532432
235	0xbc1dcade	-0.009630887
236	0x3cd78b53	0.026311552
237	0x3d9d6e53	0.07687058
238	0x3de91c90	0.11382401
239	0x3dc4faa8	0.096181214
240	0xbc73eb69	-0.014887669
241	0x3c78f567	0.015195227
242	0x3de53380	0.111914635
243	0x3e0864ce	0.13319704
244	0x3cfd5471	0.030924054
245	0xbbbce049	-0.0057640416
246	0x3d487d8b	0.048947852
247	0x3da92516	0.08259027
248	0x3ce01ec2	0.027358416
249	0x3da79f9d	0.08184741

B1 f4 [2]
0	0xbe2ceaae	-0.16886398
1	0xbcfa862d	-0.030581558

W2 f4 [18, 10]
0	0x3db781c5	0.089602984
1	0x3e80f32f	0.25185534
2	0xbca98e62	-0.020697776
3	0x3c8394bf	0.016062139
4	0x3dcf26f6	0.10114853
5	0xbeb918c8	-0.3615172
6	0xbe73bb4c	-0.23801917
7	0x3e3e6dac	0.18596524
8	0x3e6ec69d	0.23317952
9	0xbe308278	-0.1723727
10	0x3e2c779d	0.16842504
11	0x3ee5610b	0.448006
12	0x3de219bc	0.11040065
13	0xbe6cf8b7	-0.23141752
14	0x3e279f53	0.16369371
15	0xbe83722a	-0.25673038
16	0xbed6b86e	-0.41937584
17	0x3e44186f	0.19149946
18	0xbe3e578b	-0.18588082
19	0x3b970637	0.004608895
20	0x3e685058	0.22686899
21	0x3e0b33f3	0.13594036
22	0xbe4bad96	-0.19890437
23	0x3ebe1db5	0.3713204
24	0x3e031334	0.12800294
25	0xbf247563	-0.6424162
26	0xbddbea04	-0.10737994
27	0x3edd6467	0.43240663
28	0x3e72721d	0.23676343
29	0xbf06e5ba	-0.52694285
30	0x3e048522	0.12941411
31	0x3e5a97cb	0.21346967
32	0xbfa9de96	-1.3271053
33	0xbe8f3ef5	-0.2797772
34	0x3dbdf306	0.09274869
35	0xbe7825c4	-0.24233156
36	0xbee4c892	-0.44684273
37	0x3e1dd7dd	0.15414377
38	0xbdd5b067	-0.10434037
39	0x3b8553a8	0.0040688105
40	0x3e3e01bb	0.18555348
41	0x3e909034	0.28235018
42	0xbe9937ee	-0.29925483
43	0x3e923214	0.28553832
44	0x3e27a1ac	0.16370267
45	0xbf213419	-0.6297012
46	0xbeb2c39e	-0.3491487
47	0x3e9ed31b	0.31020436
48	0x3e866f15	0.26256624
49	0xbea0165e	-0.31267065
50	0x3d99e5bd	0.07514522
51	0x3ef6515c	0.48108947
52	0xbea4010a	-0.32032043
53	0xbe889d72	-0.2668262
54	0x3e28d15f	0.16486119
55	0xbeab6f38	-0.3348329
56	0xbef2b9f9	-0.4740751
57	0x3e979e5c	0.29613006
58	0x3d953322	0.072851434
59	0xbbdac49a	-0.0066762688
60	0x3e05e3ad	0.13075133
61	0x3e4879b0	0.1957767
62	0xbf166b91	-0.58757883
63	0x3eabcbfb	0.33554062
64	0x3e282a48	0.16422379
65	0xbf2a7f58	-0.6660056
66	0xbe8c0c22	-0.27353007
67	0x3ead94c1	0.33902553
68	0x3e84361f	0.2582254
69	0xbe6098a1	-0.21933223
70	0x3dec2f44	0.11532453
71	0x3e4e5c95	0.20152505
72	0xbfa3362a	-1.2750905
73	0xbef8b24c	-0.4857353
74	0x3d94b935	0.07261888
75	0xbe6a9890	-0.2290976
76	0xbebcbbdc	-0.36862075
77	0x3e27393b	0.16330425
78	0xbe499238	-0.19684684
79	0xbbe6fdc1	-0.007049293
80	0x3d9c1353	0.07620873
81	0xbcb5a990	-0.02217558
82	0x3e880f22	0.26574045
83	0x3e46f7a4	0.19430405
84	0x3d9887fd	0.07447813
85	0xbd43ad8c	-0.04777293
86	0x3e3fd759	0.18734492
87	0x3ce560c5	0.028000245
88	0x3e10699d	0.14102788
89	0xbee72ec1	-0.45152858
90	0xbc442fd5	-0.011974295
91	0xbb3d863f	-0.0028919128
92	0xbe530f2f	-0.20611261
93	0x3a181fdb	0.00058030867
94	0xbc71ddd8	-0.014762364
95	0xbcaecc02	-0.021337513
96	0x3a88a5e5	0.0010425417
97	0x3c64d1a7	0.013966001
98	0x3bed7dc9	0.007247661
99	0x3c202ece	0.009776784
100	0x3e5660f4	0.20935422
101	0x3d16423c	0.03668426
102	0xbc49ae64	-0.012309644
103	0x3ea8942d	0.3292555
104	0x3e4bf6f1	0.1991842
105	0xbe914163	-0.283702
106	0x3e044429	0.12916626
107	0x3e33fac6	0.17576131
108	0x3e933243	0.28749284
109	0xbf228c98	-0.6349578
110	0x3e847e09	0.25877407
111	0x3e8f6f4a	0.28014594
112	0xbfaefd5d	-1.367107
113	0xbf08967c	-0.5335462
114	0x3e806434	0.2507645
115	0xbea9e3bf	-0.3318157
116	0xbf5b9e8f	-0.85788816
117	0x3e3d2070	0.18469405
118	0xbe8328f6	-0.25617188
119	0xbc638b8e	-0.013888253
120	0x3e71d367	0.236158
121	0x3eb89425	0.36050525
122	0xbef54fba	-0.4791239
123	0x3e626b41	0.22111227
124	0x3de49355	0.11160914
125	0xbed16177	-0.40894672
126	0xbe9eaddb	-0.30992016
127	0x3e89f29f	0.26942918
128	0x3e150390	0.1455214
129	0xbe75e3c1	-0.24012662
130	0x3dbfe385	0.09369568
131	0x3f01489d	0.50501424
132	0xbea44732	-0.32085568
133	0xbd914399	-0.07092971
134	0x3dfa65bb	0.12226435
135	0xbecca0f0	-0.39966536
136	0xbeff5de7	-0.4987633
137	0x3e9ab74c	0.3021797
138	0x3c3b4b72	0.011431562
139	0xbddb6341	-0.107122906
140	0x3da345f9	0.079723306
141	0xbd9caf8a	-0.07650669
142	0x3c226f8e	0.009914292
143	0x3e1390d2	0.14410713
144	0x3d9602e5	0.07324771
145	0xbb8b26ef	-0.0042465846
146	0x3e17a74e	0.14809915
147	0x3d5f8418	0.054569334
148	0x3df56fbe	0.11984204
149	0xbf0ca4d5	-0.54939014
150	0x3e8493dd	0.2589406
151	0x3e81568a	0.25261337
152	0xbfa49479	-1.285781
153	0xbebcb36d	-0.3685564
154	0x3e799fc0	0.24377346
155	0xbeb26a4e	-0.3484673
156	0xbf52e147	-0.82374996
157	0x3e447312	0.19184521
158	0xbe4ee73e	-0.202054
159	0xbcceae10	-0.025229484
160	0x3e977d29	0.29587677
161	0x3f07f6db	0.53111047
162	0xbf1e3fb3	-0.6181595
163	0x3e6d6e47	0.23186599
164	0x3ea8df96	0.32983083
165	0xbf40cb9e	-0.75310695
166	0xbf48b966	-0.78407896
167	0x3f0064df	0.5015392
168	0x3e9617d9	0.2931507
169	0xbe1ce6b5	-0.15322383
170	0x3c2d3225	0.010571037
171	0xbd68b7e0	-0.056815982
172	0xbbbb62ac	-0.0057185497
173	0x3d18b1ab	0.037278812
174	0x3c2102b5	0.009827306
175	0x3c8e5429	0.017374115
176	0x3d9df723	0.07713153
177	0xbbde11c8	-0.006777022
178	0x3ceec102	0.029144768
179	0xbde7fc14	-0.11327377

B2 f4 [10]
0	0x3e11201f	0.1417241
1	0x3e16966c	0.14705819
2	0xbd762327	-0.060092118
3	0xbe3cbf5b	-0.18432371
4	0x3e3eb6bf	0.186244
5	0x3c7d9afa	0.015478844
6	0x3dffb3e8	0.12485486
7	0x3cde4d61	0.027136507
8	0xbe2078b0	-0.15671039
9	0x3eeea8d1	0.46613172

W3 f4 [10, 5]
0	0x3e8d83dc	0.27639663
1	0x3e5b351c	0.21406978
2	0xbeaa1768	-0.33220983
3	0xbe433f36	-0.19067082
4	0x3e7a0c37	0.24418722
5	0x3cdf2ea2	0.027243916
6	0xbdd645ce	-0.10462533
7	0xbe6b0c8d	-0.22954006
8	0xbe52944c	-0.20564383
9	0x3e20f3ca	0.15717998
10	0x3ea73f28	0.32665372
11	0x3f0718f4	0.5277245
12	0x3e9caac4	0.30599034
13	0x3e729976	0.23691353
14	0x3e6af85d	0.22946306
15	0x3dc66def	0.09688937
16	0x3da99e77	0.08282178
17	0xbd53da22	-0.0517217
18	0xbe1303cb	-0.14356916
19	0xbe661e80	-0.22472572
20	0x3e333b2c	0.17503041
21	0x3e0ce3e1	0.13758804
22	0xbeea2d1d	-0.45737544
23	0xbe9cc760	-0.3062086
24	0x3e1c987e	0.15292546
25	0xbe6473fa	-0.22309867
26	0x3dab3d51	0.083613046
27	0x3e09f20a	0.13471237
28	0x3dceddc7	0.101008944
29	0xbe87746a	-0.26456004
30	0x3e04b681	0.12960245
31	0x3e38648d	0.18007107
32	0x3e36f934	0.17868501
33	0x3ddc8f5e	0.107695326
34	0xbe10a262	-0.14124444
35	0x3e83a1a2	0.25709254
36	0xbcd603eb	-0.026124915
37	0xbe6ea521	-0.23305179
38	0xbe3f1c60	-0.18663168
39	0x3e6f782f	0.2338569
40	0x3d3a429b	0.045473676
41	0xbc30b410	-0.010785118
42	0xbe68f615	-0.22750123
43	0xbe9920d2	-0.29907852
44	0xbebdd46f	-0.37076136
45	0xbe35dcab	-0.1775996
46	0xbe45951b	-0.1929516
47	0x3e1030c1	0.14081098
48	0x3e129fad	0.14318724
49	0x3db48fe5	0.08816508

B3 f4 [5]
0	0x3d465f69	0.048430834
1	0x3b9dd779	0.004816946
2	0xbd121027	-0.035659935
3	0x3db0e7f2	0.0863799
4	0xbe072531	-0.13197781
