onnx-to-hls/example-onnx-model-files/dense_big_keras.onnx (onnx, 172539 bytes, 12 tensors)

W f4 [16, 100]
-7.6342525e-07 6.866467e-07 -3.7083458e-07 -1.5729785e-07 -2.0775587e-08 -1.1907002e-07 1.8090276e-08 -4.6231133e-07
7.6677594e-08 4.6532236e-09 -4.7881156e-07 4.5519508e-07 -6.237985e-07 -6.5035294e-07 -5.602142e-07 2.66989e-07
-3.3115663e-07 -7.586357e-07 -3.554481e-07 4.3031426e-07 -1.1444739e-06 -2.1008259e-07 1.4245586e-07 1.9066198e-07
1.2310286e-07 -8.646651e-09 -5.0299866e-07 4.2091077e-07 7.8866543e-07 4.1850373e-07 -1.1884227e-07 8.8182105e-07
-4.6817172e-07 9.4860934e-07 -5.2561757e-07 7.9436126e-07 3.8327275e-07 1.9590706e-07 8.7114745e-07 -4.947215e-07
5.7925035e-07 -1.163929e-07 -2.9109106e-07 -4.928098e-07 -5.59449e-07 2.8317055e-07 3.0342525e-07 3.3274048e-07
3.178809e-08 7.0036833e-07 4.9585407e-07 2.258407e-07 -1.949499e-07 -4.2149492e-07 -5.7156205e-07 -3.1203245e-07
4.3755304e-07 1.4724262e-07 8.6143885e-08 2.7639885e-07 3.8446234e-07 -1.04867325e-07 -3.3469846e-07 3.4822972e-07
-3.6904788e-07 6.277889e-07 1.0318277e-06 5.282424e-07 -5.2254074e-07 -2.1903278e-07 1.4843349e-07 4.766827e-07
5.3759862e-08 -1.6170198e-08 1.4516192e-07 -8.272692e-07 -1.9410663e-07 -5.890406e-07 3.8461002e-07 -1.0162185e-07
4.534184e-07 -1.5745057e-07 4.5126063e-07 9.622203e-08 -2.8938558e-07 2.9877037e-07 2.0421399e-07 4.95318e-07
5.036723e-07 8.506275e-07 2.2700448e-08 -1.9527022e-07 -8.6434966e-08 -5.1368943e-07 -4.5926404e-07 3.136777e-07
-4.794011e-07 1.4300977e-07 5.504425e-07 -5.59865e-07 -1.6276567e-07 -2.1316964e-07 2.539901e-07 -2.7034673e-08
3.6254363e-07 -4.7264007e-07 1.1068698e-06 -6.2698393e-07 2.8992616e-07 6.0409775e-09 5.867547e-07 -3.5740612e-07
6.917786e-07 7.027032e-08 1.172381e-06 -2.0959105e-07 -5.876057e-07 1.3440197e-07 -3.413101e-07 -1.12693186e-07
3.0785165e-07 1.2792168e-07 2.086694e-07 -6.668296e-07 -1.1886426e-07 -1.2357498e-07 1.9571621e-07 9.650902e-07
-8.2371486e-08 1.8553851e-07 1.3925111e-07 -3.1405506e-07 4.2501628e-07 -4.0773784e-08 -1.0150643e-06 -2.2157982e-07
-4.261299e-07 -4.85106e-07 2.055245e-07 2.1176774e-07 -4.4766907e-07 1.5459905e-07 3.4182793e-07 7.8095655e-07
-3.9522533e-08 -8.836326e-07 -1.1248263e-07 3.313942e-07 -2.9157832e-08 1.6257238e-07 2.1796782e-07 -5.796784e-08
-6.4599305e-08 -1.2058152e-07 -7.890557e-08 -7.544621e-08 -1.9662944e-07 -1.4694916e-07 -3.8596625e-07 -7.0478086e-07
-5.770029e-07 -3.0071465e-07 -1.14894675e-07 -1.044493e-07 -5.354844e-07 -6.468787e-07 9.226429e-08 2.6057208e-07
2.4528788e-07 -1.9938368e-07 -3.3248958e-07 2.1277904e-07 -2.7773115e-07 -4.1895282e-07 -5.1671736e-07 2.510174e-07
1.3481905e-07 6.892917e-08 -6.693528e-07 -1.8727417e-07 5.0728227e-07 1.0239478e-06 2.7328883e-07 -4.392273e-07
-3.886708e-07 -1.6576607e-08 4.0162104e-07 1.2789634e-07 -1.758963e-07 2.3831299e-07 -5.8218035e-07 5.0758183e-07
1.1243071e-07 -1.530511e-07 1.3616608e-07 5.8962854e-07 -8.850941e-08 -1.747405e-07 9.4436916e-07 1.869187e-07
-2.607904e-07 -5.052462e-07 -1.3571399e-07 -1.1713967e-06 1.19719346e-08 -2.2168877e-07 -5.942786e-07 3.4019052e-07
-4.4229924e-07 -5.6063215e-08 -3.4045752e-07 -1.7128477e-07 -8.6535994e-07 1.6896934e-07 -4.081317e-07 1.6056228e-07
8.484395e-08 2.554977e-07 2.4931052e-07 -2.6707764e-07 -1.4498367e-07 -3.097241e-07 2.1484226e-08 -5.6642716e-07
3.1400654e-07 -5.1540985e-07 1.9781064e-07 1.1140483e-07 -4.2275434e-07 -5.500385e-07 -6.778049e-07 1.1713581e-08
1.4477575e-07 -1.8555085e-07 -8.9678264e-07 3.863278e-07 3.261277e-07 -7.166534e-08 -7.4314335e-07 2.3107728e-07
-7.985567e-07 1.0923351e-10 4.185162e-07 4.442928e-07 -2.1555418e-07 -5.9845524e-07 3.412285e-08 2.9207118e-07
-1.3368071e-07 2.7633544e-07 -2.1148077e-07 2.8008733e-07 -5.1811526e-08 -4.48888e-07 1.9220488e-07 -7.847141e-07
00000000: 2fee 4cb5 0052 3835 1e17 c7b4 b4e5 28b4
00000010: 0076 b2b2 70b3 ffb3 f064 9b32 9633 f8b4
00000020: f4a9 a433 30e2 9f31 ae87 00b5 8961 f434
00000030: 1b73 27b5 ea93 2eb5 a061 16b5 b056 8f34
00000040: d2c9 b1b4 0ca5 4bb5 6ad4 beb4 f105 e734
00000050: d39b 99b5 1093 61b4 f8f5 1834 c4b8 4c34
00000060: 422e 0434 608c 14b2 ce05 07b5 89f9 e134
00000070: adb4 5335 b7ae e034 3b36 ffb3 48b6 6c35
00000080: 0859 fbb4 f0a3 7e35 2a18 0db5 173c 5535
00000090: 9bc4 cd34 865a 5234 ccd8 6935 01cd 04b5
000000a0: c87d 1b35 acf3 f9b3 4047 9cb4 a249 04b5
000000b0: 0b2d 16b5 aa06 9834 73e6 a234 81a3 b234
000000c0: 6087 0833 f200 3c35 d51a 0535 9e7e 7234
000000d0: 6c53 51b4 d249 e2b4 726d 19b5 6a85 a7b4
000000e0: d5e8 ea34 be19 1e34 1afe b833 f863 9434
000000f0: 1a68 ce34 6c33 e1b3 9bb0 b3b4 54f4 ba34
00000100: 8e21 c6b4 5385 2835 547d 8a35 8bcc 0d35
00000110: ba44 0cb5 462f 6bb4 1661 1f34 c5ea ff34
00000120: 98e5 6633 a4e6 8ab2 cedd 1b34 8211 5eb5
00000130: a06b 50b4 901e 1eb5 667c ce34 343b dab3
00000140: 5a6d f334 af0f 29b4 ca44 f234 9fa2 ce33
00000150: da5c 9bb4 b066 a034 ea45 5b34 fef5 0435
00000160: 1934 0735 ad56 6435 d0fe c232 78ab 51b4
00000170: 209e b9b3 78e4 09b5 c590 f6b4 8967 a834
00000180: 31b0 00b5 3a8e 1934 1fc2 1335 a149 16b5
00000190: b0c4 2eb4 a0e3 64b4 225c 8834 e039 e8b2
000001a0: 9ea3 c234 28bf fdb4 c28f 9435 024e 28b5
000001b0: 26a7 9b34 0091 cf31 7a81 1d35 86e1 bfb4
000001c0: aab2 3935 84e7 9633 b45a 9d35 f30b 61b4
000001d0: f5bb 1db5 2250 1034 4e3d b7b4 bc01 f2b3
000001e0: cf46 a534 d85a 0934 9c0e 6034 2e00 33b5
000001f0: 5142 ffb3 08b0 04b4 1026 5234 3f88 8135
00000200: 34e4 b0b3 7038 4734 0e85 1534 669b a8b4
00000210: cb2d e434 401f 2fb3 583d 88b5 66eb 6db4
00000220: d9c6 e4b4 3b38 02b5 25ae 5c34 4662 6334
00000230: 2b57 f0b4 ddff 2534 7984 b734 eda2 5135
00000240: 7cbf 29b3 c532 6db5 fb8d f1b3 79ea b134
00000250: c076 fab2 8e8f 2e34 8a0a 6a34 50f8 78b3
00000260: d8b9 8ab3 3279 01b4 cc72 a9b3 fe04 a2b3
00000270: 1721 53b4 14c9 1db4 cc36 cfb4 2c30 3db5
00000280: 56e3 1ab5 e871 a1b4 04bc f6b3 9c4d e0b3
00000290: 35be 0fb5 2aa5 2db5 d422 c633 c1e4 8b34
000002a0: 1cb0 8334 2b16 56b4 0581 b2b4 4278 6434
000002b0: 141b 95b4 70ec e0b4 8cb4 0ab5 92c3 8634
000002c0: c7c2 1034 3606 9433 93ad 33b5 8815 49b4
000002d0: 2c2c 0835 946e 8935 88b8 9234 f1ce ebb4
000002e0: 82aa d0b4 5864 8eb2 609e d734 e153 0934
000002f0: 02de 3cb4 fae2 7f34 2147 1cb5 c240 0835
00000300: 7071 f133 5e56 24b4 0c35 1234 f746 1e35
00000310: 9012 beb3 4ea0 3bb4 8e80 7d35 d2b3 4834
00000320: c202 8cb4 41a0 07b5 c7b8 11b4 e238 9db5
00000330: 20ad 4d32 5809 6eb4 8486 1fb5 6ea3 b634
00000340: 2575 edb4 28ca 70b3 20c8 b6b4 66ea 37b4
00000350: 154b 68b5 f06d 3534 321d dbb4 0667 2c34
00000360: 7433 b633 562b 8934 fad8 8534 df62 8fb4
00000370: cfac 1bb4 2848 a6b4 508c b832 940c 18b5
00000380: bb94 a834 b25a 0ab5 c665 5434 743d ef33
00000390: eaf6 e2b4 5ca6 13b5 66f2 35b5 e03c 4932
000003a0: a873 1b34 d43b 47b4 6fba 70b5 7d68 cf34
000003b0: a616 af34 70e6 99b3 6c7c 47b5 0a1e 7834
000003c0: 665c 56b5 0035 f02e 6eb0 e034 2387 ee34
000003d0: 1573 67b4 88a5 20b5 788e 1233 f5cd 9c34
000003e0: e089 0fb4 415b 9434 6413 63b4 e95e 9634
000003f0: 6087 5eb3 b2fe f0b4 e060 4e34 24a5 52b5

B f4 [100]
0.016011562 0.004964322 0.02889714 -0.05897387 0.015950026 -0.024021443 0.054768045 0.009489849
0.020515071 0.0036332486 -0.0046459045 0.053899553 -0.044518143 -0.0035814606 -0.022627965 -0.01727794
-0.0489878 -0.007565289 -0.02850965 0.02615581 0.052951075 -0.0006353236 0.011920479 0.038791485
0.036235537 -0.04161456 0.017233258 -0.033356648 -0.010325973 -0.020467954 0.025047043 0.038407385
-0.046292588 0.0010535481 0.007580425 -0.03499399 -0.0014777827 -0.0022818607 0.009762751 0.006988226
-0.010368452 0.034647413 -0.016315088 -0.029358633 0.031164024 0.03967312 0.017095441 -0.010326936
0.044285618 0.03037247 -0.025356874 -0.0324163 -0.013250987 -0.009755393 -0.05310228 -0.014680918
-0.024214638 0.011531856 -0.054701343 0.056302574 -0.02787656 0.0140662305 0.010432665 0.06594147
-0.03405566 0.033374663 -0.002860732 0.019751597 -0.0069170576 -0.037137423 0.009154027 0.026277127
-0.013673711 0.045827176 -0.019545421 -0.031086804 -0.002421998 -0.015881058 -0.040269133 0.00432581
0.021916112 0.02239054 -0.003819598 -0.02701579 -0.022465104 -0.02815216 -0.015962167 -0.009906008
-0.0064411163 0.0023924548 -0.018066602 -0.02190892 -0.006747293 -0.025147697 -0.0024003314 -0.0037314487
0.027246233 0.03968434 -0.0050222473 -0.02737582
00000000: ae2a 833c c0ab a23b b2b9 ec3c 968e 71bd
00000010: a1a9 823c 9ec8 c4bc 7554 603d 507b 1b3c
00000020: 390f a83c cc1b 6e3b ac3c 98bb c7c5 5c3d
00000030: a858 36bd f0b6 6abb 485e b9bc 778a 8dbc
00000040: 6ea7 48bd 3ee6 f7bb 128d e9bc b644 d63c
00000050: 3ae3 583d d88b 26ba 1d4e 433c d2e3 1e3d
00000060: b76b 143d 0774 2abd c32c 8d3c fba0 08bd
00000070: 452e 29bc 69ac a7bc 752f cd3c 1051 1d3d
00000080: 4c9d 3dbd 3517 8a3a 3765 f83b dc55 0fbd
00000090: 29b2 c1ba 458b 15bb f2f3 1f3c 7dfd e43b
000000a0: 71e0 29bc 72ea 0d3d 38a7 85bc 8481 f0bc
000000b0: b24b ff3c 4880 223d bd0b 8c3c 4f32 29bc
000000c0: d664 353d b0cf f83c 38b9 cfbc f4c6 04bd
000000d0: ab1a 59bc 15d5 1fbc c781 59bd 3c88 70bc
000000e0: c75d c6bc 1cf0 3c3c 840e 60bd 879d 663d
000000f0: 625d e4bc 0c76 663c c5ed 2a3c 520c 873d
00000100: f37d 0bbd dfb3 083d 1e7b 3bbb 1ace a13c
00000110: 7ca8 e2bb 691d 18bd c6fa 153c 2143 d73c
00000120: b307 60bc 47b5 3b3d b81d a0bc c1a9 febc
00000130: 62ba 1ebb fe18 82bc 3ff1 24bd 86bf 8d3b
00000140: 6b89 b33c 5e6c b73c 3852 7abb 3850 ddbc
00000150: bd08 b8bc 5c9f e6bc 17c3 82bc cf4c 22bc
00000160: 0010 d3bb bbca 1c3b 6900 94bc 567a b3bc
00000170: 6518 ddbb 8b02 cebc e14e 1dbb 528b 74bb
00000180: 7e33 df3c 0c8c 223d aa91 a4bb 4143 e0bc

W1 f4 [100, 100]
-1.9268185e-07 1.1167259e-07 -5.6284443e-07 -9.2152237e-07 -2.2541238e-07 -2.6975866e-07 6.55023e-07 3.9856573e-07
-5.140894e-07 3.8721225e-07 6.47056e-07 -4.2186798e-07 -4.2756028e-08 -1.5535228e-07 1.8786217e-08 1.7180788e-07
-4.5579446e-07 2.2893481e-08 -2.1685625e-07 -1.2446013e-07 1.489031e-07 -1.6404692e-07 6.954102e-07 -5.152756e-07
-2.864563e-07 4.823692e-07 -3.3950585e-09 3.9246245e-07 -6.8835897e-07 -3.7230902e-07 -8.3483496e-07 -1.9038083e-08
-1.388054e-07 1.3403707e-08 1.9703509e-07 1.4310851e-07 1.8618483e-07 3.0205567e-07 -4.2547464e-07 -5.20155e-07
-4.889668e-08 -1.7758641e-07 8.820223e-08 1.9067906e-07 5.0082633e-07 5.2925435e-07 -4.312937e-07 -3.36924e-07
-3.2317843e-07 5.527739e-07 5.5534343e-07 6.767879e-07 -4.3211003e-08 2.5874698e-07 1.6040882e-07 2.1579511e-07
-5.7137345e-07 -1.0085827e-06 2.0635686e-07 4.6352022e-07 7.666666e-07 1.2604733e-07 2.706256e-07 -4.7499296e-07
-7.733804e-07 -5.472022e-07 4.7442845e-07 -3.576538e-07 -2.100324e-07 6.83701e-08 -7.1659755e-08 5.248395e-07
-1.4038053e-06 1.2201417e-07 9.3747815e-07 4.9974835e-07 -7.185226e-07 2.1292965e-07 4.0896424e-08 -3.9184488e-07
1.4310925e-07 -3.8606834e-07 -4.3935518e-07 5.667297e-07 3.9270708e-07 7.050969e-07 1.1822607e-07 3.9112032e-07
-1.6684132e-07 2.555231e-08 1.5164969e-07 -4.3496266e-07 -3.617983e-07 -5.3829433e-07 -4.2567044e-07 -4.052152e-07
2.1136515e-07 -4.3626272e-08 -3.4374972e-07 1.15841345e-07 -5.690661e-07 1.130823e-06 -6.9498105e-07 3.872955e-07
1.1589714e-07 1.0712465e-06 7.349021e-07 5.985323e-07 6.404928e-07 -4.2807073e-07 2.873271e-08 -1.099573e-06
-4.3923038e-08 -3.537937e-07 1.1673786e-07 -9.939936e-08 -4.4601694e-07 6.4574675e-07 1.1488617e-07 4.899822e-07
4.5069356e-07 2.0823107e-07 -1.3883275e-07 -9.080984e-07 1.8654572e-07 1.8807478e-07 2.294091e-08 -2.0183847e-08
1.4035957e-07 3.2717227e-07 2.583634e-07 -8.080724e-08 -3.0119458e-07 -6.233305e-07 -4.966728e-07 6.468332e-08
-2.341937e-07 2.9639853e-07 1.6216518e-08 -5.597517e-07 -2.803268e-08 8.076083e-08 9.1950136e-07 -8.295617e-07
-8.004847e-07 9.321894e-07 5.5631432e-08 2.3883096e-08 2.6577922e-09 2.6147802e-07 3.3812654e-08 3.566803e-07
5.8434466e-07 1.2900443e-07 6.9054494e-07 3.925473e-08 -2.7030467e-09 6.674604e-07 -2.9738834e-07 3.9039662e-07
1.287768e-07 4.6866856e-07 -1.4606596e-07 4.1174331e-07 -1.9292058e-07 -2.741388e-07 5.5722745e-07 -1.0445311e-07
-6.1709966e-07 -1.5991398e-07 -1.7869897e-07 1.1238353e-07 3.7819308e-07 -2.9524443e-08 6.383169e-08 7.155221e-08
8.326491e-07 -9.997751e-08 3.7888623e-07 4.1599992e-07 -9.371644e-08 7.852114e-08 3.9796782e-07 3.5940698e-07
-1.75211e-07 3.675098e-07 2.1955486e-07 4.88996e-07 9.633327e-07 2.8181614e-07 8.536629e-07 1.1248207e-07
1.0908529e-07 4.970336e-07 -1.9198056e-07 1.7656873e-08 4.6208254e-07 -3.36657e-07 -8.926278e-07 -6.612896e-08
5.788115e-07 1.145728e-07 7.170639e-07 -1.9386829e-07 -1.0854116e-07 1.8464748e-07 2.477939e-07 4.144241e-07
1.9647975e-07 1.2615806e-07 5.231158e-10 1.1100457e-06 8.2762966e-08 -1.089285e-06 4.9182523e-07 -7.721443e-07
2.1715535e-07 -3.8995995e-07 4.8476807e-08 4.6756614e-07 -7.7444366e-07 -6.4162793e-07 2.0868131e-07 -5.533838e-07
3.9031528e-07 -3.6582696e-07 -3.2429688e-07 -7.526112e-07 -9.5719e-07 6.118305e-07 -1.687252e-08 2.4521626e-07
-2.1660355e-08 3.1086554e-07 -4.5630492e-07 -9.4825475e-07 -5.4778513e-07 -8.8205815e-07 8.9868536e-08 -5.669188e-07
6.715733e-07 -4.0640663e-07 -5.09815e-07 -4.1017634e-07 -2.4072003e-07 -4.6822413e-07 -5.586836e-07 -5.4652264e-07
-5.4696767e-07 2.5212813e-08 -5.4863847e-08 4.2179636e-07 2.0665112e-07 -8.006275e-09 9.6448105e-08 5.330557e-07
00000000: fce3 4eb4 a8d0 ef33 6016 17b5 895e 77b5
00000010: e208 72b4 59d3 90b4 d6d4 2f35 75fa d534
00000020: f4ff 09b5 0ce2 cf34 5ab1 2d35 187d e2b4
00000030: c0a2 37b3 e9ce 26b4 545f a132 317a 3834
00000040: eab3 f4b4 4ca7 c432 fed8 68b4 57a3 05b4
00000050: 2ce2 1f34 e024 30b4 3aac 3a35 7851 0ab5
00000060: 41ca 99b4 297c 0135 804e 69b1 a1b3 d234
00000070: abc7 38b5 c3e1 c7b4 6c19 60b5 3089 a3b2
00000080: 8a0a 15b4 2046 6632 9890 5334 5ea9 1934
00000090: 19ea 4734 372a a234 ca6c e4b4 c8a0 0bb5
000000a0: 7802 52b3 95ae 3eb4 b069 bd33 76bd 4c34
000000b0: 8670 0635 1512 0e35 8e8c e7b4 7be2 b4b4
000000c0: 4e81 adb4 5562 1435 e912 1535 83ac 3535
000000d0: 0097 39b3 eae9 8a34 d73c 2c34 4fb5 6734
000000e0: 7c60 19b5 a35e 87b5 f192 5d34 bcd9 f834
000000f0: edcc 4d35 a057 0734 804a 9134 8902 ffb4
00000100: 4c9a 4fb5 73e3 12b5 f3b4 fe34 9003 c0b4
00000110: 4485 61b4 dcd2 9233 5ee3 99b3 b2e2 0c35
00000120: 626a bcb5 0003 0334 02a7 7b35 7226 0635
00000130: 7fe0 40b5 a8a1 6434 18a6 2f33 c05e d2b4
00000140: 92a9 1934 d444 cfb4 84e0 ebb4 5e21 1835
00000150: 40d5 d234 e445 3d35 78e3 fd33 2bfb d134
00000160: fe24 33b4 207e db32 26d5 2234 d084 e9b4
00000170: 2e3d c2b4 4e7f 10b5 b387 e4b4 5a8c d9b4
00000180: 9cf3 6234 985f 3bb3 9a8c b8b4 74c4 f833
00000190: edc1 18b5 c8c6 9735 bc8e 3ab5 7ded cf34
000001a0: 20e3 f833 c0c7 8f35 1646 4535 d4aa 2035
000001b0: 54ee 2b35 98d1 e5b4 e6cf f632 0a95 93b5
000001c0: e4a5 3cb3 09f1 bdb4 51b1 fa33 6075 d5b3
000001d0: 1a74 efb4 6157 2d35 57b7 f633 5287 0335
000001e0: daf6 f134 1f96 5f34 0e12 15b4 0cc4 73b5
000001f0: 4c4d 4834 9af1 4934 980f c532 c060 adb2
00000200: bfb5 1634 37a6 af34 32b5 8a34 4088 adb3
00000210: deb3 a1b4 f252 27b5 1853 05b5 08e8 8a33
00000220: ad76 7bb4 b420 9f34 804c 8b32 d841 16b5
00000230: 84cc f0b2 bc6e ad33 a7d3 7635 0caf 5eb5
00000240: e4e0 56b5 913b 7a35 68ef 6e33 7c27 cd32
00000250: 60a4 3631 4461 8c34 6839 1133 c47d bf34
00000260: dcdb 1c35 7884 0a34 e35d 3935 0899 2833
00000270: 80c0 39b1 882b 3335 bea8 9fb4 b497 d134
00000280: e645 0a34 519d fb34 4ed6 1cb4 920d dd34
00000290: 9b25 4fb4 5a2d 93b4 6194 1535 b44f e0b3
000002a0: c4a6 25b5 d2b4 2bb4 66e0 3fb4 8057 f133
000002b0: 760a cb34 f09c fdb2 d813 8933 3ea8 9933
000002c0: 3683 5f35 38b3 d6b3 ba69 cb34 9856 df34
000002d0: 2841 c9b3 749f a833 48a8 d534 85f4 c034
000002e0: a221 3cb4 2a4e c534 c8be 6b34 8d43 0335
000002f0: dc4b 8135 844c 9734 4527 6535 ac8d f133
00000300: 4642 ea33 e46b 0535 3723 4eb4 e0ab 9732
00000310: 2414 f834 c9bd b4b4 ea9c 6fb5 c802 8eb3
00000320: a05f 1b35 100b f633 427c 4035 1c2a 50b4
00000330: 2217 e9b3 8343 4634 8908 8534 047e de34
00000340: f1f7 5234 1076 0734 00cb 0f30 e1fc 9435
00000350: 6cbb b133 8c33 92b5 f905 0435 5a45 4fb5
00000360: 352b 6934 b05b d1b4 d034 5033 cd05 fb34
00000370: 5de3 4fb5 563c 2cb5 e211 6034 3f8c 14b5
00000380: 868c d134 e066 c4b4 061b aeb4 0c07 4ab5
00000390: cc78 80b5 ac3c 2435 10ef 90b2 44a6 8334
000003a0: a00f bab2 09e5 a634 12fa f4b4 928b 7eb5
000003b0: 820b 13b5 93c6 6cb5 c0fd c033 5d2e 18b5
000003c0: 2a46 3435 1a30 dab4 38da 08b5 3536 dcb4
000003d0: 4f3c 81b4 3c60 fbb4 72f8 15b5 c0b4 12b5
000003e0: 55d3 12b5 9093 d832 70a3 6bb3 4073 e234
000003f0: d4e3 5d34 f88b 09b2 e81e cf33 4f17 0f35

B1 f4 [100]
-0.018521015 -0.033914324 0.03074486 -0.024869883 0.04695933 0.030648207 0.0015350385 0.022995777
-0.012641366 -0.020511374 0.03808789 0.027848316 -0.0036711674 0.03548219 0.040314306 -0.044704337
0.03402316 0.019760398 -0.025517186 -0.04760568 -0.00426783 -0.044199735 -0.014745091 -0.018810485
0.004044225 0.04595674 0.014384122 0.053409677 -0.039655704 -0.026215035 -0.01475057 -0.040908284
-0.040557384 0.039017063 -0.036513384 0.0002838068 0.023766497 0.042000156 0.054520883 -0.011468462
0.045160808 0.016862433 0.010500215 -0.017721862 -0.018655911 0.057130966 0.01729073 -0.025840836
-0.046198905 -0.0062731635 0.019129308 -0.012775232 -0.041599937 0.028040165 -0.018066876 -0.013889036
-0.004453877 0.061078522 0.058304656 0.051800273 -0.038553976 0.046767894 -0.0196648 0.017814934
0.052165575 -0.0015686378 -0.0032915112 0.027145721 -0.04075401 -0.007064319 0.018032089 -0.04360841
0.02624185 0.01619959 -0.022691421 0.003956434 -0.0007262973 0.0056251152 0.030067535 0.007252767
-0.029933445 0.03407514 -0.03974585 0.054414134 0.006796093 -0.0070848013 0.03289118 0.02964574
-0.00023809368 -0.005219596 -0.0100455675 0.03427366 -0.054031573 0.052354418 0.01754877 -0.018388566
0.019122034 0.018624056 -0.013483306 -0.011626469
00000000: 62b9 97bc bfe9 0abd a5dc fb3c edbb cbbc
00000010: 6d58 403d f311 fb3c 5833 c93a a461 bc3c
00000020: bb1d 4fbc 7807 a8bc 0c02 1c3d 2722 e43c
00000030: f897 70bb c655 113d 9d20 253d e51b 37bd
00000040: de5b 0b3d 8fe0 a13c 6b09 d1bc 2cfe 42bd
00000050: 27d9 8bbb c80a 35bd 6595 71bc 7218 9abc
00000060: 6b85 843b 223d 3c3d 61ab 6b3c 1bc4 5a3d
00000070: 056e 22bd eac0 d6bc 60ac 71bc 728f 27bd
00000080: 801f 26bd 5bd0 1f3d 0f8f 15bd e7cb 9439
00000090: f5b1 c23c 5b08 2c3d 4a51 5f3d 37e6 3bbc
000000a0: 8afa 383d 1623 8a3c 1809 2c3c 702d 91bc
000000b0: 48d4 98bc 2902 6a3d 4aa5 8d3c 29b0 d3bc
000000c0: 103b 3dbd 1c8f cdbb 11b5 9c3c 354f 51bc
000000d0: b264 2abd 7db4 e53c fc00 94bc d78e 63bc
000000e0: d4f1 91bb 792d 7a3d ddd0 6e3d 862c 543d
000000f0: c6ea 1dbd b18f 3f3d 1318 a1bc a0f0 913c
00000100: 92ab 553d c09a cdba 65b6 57bb b460 de3c
00000110: aded 26bd ce7b e7bb 08b8 933c bb9e 32bd
00000120: 26f9 d63c 01b5 843c 5ce3 b9bc f9a4 813b
00000130: fd64 3eba e352 b83b 3150 f63c 9fa8 ed3b
00000140: fc36 f5bc 6092 0b3d 8bcc 22bd 5be1 5e3d
00000150: c3b1 de3b 9f27 e8bb e7b8 063d 9fdb f23c
00000160: c9a8 79b9 2509 abbb 2a96 24bc 8a62 0c3d
00000170: 3650 5dbd 9671 563d 70c2 8f3c 9ea3 96bc
00000180: d0a5 9c3c 7a91 983c 16e9 5cbc f27c 3ebc

W2 f4 [100, 100]
-7.567528e-07 -1.2341613e-07 -2.3140842e-08 -2.8730878e-07 1.5168834e-07 1.4461142e-07 9.1365956e-07 -3.598695e-07
2.1649088e-07 9.618759e-10 1.4260188e-08 8.723556e-08 -3.9561272e-07 3.1124983e-08 -1.0343663e-07 -2.853522e-07
6.522756e-07 6.1114184e-07 -9.620796e-07 -3.4342187e-07 -7.167373e-07 -6.920803e-08 3.205892e-07 3.4629352e-08
1.6768703e-07 -8.1761084e-07 -6.114989e-07 2.3815264e-07 2.4878506e-07 -3.613944e-07 -6.392344e-08 5.7885927e-08
-3.103516e-07 -1.2667641e-08 2.0800057e-07 7.7972913e-07 -4.8094057e-07 4.8886795e-07 6.520903e-07 4.6993932e-07
3.8897497e-08 -1.9907199e-07 -4.8248967e-07 -1.03767505e-07 2.3456937e-07 1.8480242e-07 -1.3433794e-07 -1.8349498e-07
5.4086684e-08 1.06678655e-07 1.4030319e-06 -1.4241596e-07 7.3554958e-09 1.0797422e-06 2.2770905e-08 7.694091e-09
2.3331617e-07 -1.8042795e-07 5.5990245e-07 -4.3416975e-08 4.3945482e-07 1.4419558e-07 -5.8530634e-07 -2.9140713e-07
-1.2048059e-07 4.0392428e-07 -4.0886434e-07 -4.0126355e-07 -2.7512573e-07 1.1027271e-07 -2.4513656e-07 -2.427968e-07
1.6842968e-07 1.6654184e-08 -3.7745488e-07 3.3969627e-08 2.1628438e-07 -2.906689e-08 3.5278745e-07 -1.6083092e-07
3.930947e-07 -6.7402203e-07 -3.4881324e-07 -1.4703298e-07 -4.2815452e-07 1.5542842e-07 9.0588415e-08 -8.172552e-07
4.247301e-07 -4.3166318e-07 -3.5759072e-08 1.6194595e-07 1.0731051e-06 -1.8476827e-07 -5.4944786e-07 4.6043922e-08
-4.662744e-07 7.012062e-09 8.2157646e-07 2.0573742e-07 5.615288e-07 1.0599304e-06 6.118998e-07 -1.5507855e-07
1.8697519e-07 -1.7146847e-07 -4.456154e-07 2.4994137e-07 -1.4933336e-07 -2.1036977e-08 -2.7931134e-07 -2.0840079e-07
-6.991744e-07 1.52185e-07 -4.7654197e-07 1.4984087e-07 -4.851654e-08 -7.1380435e-07 -2.2586464e-07 -8.523024e-08
-2.8307494e-07 -2.0443188e-07 -6.2004096e-07 5.6151185e-07 -1.3779082e-07 -5.5629397e-07 -1.3823515e-07 -5.598454e-07
2.1541027e-07 -4.843483e-07 -1.4072833e-07 -4.0097547e-07 8.87829e-07 -1.0829535e-07 -1.8972443e-07 -1.18201804e-07
-6.45619e-07 -7.539353e-08 -5.5854434e-07 -4.715282e-07 4.2990172e-07 -3.222636e-07 -4.682783e-07 -7.751677e-08
1.0353372e-06 -7.595405e-07 1.6479729e-07 1.402239e-08 -4.322785e-07 3.9730423e-07 -6.016743e-07 -3.1032457e-08
2.5363556e-07 1.8581693e-07 -2.3980692e-07 1.005985e-06 1.7341111e-07 2.1100561e-09 4.009876e-07 6.0224386e-07
-3.186495e-07 -5.514403e-07 5.265039e-07 3.042021e-07 2.3143983e-07 -4.6378932e-07 -4.263252e-07 -3.8779928e-07
3.9511988e-07 -3.5768437e-08 -1.5295771e-07 4.5807644e-07 9.520224e-08 2.2542835e-07 7.184582e-09 6.0254195e-07
-3.968033e-07 -7.901758e-08 -3.9097223e-09 -3.505351e-07 -1.0634028e-06 -2.6399792e-07 4.9768414e-07 -4.4079314e-07
2.678753e-07 1.38371e-06 7.508868e-08 3.7824086e-07 5.525937e-07 1.5242276e-07 5.880507e-08 -1.8914949e-07
-9.733302e-08 1.9531984e-07 3.9766314e-07 1.9938952e-07 4.320013e-07 -1.9585866e-07 -9.2115306e-07 -1.0176156e-07
1.281742e-07 -8.078871e-09 1.8541816e-07 -7.151101e-09 3.998744e-07 -5.6563e-07 3.615638e-07 3.9781395e-07
-2.3055267e-07 3.327307e-07 4.5114922e-07 5.254338e-07 -4.797313e-07 5.155553e-07 4.774573e-07 -1.7894357e-07
-6.7272924e-07 -8.6550773e-07 2.5595244e-07 1.4511835e-07 6.944356e-08 -8.1374935e-07 1.6028054e-08 4.1759e-07
2.9455953e-07 -1.7369172e-07 -7.0500676e-07 -3.969185e-07 1.6292276e-08 -2.8734772e-07 -1.3200128e-07 2.7636924e-07
-4.155603e-07 -3.04116e-08 1.8104662e-07 1.7887828e-08 -3.3493507e-07 -7.1909767e-10 -5.1503065e-08 1.069952e-07
2.0063078e-07 5.5904786e-07 1.9160306e-07 1.5535754e-08 9.558063e-08 -2.778514e-07 9.489709e-08 -2.6295436e-07
2.726412e-07 3.1052093e-07 -5.558308e-07 3.9564912e-07 -4.4937687e-07 5.4933196e-08 1.32391e-06 -1.9333402e-07
00000000: a823 4bb5 5e84 04b4 40c7 c6b2 6b3f 9ab4
00000010: c6df 2234 7c46 1b34 3542 7535 1634 c1b4
00000020: 8f74 6834 0033 8430 f8fc 7432 4256 bb33
00000030: 9964 d4b4 48ae 0533 e420 deb3 8232 99b4
00000040: 0a18 2f35 590d 2435 ce20 81b5 8b5f b8b4
00000050: d065 40b5 849f 94b3 721d ac34 60bb 1433
00000060: 760d 3434 ca79 5bb5 e225 24b5 e6b6 7f34
00000070: c290 8534 ab05 c2b4 4846 89b3 409e 7833
00000080: 669e a6b4 e0a0 59b2 c356 5f34 944e 5135
00000090: fc19 01b5 c03a 0335 4e0b 2f35 f84b fc34
000000a0: 4010 2733 7ec0 55b4 7084 01b5 cad6 deb3
000000b0: f0dd 7b34 1a6e 4634 883e 10b4 b706 45b4
000000c0: f04c 6833 3617 e533 cf4f bc35 00eb 18b4
000000d0: a0bb fc31 a9eb 9035 c099 c332 f82e 0432
000000e0: 7685 7a34 a8bb 41b4 344c 1635 7879 3ab3
000000f0: 36ee eb34 2ed4 1a34 f21d 1db5 b172 9cb4
00000100: 745d 01b4 eeda d834 e381 dbb4 3e6d d7b4
00000110: feb4 93b4 10cf ec33 509b 83b4 bd59 82b4
00000120: 99d9 3434 f00e 8f32 01a5 cab4 00e6 1133
00000130: cc3b 6834 c4ae f9b2 bd66 bd34 deb0 2cb4
00000140: 860a d334 71ee 34b5 8744 bbb4 1ee0 1db4
00000150: 1cdd e5b4 d7e3 2634 8289 c233 5a61 5bb5
00000160: 7606 e434 56bf e7b4 8495 19b3 5de3 2d34
00000170: 9c07 9035 b764 46b4 c57d 13b5 d4c1 4533
00000180: 4454 fab4 c0ee f031 4e8a 5c35 ace8 5c34
00000190: f7bb 1635 ee42 8e35 6f41 2435 ab83 26b4
000001a0: 59c3 4834 e51c 38b4 ea3c efb4 ae2f 8634
000001b0: 7158 20b4 cdb4 b4b2 42f4 95b4 c6c4 5fb4
000001c0: e6ae 3bb5 4b68 2334 6ed7 ffb4 f2e3 2034
000001d0: 8060 50b3 439c 3fb5 3385 72b4 d207 b7b3
000001e0: 86f9 97b4 cf81 5bb4 e470 26b5 cdba 1635
000001f0: a7f3 13b4 3b54 15b5 ca6d 14b4 4848 16b5
00000200: 864b 6734 2904 02b5 1c1b 17b4 a645 d7b4
00000210: 2553 6e35 0090 e8b3 0eb7 4bb4 21d6 fdb3
00000220: 9a4e 2db5 08e8 a1b3 e0ee 15b5 5826 fdb4
00000230: 3ecd e634 9203 adb4 ae67 fbb4 4c77 a6b3
00000240: eaf5 8a35 3ae3 4bb5 22f3 3034 20e7 7032
00000250: e813 e8b4 144d d534 be82 21b5 8c48 05b3
00000260: 682b 8834 f884 4734 d0be 80b4 6205 8735
00000270: e232 3a34 8000 1131 5147 d734 e2a9 2135
00000280: db12 abb4 b006 14b5 1355 0d35 3851 a334
00000290: b281 7834 b8fe f8b4 b0e1 e4b4 ba32 d0b4
000002a0: dd20 d434 d09f 19b3 b23c 24b4 8ced f534
000002b0: fc71 cc33 460d 7234 40dc f631 5ebe 2135
000002c0: 3b08 d5b4 60b0 a9b3 4856 86b1 2d31 bcb4
000002d0: 3eba 8eb5 99bb 8db4 9898 0535 26a6 ecb4
000002e0: 80d0 8f34 eab7 b935 7040 a133 0711 cb34
000002f0: f355 1435 a6a9 2334 dc90 7c33 0419 4bb4
00000300: 6505 d1b3 1cb9 5134 687e d534 c617 5634
00000310: ceed e734 384d 52b4 2845 77b5 0288 dab3
00000320: 41a0 0934 40cb 0ab2 5b17 4734 c0b5 f5b1
00000330: 52ae d634 ccd5 17b5 f31c c234 2293 d534
00000340: d68d 77b4 29a2 b234 7a35 f234 890b 0d35
00000350: e2c6 00b5 b164 0a35 9e2a 0035 a223 40b4
00000360: 9a95 34b5 3d55 68b5 d669 8934 d4d1 1b34
00000370: 0021 9533 6e70 5ab5 10ae 8932 2231 e034
00000380: f423 9e34 0480 3ab4 b23f 3db5 1018 d5b4
00000390: 18f3 8b32 c544 9ab4 3cbc 0db4 e65f 9434
000003a0: 2c1a dfb4 e89d 02b3 b765 4234 c0a7 9932
000003b0: 20d1 b3b4 00aa 45b0 3834 5db3 3cc5 e533
000003c0: f86c 5734 7a11 1635 73bb 4d34 7c73 8532
000003d0: 0242 cd33 9b2b 95b4 3aca cb33 2c2c 8db4
000003e0: 855f 9234 acb5 a634 6734 15b5 9a69 d434
000003f0: e341 f1b4 b0ef 6b33 34b1 b135 4097 4fb4

B2 f4 [100]
0.04362673 -0.012334168 -0.03000095 -0.02379672 0.060543057 -0.0019143319 -0.037043136 0.0013385103
-0.04237598 0.041789837 0.052408017 -0.047952008 0.038681794 -0.011029341 -0.03890065 0.029314606
-0.032656074 0.044520337 0.042280238 0.0138115445 0.021546012 0.012782323 -0.055271246 -0.031086383
-0.042037696 -0.007597562 0.034321863 0.03464239 0.03251798 0.013050703 -0.020741757 0.06969048
0.03495728 0.021533139 0.012581312 0.0464057 -0.035466447 -0.062143628 0.02079914 -0.023530185
-0.0031254024 -0.019484725 -0.041292127 0.00012407442 -0.03727955 -0.018134855 0.022744445 -0.003598459
-0.019106627 -0.047615137 -0.07577351 0.032602347 0.05950762 -0.028567418 0.028915651 0.06263196
0.04051554 -0.019782573 -0.014948734 0.02251342 -0.006662334 0.022700248 -0.03603994 0.07428329
0.0302037 0.005680536 -0.028859923 0.013765412 -0.016473355 0.046723623 -0.0448157 0.033294093
-0.017334724 -0.024097411 -0.03635268 0.06626416 0.0077904323 0.054652028 -0.008197925 -0.038196262
0.035696875 -0.018089036 0.009984034 0.0364392 0.025986068 -0.012031446 0.011204782 0.018054359
0.0028175781 0.04098307 0.038242705 0.017347656 0.023697251 0.05025911 -0.018782292 0.06796082
0.043557633 -0.029640375 0.06365273 -0.048851103
00000000: f1b1 323d 4015 4abc 8dc4 f5bc 57f1 c2bc
00000010: fffb 773d 52ea faba 8bba 17bd f470 af3a
00000020: 7092 2dbd d22b 2b3d caa9 563d 5369 44bd
00000030: cd70 1e3d 69b4 34bc 4a56 1fbd 2f25 f03c
00000040: 60c2 05bd f55a 363d 0b2e 2d3d d149 623c
00000050: 4381 b03c f36c 513c 1a64 62bd dfa8 febc
00000060: b82f 2cbd f8f4 f8bb 1595 0c3d 2ee5 0d3d
00000070: 9331 053d 9ed2 553c 9eea a9bc e2b9 8e3d
00000080: 5d2f 0f3d 4466 b03c d921 4e3c e713 3e3d
00000090: 4445 11bd 518a 7ebd f562 aa3c 60c2 c0bc
000000a0: 8dd3 4cbb 6e9e 9fbc ef21 29bd f919 0239
000000b0: 71b2 18bd 8c8f 94bc 8f52 ba3c 20d4 6bbb
000000c0: 8085 9cbc 1708 43bd 242f 9bbd 0a8a 053d
000000d0: 43be 733d 3806 eabc 84e0 ec3c 2f45 803d
000000e0: 9ff3 253d 100f a2bc 89eb 74bc 106e b83c
000000f0: b54f dabb dff5 b93c 9e9e 13bd d621 983d
00000100: c06d f73c ca23 ba3b a56b ecbc 5388 613c
00000110: 21f3 86bc 4561 3f3d ab90 37bd 635f 083d
00000120: 8d01 8ebc ef67 c5bc 8ce6 14bd 81b5 873d
00000130: e246 ff3b ceda 5f3d 9750 06bc af73 1cbd
00000140: e336 123d 752f 94bc 1394 233c 4541 153d
00000150: bce0 d43c 8b1f 45bc 4394 373c bce6 933c
00000160: 1ea7 383b dddd 273d 62a4 1c3d ac1c 8e3c
00000170: bd20 c23c 7fdc 4d3d 52dd 99bc 0b2f 8b3d
00000180: 7d69 323d 5fd0 f2bc 5d5c 823d 1818 48bd

W3 f4 [100, 100]
1.8062485e-07 8.574827e-08 7.528426e-08 -6.9797625e-07 -3.3231206e-07 -1.9684262e-07 -7.7179857e-07 5.7282034e-07
9.1672644e-07 2.0883087e-07 4.3271882e-08 1.3570491e-07 -2.2859501e-07 5.1826646e-07 3.8729155e-07 2.0708148e-07
-3.505034e-07 7.4990635e-07 -1.3282859e-07 -4.5022585e-07 -2.2665927e-07 1.3145025e-06 6.1756214e-07 -5.8600392e-08
-1.0170396e-06 2.444262e-07 -5.490837e-07 -1.5297235e-07 2.8630672e-07 2.437855e-07 8.518871e-07 -4.931694e-07
5.3497916e-07 -1.6369569e-07 -4.011587e-08 -5.9042355e-07 -3.2839424e-07 -2.537676e-07 -2.7276766e-07 -5.43803e-07
-2.1524377e-07 -1.2122709e-07 2.5060913e-07 -4.164732e-07 3.1868716e-08 3.8071707e-07 4.136615e-07 -5.5435123e-08
-5.7312536e-07 -8.618267e-07 -4.777144e-07 4.8317935e-07 -6.567785e-07 -4.2350536e-07 -1.7779976e-07 2.6296962e-07
-2.4215058e-07 1.2491715e-07 -7.7943264e-07 -2.293537e-07 2.6475064e-07 3.1690556e-07 -3.5638368e-07 -6.6992254e-07
3.7440967e-07 6.383076e-07 -1.800877e-08 7.1956157e-07 1.3006002e-07 -5.1557265e-08 -3.8544644e-07 9.5374276e-08
-4.5593123e-07 -7.1403633e-07 -3.6386234e-07 -1.7425302e-07 -7.5216263e-07 1.0798454e-06 2.5706046e-07 3.913587e-08
2.0406827e-07 -7.7337825e-07 2.2494183e-07 3.632715e-07 9.4800214e-08 -4.3009322e-08 2.9126014e-08 5.820741e-07
-8.049881e-07 -4.753146e-07 -9.89464e-08 -1.7884722e-07 5.447924e-07 -1.0231272e-07 -5.6175577e-07 -5.5222813e-08
-4.3037602e-07 5.5575504e-07 -8.6477286e-08 -5.809121e-07 -4.074702e-07 -2.0507196e-07 -1.1027757e-07 -6.526092e-07
3.866704e-07 1.1504949e-07 1.2915835e-07 -2.328473e-07 4.7253252e-07 -2.2292669e-07 1.0080089e-07 -1.7369268e-07
3.0644875e-07 -1.0774185e-06 -3.352346e-07 -4.782021e-07 -1.236868e-07 -1.7383894e-07 1.9600387e-07 -2.7233003e-07
-5.3771885e-07 -2.7679704e-07 -5.013331e-07 8.3100383e-07 1.4297353e-07 1.30699e-07 3.037063e-07 3.6429935e-07
3.786723e-07 -9.1817355e-07 3.3189843e-07 6.769301e-08 -3.4304605e-07 -1.2514295e-07 -3.7944426e-07 -1.1671591e-07
-1.2017992e-07 5.271684e-07 -8.0510745e-08 1.508285e-07 4.7506933e-07 1.2119574e-07 1.5957274e-07 -4.4778207e-07
1.9370026e-07 1.6526056e-07 -2.8666932e-07 -7.9505605e-07 -1.1351767e-07 -9.2244863e-07 5.713727e-08 -5.270524e-07
5.0232137e-07 -3.26747e-07 -5.0073515e-07 5.079042e-08 6.375567e-07 5.575787e-07 -5.5191265e-08 3.8608732e-07
2.7905386e-07 5.8152085e-07 8.5618365e-07 2.5111763e-07 -2.5730657e-08 6.6486194e-09 4.1743786e-07 4.3419283e-07
-5.0955265e-08 -1.0250865e-07 -1.7575702e-07 -3.296917e-07 -6.3986624e-07 -1.3392798e-06 3.980012e-07 4.2188356e-07
1.1505185e-07 8.9627534e-08 1.11645555e-07 -3.8405292e-07 -7.774753e-07 9.5277855e-08 5.278213e-07 2.8823365e-07
4.384636e-07 3.7923206e-07 -4.283662e-07 -7.861928e-09 1.5928211e-07 -4.2361344e-07 -1.4069005e-07 -2.9208877e-07
2.5544315e-07 -1.6918246e-07 3.9037045e-07 -3.8231626e-08 5.728328e-07 -4.748082e-08 3.0349074e-07 -2.6197608e-07
3.2058878e-07 2.7290798e-07 3.5198724e-08 3.5453212e-08 1.528793e-07 5.0999944e-07 9.681287e-08 6.530871e-08
2.651037e-07 1.9045044e-07 -1.9518126e-07 4.5300925e-07 -9.4578047e-07 -2.54051e-08 -1.4401728e-06 -4.5184612e-07
1.1076925e-07 2.0679965e-07 -4.0160526e-07 -8.8089024e-08 -3.8810697e-08 -1.8572233e-07 1.03758666e-07 5.8192006e-07
-2.4220867e-08 2.1263673e-08 8.4369034e-08 -1.2249759e-06 2.137995e-07 1.599747e-07 -4.45487e-08 -2.5630612e-08
1.2007048e-07 6.0354836e-07 -6.6996404e-07 -2.475278e-08 2.8510067e-07 -1.3447558e-07 8.2235624e-07 1.9976744e-07
-7.7546184e-07 -4.6397525e-07 8.306735e-08 1.80044e-07 -1.6497849e-07 1.932321e-08 -3.589807e-07 -4.4411567e-07
-8.7837805e-07 -1.3581358e-07 -3.8837683e-07 5.9003014e-07 3.559371e-07 1.7648047e-07 -4.2535072e-07 8.116386e-08
00000000: c8f1 4134 9c24 b833 f6ab a133 905c 3bb5
00000010: 9f68 b2b4 b05b 53b4 982d 4fb5 eac3 1935
00000020: f614 7635 fe3a 6034 f0d9 3933 48b6 1134
00000030: b873 75b4 001f 0b35 f2ec cf34 205a 5e34
00000040: d22c bcb4 2c4d 4935 a59f 0eb4 92b6 f1b4
00000050: a05f 73b4 f66d b035 8cc6 2535 d0af 7bb3
00000060: 3781 88b5 ae39 8334 bf64 13b5 b840 24b4
00000070: b2b5 9934 a0e1 8234 3cad 6435 5862 04b5
00000080: 7d9b 0f35 54c4 2fb4 de4b 2cb3 997d 1eb5
00000090: 294e b0b4 8e3d 88b4 e770 92b4 dcf9 11b5
000000a0: c21d 67b4 a62a 02b4 758b 8634 a497 dfb4
000000b0: 06e0 0833 5b65 cc34 3415 de34 9017 6eb3
000000c0: e0d8 19b5 4858 67b5 493c 00b5 d5b3 0135
000000d0: 7a4d 30b5 225e e3b4 3ae9 3eb4 452e 8d34
000000e0: ec00 82b4 f720 0634 343a 51b5 4444 76b4
000000f0: 0d23 8e34 2b23 aa34 0055 bfb4 bad4 33b5
00000100: 7902 c934 2a58 2b35 b4b1 9ab2 e527 4135
00000110: a0a6 0b34 d06f 5db3 5bef ceb4 90d0 cc33
00000120: b6c6 f4b4 34ac 3fb5 dc58 c3b4 4e1a 3bb4
00000130: 39e8 49b5 35ef 9035 1f02 8a34 5816 2833
00000140: dc1d 5b34 269a 4fb5 8a87 7134 a807 c334
00000150: f894 cb33 40b9 38b3 c830 fa32 d43f 1c35
00000160: 5c16 58b5 be2e ffb4 5c7c d4b3 2609 40b4
00000170: d93d 1235 03b7 dbb3 90cb 16b5 202e 6db3
00000180: 6e0e e7b4 322f 1535 64b5 b9b3 faef 1bb5
00000190: 47c2 dab4 c031 5cb4 bcd1 ecb3 f62e 2fb5
000001a0: 9397 cf34 2011 f733 c7ae 0a34 9404 7ab4
000001b0: 60b0 fd34 9f5d 6fb4 e077 d833 4880 3ab4
000001c0: ff85 a434 d19b 90b5 4bfa b3b4 cc5d 00b5
000001d0: c5ce 04b4 7ca8 3ab4 2275 5234 c134 92b4
000001e0: c257 10b5 b29a 94b4 5993 06b5 2612 5f35
000001f0: 4484 1934 4456 0c34 130d a334 ec94 c334
00000200: 534c cb34 6878 76b5 c62f b234 a05e 9133
00000210: e42b b8b4 085f 06b4 6cb6 cbb4 40a5 fab3
00000220: ce0a 01b4 bd82 0d35 40e5 acb3 6cf3 2134
00000230: 080d ff34 0822 0234 0557 2b34 b366 f0b4
00000240: ecfb 4f34 7a72 3134 88e7 99b4 d66b 55b5
00000250: 00c7 f3b3 309e 77b5 1867 7533 c47a 0db5
00000260: 43d7 0635 c46b afb4 426a 06b5 a824 5a33
00000270: 9024 2b35 84ac 1535 700b 6db3 7047 cf34
00000280: dfd0 9534 cf19 1c35 7ed4 6535 58d1 8634
00000290: 5006 ddb2 e071 e431 391c e034 021b e934
000002a0: e8d9 5ab3 ba22 dcb3 b9b7 3cb4 7b00 b1b4
000002b0: 46c3 2bb5 4ec1 b3b5 deac d534 3c7f e234
000002c0: 6c12 f733 4279 c033 cbc1 ef33 d52f ceb4
000002d0: b2b3 50b5 8e9b cc33 9baf 0d35 88be 9a34
000002e0: fa65 eb34 4299 cb34 34fa e5b4 2011 07b2
000002f0: 2207 2b34 fd6c e3b4 9610 17b4 60d0 9cb4
00000300: d723 8934 85a8 35b4 1b94 d134 1e34 24b3
00000310: c5c4 1935 b7ed 4bb3 73ef a234 b8a5 8cb4
00000320: 631d ac34 3084 9234 682d 1733 3845 1833
00000330: 2427 2434 e5e6 0835 70e7 cf33 d83f 8c33
00000340: 9353 8e34 9e7e 4c34 0493 51b4 1e35 f334
00000350: 8ae1 7db5 683a dab2 f64b c1b5 4295 f2b4
00000360: 0ae0 ed33 a80c 5e34 359c d7b4 742b bdb3
00000370: d0b0 26b3 f76a 47b4 eed1 de33 3e35 1c35
00000380: 400e d0b2 50a7 b632 5e2e b533 da69 a4b5
00000390: c290 6534 83c5 2b34 d055 3fb3 502a dcb2
000003a0: b9ec 0034 8703 2235 94d7 33b5 f09f d4b2
000003b0: f00f 9934 5e64 10b4 e4bf 5c35 a87f 5634
000003c0: 5529 50b5 4618 f9b4 c262 b233 1e52 4134
000003d0: f124 31b4 30fc a532 efb9 c0b4 cb6e eeb4
000003e0: aec9 6bb5 27d4 11b4 1b82 d0b4 9062 1e35
000003f0: 9f17 bf34 957e 3d34 c25b e4b4 4e4c ae33

B3 f4 [100]
0.04331367 -0.028218491 0.005050043 -0.03272532 0.032979026 -0.04858386 -0.0528227 -0.0066391984
-0.002842839 -0.045157075 0.0061784186 0.039705947 0.014456313 -0.0056167506 0.015949812 0.031350072
0.012959121 -0.050623223 0.0170018 -0.04647523 -0.01797433 -0.024989033 -0.03523331 -0.014518203
0.044713806 0.04510687 -0.05249976 0.020565063 0.06887237 0.017790219 0.058812417 0.01951531
0.038806498 -0.04145519 0.041115493 -0.034136888 0.054565527 0.019254994 -0.032650623 0.038471043
-0.05836457 -0.019239001 0.05360047 -0.030944476 -0.003843311 0.006607751 -0.021988932 0.06207185
-0.05264694 0.018075485 -0.010638315 -0.058501296 0.007009406 -0.016804332 -0.03625995 -0.050866164
-0.008728209 -0.008628415 -0.037499253 -0.051540498 -0.037204582 0.048176605 0.038573936 -0.003474104
-0.03880063 0.03496675 0.0020816438 0.01608155 -0.05617183 0.079505764 -0.034198347 -0.041260045
-0.060687333 -0.039005544 0.04833062 0.026816657 0.015846396 0.034002397 0.054590836 0.02954429
0.054850165 -0.015588374 -0.057543077 0.06753103 0.018173153 0.050936025 -0.03980105 0.03304043
-0.009876752 -0.010476784 0.019838765 0.03958405 -0.06291939 0.047726497 -0.041095354 -0.0003207898
0.04497735 -0.03453059 -0.028660925 0.08144095
00000000: ad69 313d 772a e7bc d57a a53b fc0a 06bd
00000010: 0415 073d dfff 46bd 9e5c 58bd a28d d9bb
00000020: ed4e 3abb a0f6 38bd 5574 ca3b b4a2 223d
00000030: 2cda 6c3c b80c b8bb 2ea9 823c ef68 003d
00000040: 7e52 543c 4c5a 4fbd 5c47 8b3c d05c 3ebd
00000050: e73e 93bc cdb5 ccbc ce50 10bd c2dd 6dbc
00000060: d325 373d fbc1 383d fd09 57bd 1078 a83c
00000070: f50c 8d3d cbbc 913c 4ae5 703d 92de 9f3c
00000080: 90f3 1e3d ebcc 29bd b868 283d 1fd3 0bbd
00000090: 1a80 5f3d a6bc 9d3c a9bc 05bd d093 1d3d
000000a0: b00f 6fbd 1c9b 9dbc 2b8c 5b3d 457f fdbc
000000b0: 0fe0 7bbb d585 d83b 2222 b4bc 0d3f 7e3d
000000c0: 51a4 57bd 0a13 943c 544c 2ebc 0e9f 6fbd
000000d0: 29af e53b 3da9 89bc 5085 14bd 0a59 50bd
000000e0: c300 0fbc 325e 0dbc d198 19bd 211c 53bd
000000f0: d563 18bd d554 453d b4ff 1d3d cbad 63bb
00000100: 69ed 1ebd 4b39 0f3d 306c 083b 74bd 833c
00000110: 6f14 66bd ebd3 a23d 9113 0cbd 4b00 29bd
00000120: 4893 78bd 47c4 1fbd 54f6 453d 9bae db3c
00000130: 4dd0 813c 1946 0b3d a49a 5f3d de06 f23c
00000140: 91aa 603d 6166 7fbc 4ab2 6bbd b54d 8a3d
00000150: dddf 943c 4ba2 503d 6d06 23bd 6755 073d
00000160: 1ad2 21bc d1a6 2bbc e884 a23c e322 223d
00000170: e2db 80bd dc7c 433d 9a53 28bd ae2f a8b9
00000180: 2b3a 383d f36f 0dbd 51ca eabc 83ca a63d

W4 f4 [100, 100]
-2.5114653e-07 -1.0172403e-07 -5.837068e-07 -2.4696428e-07 2.6737183e-07 1.8918087e-07 -1.3916225e-07 3.027829e-07
3.0841917e-07 -1.5671782e-07 -1.7105742e-07 -1.381596e-07 6.932946e-07 8.630445e-08 -1.9679923e-08 -5.608866e-07
-1.8513902e-09 -4.2227782e-08 -1.9957194e-07 -1.5519127e-07 -1.021433e-06 -1.1570224e-07 1.105719e-07 -8.149383e-07
-2.9719544e-07 3.3614364e-07 2.1746004e-07 2.2388434e-08 2.8323893e-07 1.6654487e-07 7.6343144e-07 -1.2628306e-07
1.3457725e-07 -2.3306112e-07 3.9094317e-08 3.041403e-07 4.725898e-08 1.7688981e-07 2.2879999e-07 3.1033255e-07
4.5893768e-07 -3.627372e-08 -4.5734242e-07 -4.52797e-07 1.5090662e-07 -5.099278e-07 3.6546987e-07 -1.7007352e-08
2.731157e-07 6.727741e-07 4.9109474e-07 2.1642032e-07 -8.596763e-08 1.1742844e-07 -2.280754e-08 8.828759e-07
2.0969466e-07 1.2348983e-06 -2.0949187e-08 -5.353712e-07 1.7763907e-07 9.4051074e-08 -2.1371488e-07 7.981407e-08
-5.8900633e-07 6.583345e-08 1.3106882e-07 1.2941749e-07 4.244949e-07 -1.2675582e-07 4.4664336e-07 7.631269e-08
-1.1089935e-07 -5.8297e-07 -5.688589e-07 -4.875808e-07 -2.2448603e-08 1.3061168e-07 4.6810612e-08 2.3593566e-07
5.944304e-08 -7.511748e-07 5.3710016e-07 -4.5392412e-07 -2.553403e-07 -9.0411487e-07 -1.6591463e-07 -5.0844915e-07
4.0797332e-07 -6.0470336e-07 1.7359272e-07 -2.1060569e-07 7.5730054e-07 1.29453e-08 -2.3047754e-07 2.7994254e-08
-5.0338167e-07 5.0121628e-08 8.3560275e-07 -7.823061e-09 8.804215e-07 -4.2600828e-07 -7.796773e-07 1.3949386e-07
4.7187325e-07 -4.630239e-07 1.800808e-08 6.788977e-08 -3.5460914e-09 -4.195532e-07 -8.882608e-09 5.5626856e-07
7.206537e-07 -5.7357397e-08 6.551045e-07 1.6485356e-07 8.087811e-07 3.7505032e-08 -8.916861e-08 5.837934e-07
4.0573767e-07 4.0736452e-07 1.4457987e-07 -1.4078821e-06 -2.0235224e-07 3.0836958e-08 1.6225019e-07 -5.3395723e-07
4.819419e-07 -1.8910413e-08 -9.931942e-08 2.9416918e-07 1.5027483e-06 -4.0399178e-07 -1.6637435e-07 2.5885805e-07
-4.3077046e-07 2.7530206e-08 -6.717288e-07 -1.8987404e-07 7.565585e-07 3.333957e-07 4.0981675e-08 -2.084851e-07
-2.449884e-07 7.7934675e-07 1.777311e-07 -4.941353e-08 4.4981115e-07 -1.0796791e-06 5.9400293e-08 1.106969e-06
-5.2487667e-07 3.3475177e-07 4.5077758e-07 2.1696039e-08 -1.4350007e-07 -6.2807527e-07 3.4854753e-07 -8.8414595e-08
-4.912823e-07 3.183985e-07 -1.0634901e-06 -2.3278554e-07 -1.209923e-07 -1.7966732e-07 -5.19519e-07 -3.306306e-07
-1.0416916e-07 5.867427e-07 6.5395506e-07 -5.3065867e-07 -2.0725594e-07 -1.626583e-08 -8.082692e-07 -2.393498e-08
8.0614063e-07 -4.385658e-07 -2.4081083e-07 1.3554722e-06 3.4460452e-09 -7.137402e-11 -6.1328404e-07 2.7842788e-07
5.7910904e-07 1.9761882e-07 2.0547994e-07 -1.8060007e-09 -7.8317925e-07 5.7092495e-07 -4.2616384e-07 -5.073942e-07
1.811398e-08 4.1506866e-07 1.6800682e-07 -4.884502e-07 -3.643523e-08 1.9063536e-07 -2.4753385e-07 -2.907417e-07
-1.4838923e-07 1.7021742e-07 8.4235154e-08 1.0375048e-07 5.0639045e-08 -2.0278327e-07 -2.2371316e-07 8.564572e-07
-9.958205e-08 1.6136782e-07 1.3496637e-07 4.5212306e-07 3.8966914e-07 -3.826914e-07 2.2518687e-07 5.7404276e-07
-3.5837434e-07 -6.810552e-07 7.305151e-08 -3.3755663e-07 3.4998789e-07 2.6134848e-07 -2.0963405e-07 -8.440112e-07
-1.913395e-08 9.633247e-08 -5.786327e-07 -3.5581067e-07 1.9901984e-07 -1.1361226e-07 2.635985e-07 5.5735376e-07
8.89373e-07 -1.5216926e-07 -1.9306337e-07 1.5682338e-07 3.4278068e-07 3.8749695e-07 -6.098156e-08 -6.1132585e-07
-1.1733698e-07 2.3462874e-07 1.3971828e-08 1.08334234e-07 -4.9769923e-08 -5.818688e-07 -6.3586896e-09 -3.5640008e-07
4.6954875e-07 -3.7026643e-07 2.6459554e-07 -7.254919e-07 1.5122339e-07 1.1283939e-07 4.193147e-08 9.1868515e-07
00000000: 51d5 86b4 6073 dab3 07b0 1cb5 8396 84b4
00000010: 4e8b 8f34 a421 4b34 a16c 15b4 2a8e a234
00000020: cf94 a534 4446 28b4 e8ab 37b4 0659 14b4
00000030: d81a 3a35 6056 b933 9c0c a9b2 d58f 16b5
00000040: 0074 feb0 f05d 35b3 eb49 56b4 a7a2 26b4
00000050: 2c18 89b5 fb77 f8b3 8b73 ed33 22c2 5ab5
00000060: 3b8e 9fb4 3b77 b434 f67e 6934 b050 c032
00000070: 1010 9834 81d3 3234 9cee 4c35 6c98 07b4
00000080: 5080 1034 5a3f 7ab4 a8e8 2733 b948 a334
00000090: ccf9 4a33 1aef 3d34 10ac 7534 c89b a634
000000a0: ea63 f634 60cb 1bb3 aa88 f5b4 f217 f3b4
000000b0: e508 2234 f9e1 08b5 cc35 c434 9017 92b2
000000c0: bca0 9234 af98 3435 c6d3 0335 2a61 6834
000000d0: 349d b8b3 f82c fc33 50ea c3b2 c5fe 6c35
000000e0: 6e28 6134 c8be a535 c0f3 b3b2 6eb6 0fb5
000000f0: 0ebd 3e34 20f9 c933 8079 65b4 4066 ab33
00000100: 351c 1eb5 5260 8d33 ecbb 0c34 02f6 0a34
00000110: 23e6 e334 601a 08b4 32ca ef34 58e1 a333
00000120: 9027 eeb3 657d 1cb5 b0b3 18b5 4ce2 02b5
00000130: 00d5 c0b2 443e 0c34 d00c 4933 8055 7d34
00000140: 504e 7f33 57a4 49b5 3e2d 1035 dbb2 f3b4
00000150: b415 89b4 4db2 72b5 4426 32b4 5c7c 08b5
00000160: 6d07 db34 e652 22b5 ce64 3a34 da22 62b4
00000170: 4c49 4b35 0866 5e32 2f79 77b4 0478 f032
00000180: 2020 07b5 5045 5733 2f4e 6035 3066 06b2
00000190: 1b56 6c35 22b6 e4b4 044b 51b5 c8c7 1534
000001a0: c455 fd34 8595 f8b4 30b0 9a32 ccca 9133
000001b0: 80af 73b1 f43e e1b4 209a 18b2 7c52 1535
000001c0: f272 4135 2059 76b3 70da 2f35 9a02 3134
000001d0: 041b 5935 3815 2133 f67c bfb3 fab5 1c35
000001e0: 29d4 d934 c1b3 da34 d03d 1b34 76f6 bcb5
000001f0: 2946 59b4 9871 0433 fe36 2e34 4355 0fb5
00000200: cc5e 0135 7070 a2b2 6e49 d5b3 4eee 9d34
00000210: 0ab2 c935 35e4 d8b4 a2a4 32b4 2ef9 8a34
00000220: a444 e7b4 907b ec32 da50 34b5 2ee0 4bb4
00000230: 4e16 4b35 8efd b234 d403 3033 f3db 5fb4
00000240: f386 83b4 4d34 5135 5ad6 3e34 c03a 54b3
00000250: 937d f134 7ee9 90b5 501f 7f33 2a93 9435
00000260: 40e5 0cb5 efb7 b334 6602 f234 185e ba32
00000270: 0015 1ab4 0199 28b5 0220 bb34 70de bdb3
00000280: aae0 03b5 5bf0 aa34 3ebd 8eb5 9af3 79b4
00000290: 1cea 01b4 94ea 40b4 1375 0bb5 8681 b1b4
000002a0: 9ab3 dfb3 a780 1d35 738b 2f35 9672 0eb5
000002b0: 148a 5eb4 f0b8 8bb2 d6f7 58b5 9499 cdb2
000002c0: 9065 5835 0674 ebb4 ca48 81b4 aced b535
000002d0: 78cf 6c31 00f4 9cae 8fa0 24b5 d67a 9534
000002e0: 1274 1b35 0c31 5434 e5a1 5c34 0037 f8b0
000002f0: ab3b 52b5 aa41 1935 83cb e4b4 dd33 08b5
00000300: 1099 9b32 9ad6 de34 5d65 3434 0b1e 03b5
00000310: f67c 1cb3 73b1 4c34 cbe4 84b4 3c17 9cb4
00000320: ec54 1fb4 02c5 3634 c4e4 b433 6ecd de33
00000330: 387e 5933 a4bc 59b4 ce35 70b4 4ae7 6535
00000340: d0d9 d5b3 7344 2d34 46eb 1034 52bb f234
00000350: b833 d134 b574 cdb4 e5ca 7134 eb17 1a35
00000360: 9866 c0b4 c2d1 36b5 7ee0 9c33 6e39 b5b4
00000370: f8e5 bb34 764f 8c34 c517 61b4 0290 62b5
00000380: 005c a4b2 56df ce33 5653 1bb5 3f06 bfb4
00000390: 28b2 5534 00fb f3b3 b484 8d34 0f9d 1535
000003a0: 3fbd 6e35 f863 23b4 db4c 4fb4 4863 2834
000003b0: 6b07 b834 2d09 d034 f8f4 82b3 fe19 24b5
000003c0: b0fa fbb3 42ee 7b34 c008 7032 60a5 e833
000003d0: 9cc2 55b3 b831 1cb5 a07b dab1 4157 bfb4
000003e0: 4a16 fc34 08c9 c6b4 bc0d 8e34 6cbf 42b5
000003f0: f85f 2234 1c52 f233 2418 3433 909b 7635

B4 f4 [100]
0.021902239 0.003356145 -0.0103275925 -0.021964373 -0.02531207 -0.022043187 0.018711986 -0.02562174
-0.030322513 -0.049685616 0.02398645 -0.0672791 -0.00079864933 0.017584609 0.037311085 0.027858285
0.004013742 0.05885552 0.05468302 0.035488117 -0.020147245 -0.048146866 -0.046518005 0.015859004
-0.05944697 -0.02548168 -0.031831916 -0.036944326 -0.043826193 -0.020364964 -0.019584386 0.07145748
-0.0003941079 -0.037288718 -0.03906594 0.037287824 0.049523503 -0.046613917 0.020351883 0.015408757
-0.04950749 0.06561936 0.05199656 0.03341546 -0.0144164665 0.056514554 0.030609343 -0.046312995
0.03495524 0.015036256 0.046912003 -0.045394875 0.02376583 0.018096996 0.03488389 -0.03681406
0.0037657782 0.06493336 0.05296014 -0.0016099117 -0.016814185 -0.026285555 0.0043431297 0.0039009682
0.009482972 -0.04504622 -0.030970687 -0.06511098 -0.040851336 0.040895376 -0.03458894 0.034856975
-0.04646857 -0.013425615 0.025216382 0.04674633 0.015824948 -0.013675068 -0.045473624 0.005316263
-0.028052613 0.027719827 -0.03790459 -0.022991147 0.013273263 -0.024273915 0.023228293 -0.0009925736
-0.015441723 0.050743256 0.028293436 -0.022854576 0.02394532 -0.019081192 -0.03289593 0.032408334
-0.04517628 -0.024771746 0.034584355 -0.025389854
00000000: 536c b33c c5f2 5b3b 1035 29bc a1ee b3bc
00000010: 425b cfbc ea93 b4bc e149 993c afe4 d1bc
00000020: eb66 f8bc 2583 4bbd 3b7f c43c a0c9 89bd
00000030: 735c 51ba 990d 903c 82d3 183d 0f37 e43c
00000040: b585 833b 7c12 713d 4dfb 5f3d fd5b 113d
00000050: d60b a5bc a635 45bd aa89 3ebd beea 813c
00000060: aa7e 73bd f5be d0bc 2f62 02bd ef52 17bd
00000070: 1883 33bd 6dd4 a6bc 6f6f a0bc 4d58 923d
00000080: 44a0 ceb9 0ebc 18bd 9b03 20bd 1ebb 183d
00000090: 28d9 4a3d 3cee 3ebd feb8 a63c 0375 7c3c
000000a0: 5ec8 4abd 7163 863d 58fa 543d a6de 083d
000000b0: 0b33 6cbc ce7b 673d 72c0 fa3c b2b2 3dbd
000000c0: 3a2d 0f3d a15a 763c cd26 403d faef 39bd
000000d0: 8fb0 c23c 2740 943c 69e2 0e3d 57ca 16bd
000000e0: 46cb 763b c8fb 843d bbec 583d ac03 d3ba
000000f0: e7bd 89bc ce54 d7bc d050 8e3b 63a7 7f3b
00000100: 785e 1b3c 6382 38bd 3db6 fdbc e858 85bd
00000110: bb53 27bd e981 273d 22ad 0dbd 30c6 0e3d
00000120: d455 3ebd 1cf7 5bbc 9692 ce3c 1479 3f3d
00000130: 52a3 813c 640d 60bc 8d42 3abd 0c34 ae3b
00000140: 98ce e5bc b114 e33c d841 1bbd ee57 bcbc
00000150: 1a78 593c 17da c6bc 4349 be3c 3e19 82ba
00000160: 48ff 7cbc 29d8 4f3d a3c7 e73c 8539 bbbc
00000170: fa28 c43c 2950 9cbc e2bd 06bd 9abe 043d
00000180: c30a 39bd 1eee cabc 53a8 0d3d 62fe cfbc
