onnx-to-hls/example-onnx-model-files/three_layer_bn_keras.onnx (onnx, 23520 bytes, 24 tensors)

W f4 [16, 64]
000000 10 88 18 3e 45 ed 49 3d 61 6e 97 3e 23 03 1a b9
       0.14895654 0.049298543 0.295764 -0.00014687753
000010 02 04 8d be d8 b0 c6 3e 74 58 42 3b c4 ff 9c 3e
       -0.2754212 0.38806796 0.0029654773 0.30663884
000020 07 22 66 3e 51 f4 e7 bc 81 16 c8 bd e5 3a b5 be
       0.22473918 -0.028314741 -0.09769917 -0.35396495
000030 30 e0 0f 3e b9 f5 10 3b 2e e9 08 bc 31 6f 4c 3e
       0.14050364 0.0022119118 -0.008356376 0.19964291
000040 fd b4 f6 3c 16 6f eb bd 76 d3 91 bc 00 83 21 3e
       0.030115599 -0.11495797 -0.017801028 0.15772629
000050 fb bb 8a 3d 40 b8 7e 3c 9d 6c 31 be 89 48 91 3d
       0.06774136 0.015546858 -0.17326589 0.07093913
000060 21 3e d3 3c 75 af 0a 3e d3 a6 6c 3e bc 04 72 be
       0.025786461 0.13543494 0.23110513 -0.23634619
000070 4a 98 f7 3d 05 e6 53 3e 3e 0b 8c 3e 9a b7 78 be
       0.12089594 0.20693214 0.27352327 -0.24288788
000080 3e 77 51 3d 08 94 8b 3e ab 5b 0a be 87 5a 97 39
       0.05113911 0.27261376 -0.13511531 0.00028868412
000090 fb 53 03 3a 80 88 2c 3d fb d8 0e bb 3a ee 68 3d
       0.00050097675 0.042122364 -0.002179681 0.056867816
0000a0 be 29 29 3e 17 76 49 3e c7 29 28 3e 97 62 52 3d
       0.1651983 0.19673954 0.16422187 0.051363554
0000b0 af e8 80 3e 7f da 6c bd 48 59 9e 3e a8 7d 41 be
       0.25177523 -0.05782556 0.3092749 -0.1889559
0000c0 97 23 eb 3d 40 03 76 be d7 ee 42 be 45 52 53 bd
       0.114813976 -0.24024677 -0.19036423 -0.05159213
0000d0 b1 6d 13 bb 2e c7 24 b9 65 41 39 3e a3 5f b0 bd
       -0.00224958 -0.00015714459 0.18091352 -0.08611991
0000e0 0e 87 c2 be 73 8b 53 3d 91 fa 4d 3e 85 d5 d3 bd
       -0.37993664 0.05164666 0.20115115 -0.1034346
0000f0 0e 82 d0 bd 44 6d b6 be 2b fd 54 be 5f 56 c6 3d
       -0.10181056 -0.35630238 -0.20799701 0.09684443
000100 c1 96 82 3d 86 68 a2 3d 2a 0e bf bb b7 2f 96 bd
       0.0637641 0.079300925 -0.005830546 -0.0733332
000110 78 6d 27 be fc 53 84 3e c4 76 14 be b7 e4 b1 3d
       -0.16350353 0.25845325 -0.1449843 0.08686202
000120 65 9b 6e 3a b8 09 bc 3b dc a5 17 be 64 e0 68 be
       0.0009102135 0.0057384633 -0.14809364 -0.22741848
000130 43 3f d1 3e d5 9b 4f be 58 dc 7f 3e 30 4b 86 3c
       0.40868577 -0.20274289 0.24986398 0.016393274
000140 f2 4e d5 3e 31 70 90 3a c0 ed 9f 3d 9f 12 77 3e
       0.41661793 0.0011019764 0.07809019 0.24128197
000150 13 38 c9 3d ed 7b 96 3d 20 2f c5 bd d8 14 90 3e
       0.098251484 0.07347856 -0.09628129 0.28140903
000160 0c bf 2e be 4f 7a 9b 3e ae 5f 53 3e 35 38 80 bb
       -0.17065066 0.30366752 0.20641968 -0.0039129504
000170 e3 48 a2 bd c7 a8 2e 3e 1b 54 91 3d 03 02 14 be
       -0.07924058 0.17056571 0.0709612 -0.14453892
000180 08 11 85 3d c0 8e 83 be 60 f8 ef 3c 0a 79 05 bc
       0.06497389 -0.25694847 0.02929324 -0.008146534
000190 c3 dc 4e 3d 99 51 92 3e 9d d9 65 ba 88 96 d9 3a
       0.050503504 0.2857788 -0.00087680836 0.0016600648
0001a0 20 ec 26 3e 14 22 8a 3e f3 0d 00 3d d2 8a b4 3d
       0.16301012 0.26979125 0.031263303 0.088155404
0001b0 35 d7 8e 3d 05 df 04 bd 0d 48 86 3e 47 93 92 3d
       0.06974641 -0.03243925 0.26226845 0.07156997
0001c0 5c b9 42 3e 85 70 e9 bb e5 8c 3c be 3b 12 be bd
       0.19016021 -0.007124009 -0.18413122 -0.09280821
0001d0 c8 e9 ed bc 2a a5 94 be 5f a0 ac 3e 4f cf 33 be
       -0.02904214 -0.2903226 0.33716103 -0.1755955
0001e0 68 89 aa be 73 cb f5 3d 2d f4 2f 3d 27 03 2c 3e
       -0.33307958 0.120016955 0.042957474 0.16798078
0001f0 0f b9 1b 3c 87 ac a1 bd 75 2a 5a 3a 6c e5 15 3e
       0.009504571 -0.07894235 0.00083223666 0.14638299
000200 d8 81 e1 3d d1 6e 0f 3d 48 1a 1d be e5 b2 d9 3d
       0.11011094 0.035017792 -0.15342057 0.106298245
000210 be 82 87 3e ba 27 28 be c0 81 b2 3e e0 07 a2 3d
       0.26466936 -0.16421404 0.34864616 0.07911658
000220 00 fa 1b 3e 44 a8 89 be 62 2a 25 3c a1 f4 e4 be
       0.15232086 -0.2688619 0.010080906 -0.44717887
000230 f3 67 4c 3e 57 54 b3 39 2b 8f ad 3d 5c ad 65 be
       0.19961528 0.0003420438 0.08474573 -0.22429413
000240 62 31 ad be 82 0e 32 3e 72 c8 cc be 31 e2 df 3d
       -0.3382674 0.17388347 -0.39996678 0.109318145
000250 cb 22 8a 3d 21 53 80 3d ac 04 94 be 50 40 44 be
       0.067449175 0.062658556 -0.28909814 -0.19165158
000260 3c 87 d7 3d aa 8c d6 be fb df b5 bb 8d 9a 8a be
       0.10523841 -0.41904193 -0.005550382 -0.27071038
000270 f7 2e e2 bd 39 8c 06 3e 90 b5 c5 3e fe ce ab bd
       -0.11044114 0.13139428 0.38615084 -0.0838909
000280 33 77 c2 3d 23 83 97 be 5a 94 90 be ee 90 25 3e
       0.09495392 -0.29592237 -0.28238183 0.16168568
000290 c5 26 7d be c2 b8 86 39 3c 94 bc b8 8c 9c cf bd
       -0.2472182 0.00025696127 -8.9921494e-05 -0.10137281
0002a0 f7 c0 61 3d 81 a6 4c 3b ea 74 36 3e 57 9d 8b 3e
       0.055115666 0.0031227174 0.17818037 0.27268478
0002b0 70 df 66 be cb e3 5f be b7 eb 9f be 90 31 46 bd
       -0.22546172 -0.2186424 -0.31234524 -0.04838711
0002c0 b8 de 95 3e 8d 1d d0 3e fe 9b 18 3a 93 ac af 3e
       0.29271483 0.40647545 0.00058215845 0.3431135
0002d0 98 d0 ca 3d 1c d2 eb bd c7 58 c3 3e 8d 46 95 3e
       0.09903067 -0.115146846 0.3815367 0.29155388
0002e0 cc 42 64 bd 15 17 90 3e ae c0 4c 3e ac ce bb be
       -0.055727765 0.2814261 0.19995376 -0.36681116
0002f0 c8 55 25 3e 33 d2 de be 49 41 98 be b5 6a 48 3d
       0.16146004 -0.43519744 -0.2973731 0.04892989
000300 a2 19 5f be 90 3c 4c 3e 86 93 94 be 50 a7 1e bc
       -0.21787122 0.19944978 -0.290188 -0.009683445
000310 b9 1f 64 3e 95 4a 18 3e 7a 29 46 3e 93 11 85 b9
       0.22277726 0.14872201 0.1935176 -0.0002538083
000320 34 ef 34 3e 41 8c e7 bd df 22 b9 3e a8 5d 3d ba
       0.17669374 -0.11306048 0.36159417 -0.00072237337
000330 65 4c a2 3c 21 57 a6 3d d8 2b 0d be 91 ba 6b be
       0.019811818 0.08122087 -0.13786256 -0.23020388
000340 c3 39 c5 bc fa eb 1e be 14 d7 34 3c 42 26 c5 3e
       -0.024075394 -0.15519705 0.011037607 0.3850575
000350 5e 5f e0 bd a7 59 7c be f6 bb 87 bf ee a3 07 bd
       -0.1095569 -0.24643575 -1.0604236 -0.03311532
000360 96 3b b0 3e 93 f6 f0 bb b5 63 cc bd 0e 19 67 3e
       0.3442046 -0.0073536127 -0.09979955 0.22568151
000370 9c 8c a7 3e e0 23 6f be 38 2a 45 3e 57 d5 0f bf
       0.32724464 -0.23353529 0.19254386 -0.56184906
000380 47 a1 51 3e e5 fa 5e b9 a2 b3 d3 3e a8 fa 18 be
       0.20471679 -0.00021265035 0.41347986 -0.14939368
000390 f8 96 fb 3d 81 a2 87 be 16 7d 4f be b4 48 1a bf
       0.122846544 -0.26491168 -0.2026256 -0.60267186
0003a0 d1 9e b8 be ad 2b 6e be f6 ca 35 3e 4b 3e 4a 3d
       -0.36058667 -0.23258848 0.17753205 0.049375813
0003b0 35 26 39 be e2 be 9a 3d 15 09 10 bf 1a 99 3f 3e
       -0.18080981 0.07555939 -0.5626386 0.18710747
0003c0 e2 7b 24 b8 d8 c1 33 3e 47 16 2a bd d9 64 dc 3e
       -3.9216022e-05 0.17554414 -0.04152515 0.4304569
0003d0 47 eb 46 be a5 94 50 ba 53 23 81 bd 9a 88 e5 bd
       -0.19425689 -0.000795672 -0.06305566 -0.11207695
0003e0 7b 2f aa 3d c8 19 5c be 22 82 5f 3e e6 c2 3d be
       0.083098374 -0.2149421 0.21826985 -0.18531379
0003f0 87 d7 05 3e 2e 04 ab be 11 36 91 b8 c7 4a 03 bd
       0.13070498 -0.33401626 -6.9242094e-05 -0.032053735

B f4 [64]
000000 57 e3 40 bb 8f a8 a4 3b eb fc 66 bb d8 c3 83 3b
       -0.002943238 0.0050249766 -0.0035245966 0.004021149
000010 8f dd 26 3b 9d 24 38 bc 67 50 c7 3a a7 b7 bc 3a
       0.002546165 -0.011239198 0.0015206457 0.0014397994
000020 1c e3 f0 3b ae 5e fb bb ce 2a cf bb 03 c7 5e 3b
       0.0073512923 -0.007671199 -0.0063222414 0.0033993132
000030 7c 8b 83 bc c5 d9 3a ba f3 50 53 bc 36 44 1f bb
       -0.016057722 -0.0007127787 -0.012897718 -0.0024302131
000040 8f 48 95 bb 2b 23 9c bb 9f 81 42 bb ca b5 02 bb
       -0.004555769 -0.0047649345 -0.002967931 -0.001994478
000050 4f 84 85 3a 9d 39 1f bc b7 cd d8 ba 3e d1 ae bb
       0.0010186526 -0.009718326 -0.00165408 -0.005335002
000060 a1 3c c7 3b 5d 56 56 3c d8 b5 99 bc 76 2d c6 bb
       0.0060802256 0.013082114 -0.018763468 -0.0060479
000070 a1 94 e6 bb 64 a1 4b 3b 51 da 25 bc 6d 48 30 bc
       -0.007036761 0.0031071538 -0.0101228515 -0.010759455
000080 86 93 96 ba 26 81 b9 37 a8 27 e7 3b 55 d2 2e bb
       -0.0011488057 2.2113858e-05 0.007054288 -0.002667566
000090 1d f3 be 3a a4 20 44 bc ea fa 13 bc 35 c0 21 bb
       0.0014568303 -0.011970673 -0.009031991 -0.0024681215
0000a0 54 b5 dd ba 1e ce 2a 3c ba 78 ce bb 65 32 b6 3a
       -0.0016915002 0.010425119 -0.006301013 0.0013900517
0000b0 f0 2e 9a bb 93 ca e2 3b 0e ed 14 bb 24 6b e7 3a
       -0.0047053024 0.0069211214 -0.0022724303 0.0017655832
0000c0 66 a1 9d 3b 3c b4 4a 3c fd 30 f7 3a 4f ad 0e bb
       0.0048105 0.012372073 0.0018859204 -0.002177078
0000d0 ac c1 39 bc f9 62 9c 3a aa af 9c 3a 53 db df bb
       -0.011337679 0.0011931352 0.0011954207 -0.0068315654
0000e0 1d 7c 94 ba c3 b2 5d bb 56 15 f4 3b 7e 26 cd ba
       -0.0011328493 -0.0033828474 0.0074488325 -0.001565173
0000f0 e7 64 52 3b 96 0c fc bc c4 25 c7 3b c5 75 4b bc
       0.00321036 -0.03076772 0.0060775 -0.012418215

scale f4 [64]
000000 bd e7 ac 3f 72 b7 e6 3f 0a d3 8f 3f 3f b1 8c 3f
       1.3508221 1.8024733 1.1236279 1.0991591
000010 b0 dd ab 3f 08 d4 a6 3f b7 ce 37 40 38 b5 9c 3f
       1.3427029 1.3033457 2.8719919 1.2242804
000020 4b d0 a7 3f 58 8c d4 3f 59 14 8d 3f 37 f4 74 3f
       1.3110441 1.660533 1.1021835 0.9568514
000030 6a 85 3f 40 21 b2 af 3f 66 e8 cc 3f ef 3b ce 3f
       2.992518 1.3726236 1.6008422 1.611204
000040 00 39 12 40 e6 7f de 3f 00 aa e7 3f a4 55 da 3f
       2.284729 1.7382782 1.8098755 1.7057385
000050 f4 3f 87 3f 90 5c b1 3f 83 ae 6b 3f 81 5b c9 3f
       1.0566392 1.3856373 0.9206316 1.573105
000060 d6 13 d3 3f 96 47 7e 3f db e4 05 40 4c 0c c7 3f
       1.6490428 0.9932798 2.0920932 1.5550628
000070 de 9a 0a 40 d3 83 13 40 ea 28 2f 40 9f b4 68 3f
       2.1657023 2.304921 2.7368722 0.90900606
000080 6d 72 d5 3f 46 9f 74 3f 28 ae a3 3f 56 b3 8f 3f
       1.6675545 0.9555553 1.2787523 1.1226604
000090 64 56 a9 3f 8d e6 01 40 7c 51 b3 3f 3c ef 60 3f
       1.3229489 2.0296967 1.4009242 0.8786504
0000a0 d4 fd 38 40 b7 11 75 3f fd 51 e7 3f c5 14 3f 40
       2.8904924 0.95730156 1.8071896 2.9856427
0000b0 0e 26 17 40 87 d5 87 40 71 84 e5 3f 7c 3a 65 3f
       2.3616977 4.2448153 1.7931043 0.89542365
0000c0 44 46 7e 3f b8 c5 50 3f 68 4d 85 3f 2d cb 69 3f
       0.99325967 0.81551695 1.0414248 0.91325647
0000d0 76 31 f4 3f 0a 6e 87 3f 56 d1 c9 3f 35 cf a7 3f
       1.9077594 1.0580456 1.5767009 1.311011
0000e0 64 67 9a 3f 8d 76 f9 3f 7d 81 00 40 ec 2a 9f 3f
       1.2062802 1.9489304 2.0079033 1.2434974
0000f0 6b ca 65 40 fd 63 c9 3f 11 f6 e2 3f 1f 29 94 3f
       3.5904796 1.5733639 1.7731344 1.1575049

bias f4 [64]
000000 a2 74 d6 3d c0 8a 5d bd f1 ce 79 3c 43 6b 08 be
       0.10471465 -0.0540874 0.015247093 -0.13322167
000010 57 54 ac 3d b7 bf 67 3e b2 bd 04 3e df 9f ba 3d
       0.08414524 0.22631727 0.12962988 0.09112524
000020 23 eb 3b be 77 88 ba 3d a6 b2 b3 bb cc d2 89 3d
       -0.18351416 0.0910806 -0.005483943 0.067296594
000030 ee ee 9c bd 65 c0 7f 3d de 0a 53 3e a8 e3 99 3d
       -0.0766276 0.06243934 0.20609614 0.07514125
000040 fe e8 84 bd 40 0b 0b 3e ab 06 2e 3e 60 d5 38 bd
       -0.06489752 0.1357851 0.16994731 -0.045125365
000050 8f 70 2a bd e9 88 72 3e 66 ee 36 3e 5e 1d cd 3d
       -0.04161125 0.2368504 0.1786438 0.10015367
000060 d9 5f 19 be 16 7f 1f 3d e8 81 86 3e 37 a6 24 3d
       -0.14977969 0.038939558 0.26270986 0.040197577
000070 18 6e 90 bd 99 b0 8a 3d c2 90 65 3d cf 0d 73 3d
       -0.07052249 0.067719646 0.056046255 0.05933934
000080 c1 b6 e4 3b 43 d1 a1 bd d3 d3 d5 3d 5e 9e 31 3d
       0.006979794 -0.07901242 0.10440793 0.04336392
000090 18 2c 13 bd 5e 9a 27 bd e2 bf 84 3d a6 9b 18 3e
       -0.035930723 -0.0409187 0.06481911 0.14903125
0000a0 d7 1d 98 3e ea 28 c1 bc 68 92 10 3e 3c ef 24 3d
       0.29710266 -0.02357908 0.1411835 0.040267214
0000b0 c4 5f 3b 3e 50 2b f8 ba 37 d3 83 3e 7c 87 9a 3d
       0.1829825 -0.0018933807 0.25747082 0.07545373
0000c0 ea 3e e9 3d 61 e6 10 bd a5 db ad 3d 5f 3a 60 3d
       0.11388953 -0.035375956 0.084891595 0.054743167
0000d0 0e a5 d0 3d c2 39 2d bc af 0f da 3d 50 d8 59 3d
       0.10187732 -0.010572853 0.10647523 0.053184807
0000e0 7f 01 60 bd 0c cb 16 3e 5e a0 79 3d 7b 5a d8 bd
       -0.054688927 0.14725894 0.060943954 -0.10564133
0000f0 cf 76 8d 3e 07 03 87 3e 4f 87 a8 3d b8 29 7a bd
       0.27629706 0.26369497 0.08228933 -0.061074942

mean f4 [64]
000000 00 00 00 80 00 00 00 00 00 00 00 80 00 00 00 80
       -0.0 0.0 -0.0 -0.0
000010 00 00 00 00 00 00 00 80 00 00 00 00 00 00 00 80
       0.0 -0.0 0.0 -0.0
000020 00 00 00 00 00 00 00 80 00 00 00 80 00 00 00 00
       0.0 -0.0 -0.0 0.0
000030 00 00 00 80 00 00 00 80 00 00 00 80 00 00 00 80
       -0.0 -0.0 -0.0 -0.0
000040 00 00 00 80 00 00 00 80 00 00 00 80 00 00 00 00
       -0.0 -0.0 -0.0 0.0
000050 00 00 00 00 00 00 00 80 00 00 00 80 00 00 00 80
       0.0 -0.0 -0.0 -0.0
000060 00 00 00 00 00 00 00 00 00 00 00 80 00 00 00 80
       0.0 0.0 -0.0 -0.0
000070 00 00 00 80 00 00 00 00 00 00 00 80 00 00 00 80
       -0.0 0.0 -0.0 -0.0
000080 00 00 00 80 00 00 00 80 00 00 00 00 00 00 00 80
       -0.0 -0.0 0.0 -0.0
000090 00 00 00 00 00 00 00 80 00 00 00 80 00 00 00 80
       0.0 -0.0 -0.0 -0.0
0000a0 00 00 00 80 00 00 00 00 00 00 00 80 00 00 00 00
       -0.0 0.0 -0.0 0.0
0000b0 00 00 00 80 00 00 00 00 00 00 00 80 00 00 00 00
       -0.0 0.0 -0.0 0.0
0000c0 00 00 00 00 00 00 00 00 00 00 00 00 00 00 00 80
       0.0 0.0 0.0 -0.0
0000d0 00 00 00 80 00 00 00 80 00 00 00 00 00 00 00 80
       -0.0 -0.0 0.0 -0.0
0000e0 00 00 00 00 00 00 00 80 00 00 00 00 00 00 00 80
       0.0 -0.0 0.0 -0.0
0000f0 00 00 00 00 00 00 00 80 00 00 00 00 00 00 00 80
       0.0 -0.0 0.0 -0.0

var f4 [64]
000000 00 00 80 3f 00 00 80 3f 00 00 80 3f 00 00 80 3f
       1.0 1.0 1.0 1.0
000010 00 00 80 3f 00 00 80 3f 00 00 80 3f 00 00 80 3f
       1.0 1.0 1.0 1.0
000020 00 00 80 3f 00 00 80 3f 00 00 80 3f 00 00 80 3f
       1.0 1.0 1.0 1.0
000030 00 00 80 3f 00 00 80 3f 00 00 80 3f 00 00 80 3f
       1.0 1.0 1.0 1.0
000040 00 00 80 3f 00 00 80 3f 00 00 80 3f 00 00 80 3f
       1.0 1.0 1.0 1.0
000050 00 00 80 3f 00 00 80 3f 00 00 80 3f 00 00 80 3f
       1.0 1.0 1.0 1.0
000060 00 00 80 3f 00 00 80 3f 00 00 80 3f 00 00 80 3f
       1.0 1.0 1.0 1.0
000070 00 00 80 3f 00 00 80 3f 00 00 80 3f 00 00 80 3f
       1.0 1.0 1.0 1.0
000080 00 00 80 3f 00 00 80 3f 00 00 80 3f 00 00 80 3f
       1.0 1.0 1.0 1.0
000090 00 00 80 3f 00 00 80 3f 00 00 80 3f 00 00 80 3f
       1.0 1.0 1.0 1.0
0000a0 00 00 80 3f 00 00 80 3f 00 00 80 3f 00 00 80 3f
       1.0 1.0 1.0 1.0
0000b0 00 00 80 3f 00 00 80 3f 00 00 80 3f 00 00 80 3f
       1.0 1.0 1.0 1.0
0000c0 00 00 80 3f 00 00 80 3f 00 00 80 3f 00 00 80 3f
       1.0 1.0 1.0 1.0
0000d0 00 00 80 3f 00 00 80 3f 00 00 80 3f 00 00 80 3f
       1.0 1.0 1.0 1.0
0000e0 00 00 80 3f 00 00 80 3f 00 00 80 3f 00 00 80 3f
       1.0 1.0 1.0 1.0
0000f0 00 00 80 3f 00 00 80 3f 00 00 80 3f 00 00 80 3f
       1.0 1.0 1.0 1.0

W1 f4 [64, 32]
000000 9b e5 97 3a 53 ee 1f bc 3f de 3f be 7d 64 3a 3a
       0.0011588814 -0.009761411 -0.18737124 0.0007110311
000010 a9 42 83 3d 8a 59 16 3c a9 27 1f 3c 97 2f 60 be
       0.06409199 0.009176621 0.009714046 -0.21893154
000020 0b 56 ba bc 6e d9 3f bb 0f a2 72 3e 33 60 d0 3d
       -0.022746107 -0.0029273885 0.23694633 0.101745985
000030 31 36 09 be 31 1a a5 39 03 2f 9a bc 75 5b f1 3d
       -0.13399579 0.00031490767 -0.018821245 0.11785022
000040 53 73 0c 3d 0b 60 15 ba cf 55 1a be 95 14 95 3c
       0.03428967 -0.00056982104 -0.15071796 0.01819829
000050 09 1a 0e 3a 51 2d c9 b9 4e 2a 9b be 8b 09 08 3a
       0.00054207497 -0.0003837147 -0.30305713 0.00051894103
000060 36 e9 ae bc ed 1d 65 bd 74 90 b9 3d f6 10 50 3a
       -0.021351438 -0.055936743 0.09060755 0.00079370977
000070 5e f9 c7 3d 1c db e1 bc 74 1d 06 bd af b7 93 bd
       0.0976436 -0.0275703 -0.032742932 -0.07212769
000080 57 e5 97 bc 53 47 2d 3c cc 8b 99 3d 9f 5e 86 bb
       -0.018541975 0.010576087 0.07497367 -0.004100635
000090 cb 35 91 bd dd ce 8d 3a d7 14 0b be 22 7e ea bd
       -0.07090338 0.0010819096 -0.13582169 -0.11449839
0000a0 35 61 d5 3b ed db 45 bd 29 6d 6d bd 7a b3 c7 3d
       0.006511832 -0.04830544 -0.05796543 0.09751029
0000b0 ec 73 ce 3d ea b8 3b 3c 85 f2 8f bd d1 cf 6d 3d
       0.10080704 0.011457661 -0.07028679 0.058059517
0000c0 25 92 ef 39 8e 3a 0c 3e ec 95 16 3a 78 5d 67 bc
       0.00045694518 0.13694212 0.0005744386 -0.014121406
0000d0 96 85 c8 3d ba d0 07 be 9b f3 f3 3d 52 e1 b9 3c
       0.097911045 -0.13263217 0.119116984 0.022690449
0000e0 90 49 cc b8 50 8e f7 39 d4 f3 09 3e 42 56 23 39
       -9.74118e-05 0.00047217542 0.1347192 0.00015577025
0000f0 b7 45 df bd 52 df 30 3d 73 cb e0 3b 5a e0 8b ba
       -0.10901969 0.043181725 0.0068601905 -0.001067172
000100 28 12 dd bc fd 73 46 3d 2d fe 19 bd 21 cb 2b bd
       -0.026986197 0.04845046 -0.037595917 -0.041941766
000110 49 ca 8f 3d 2b ad 55 b8 73 cc 37 bc 41 b0 46 bc
       0.07021005 -5.0944433e-05 -0.011218178 -0.012126983
000120 0f 2c 85 bd 46 7c bc bd 1e 99 0e 3e 1c 47 ea bd
       -0.06502544 -0.09203391 0.13925597 -0.11439344
000130 12 26 25 3e c5 fc 0c ba 5d e9 71 3d 41 b6 8c 39
       0.16127804 -0.0005378242 0.059060443 0.0002683867
000140 8b b8 b4 b9 60 70 26 be 4b 18 02 be 61 73 0c bd
       -0.0003446977 -0.16253805 -0.1270458 -0.03428972
000150 a9 16 13 3d 5c 04 43 3d af 23 7f bd be 6d 31 bc
       0.035910282 0.04761158 -0.06228989 -0.010829387
000160 97 f6 6c bd 3f 93 1e 3d 81 14 94 3c bf f1 8e ba
       -0.057852354 0.038714644 0.018076183 -0.0010905786
000170 55 85 7f 3d 5d 1d 78 bc 88 30 b2 3d 58 c1 8c bd
       0.062383015 -0.0151437195 0.08700663 -0.06872815
000180 6f e8 1b bb 70 0e 96 3d 2a bd eb bd 25 fd 87 3c
       -0.0023789664 0.073269725 -0.115106896 0.0166002
000190 8a 2f f7 3d e7 02 e8 3a eb b5 7d 3d 96 2a 98 bd
       0.12069614 0.001770106 0.06194107 -0.074299976
0001a0 d8 31 25 be d3 06 71 bd fe ea 07 bd b5 ec 8d 3c
       -0.16132295 -0.0588444 -0.03318309 0.017324785
0001b0 97 a4 bc 3d a9 92 92 3b e2 c3 c6 bd a0 8c 94 ba
       0.092110805 0.0044730497 -0.097053304 -0.0011333413
0001c0 ed 1c 27 ba 64 60 a8 bd 27 4c 0f 3d 13 9c 89 39
       -0.0006374855 -0.0822151 0.034984734 0.0002624696
0001d0 80 6e 5a 3d a1 b0 04 be 8c e5 9d 3d b9 f4 06 bd
       0.053328037 -0.12958004 0.07709798 -0.03294823
0001e0 28 58 6b 39 b9 68 28 3a e2 9f 0f 3e cf 50 a8 3d
       0.00022444187 0.00064242963 0.14025834 0.08218538
0001f0 51 b5 03 3a d3 d9 f0 3d 4a 3f d3 38 a2 96 11 bd
       0.00050242717 0.11760297 0.000100730525 -0.035544045
000200 49 29 3c bd a8 91 20 be 3c b3 20 3a aa ad 0c be
       -0.04593781 -0.15680563 0.00061302236 -0.13738123
000210 b1 e9 40 3d c1 e1 c2 3d 59 99 eb bc c5 d1 79 3a
       0.047097865 0.095157154 -0.028759645 0.0009529854
000220 d1 bd 5e 3c 8c e9 04 3a 55 39 01 3e ad 0d 5c ba
       0.01359506 0.00050702016 0.12619527 -0.0008394372
000230 74 c4 76 3d f3 0d 3d 3d 43 b1 96 3b 73 be 23 3e
       0.060245946 0.04615588 0.004598768 0.1599062
000240 c7 64 97 bd d2 f8 00 be 62 34 51 ba 4d 61 79 bc
       -0.07392269 -0.12594917 -0.0007980523 -0.015220952
000250 bb 7b 13 bd 22 7a 01 bc 7f 88 a3 bd e3 5a 0a b6
       -0.03600667 -0.007902654 -0.07985019 -2.0616505e-06
000260 58 d3 af bc 57 e1 09 3c 14 3d bb bc 7c e5 0a bd
       -0.021463081 0.008415542 -0.022856273 -0.03391026
000270 f2 e5 d8 3d a1 51 e8 3b 27 33 83 3d e4 70 c3 bd
       0.105907336 0.007089809 0.06406241 -0.095430166
000280 b0 71 ba bd 29 4b 54 bd 49 2a ad bb de e2 30 bd
       -0.091037154 -0.05182949 -0.005284582 -0.043185107
000290 54 b5 ed 3d 7a ff b1 3a 83 3a 1a 3b 27 e9 95 b9
       0.11606851 0.0013580166 0.002353341 -0.00028593207
0002a0 76 89 4f 3d 94 cb a5 bd 86 62 13 bd 02 9c 2d 3a
       0.050668202 -0.0809547 -0.03598263 0.0006622673
0002b0 af d7 d3 bd 6f 9d 47 39 2f f5 18 3e 18 9f 89 bd
       -0.10343873 0.00019036767 0.1493728 -0.06719798
0002c0 52 a8 85 b9 17 ad 13 3e 6c 70 06 3d a1 58 14 bd
       -0.00025493145 0.14421497 0.032822058 -0.036217336
0002d0 58 87 c5 bd a6 b8 75 3d 4e 5f 79 38 18 36 35 be
       -0.096449554 0.059990548 5.9454986e-05 -0.17696416
0002e0 2e fe 5c ba 76 e1 f6 3d 57 80 8f bd 63 44 8e 3d
       -0.000843021 0.12054722 -0.07006901 0.069466375
0002f0 3c ea 7f 3c 26 9f cc 3a 73 75 f5 3c 12 5a 21 be
       0.015619811 0.0015611395 0.02996323 -0.15757015
000300 96 f0 8f 3d cb 9e 0e be ad cb 73 3c 64 4f 55 bd
       0.0702831 -0.13927762 0.014880103 -0.052077666
000310 9b 0f da ba 6e 11 87 3b 63 3f fe bd eb 2c 19 bc
       -0.0016636731 0.004121951 -0.12414434 -0.009349088
000320 9e 9a 74 bc d6 d8 51 39 e4 f5 0d 3b 49 ea 1a 3a
       -0.014929442 0.00020012571 0.0021661455 0.0005909545
000330 2d 40 02 3d f2 e5 19 be 24 dd 7b 3d 6c ff 20 bd
       0.031799484 -0.15029123 0.061490193 -0.03930609
000340 d8 09 0c ba f6 2d fe 3d bd 5c e7 bc b5 38 53 bd
       -0.0005342043 0.1241111 -0.028242463 -0.051567752
000350 d5 2b 81 3d 1a 7d e6 3b 5d d8 0c bd a7 c7 99 bd
       0.063071884 0.0070339562 -0.034386028 -0.07508784
000360 13 fe d7 bd de 1a aa 3b 57 a3 9c bd 53 81 08 b9
       -0.10546508 0.005191191 -0.07648342 -0.00013018148
000370 0f ca 17 3d f9 01 0d bd 90 a2 a2 3d f1 e0 01 be
       0.037057932 -0.03442571 0.079411626 -0.12683465
000380 01 c5 b6 bd f3 16 05 bd 55 96 46 3d e7 b3 64 39
       -0.08924294 -0.03249259 0.04848321 0.00021810793
000390 06 46 ee bc 31 f8 0f 3d bc c7 6a bc e4 76 3e b9
       -0.029086124 0.035148803 -0.014329847 -0.00018164102
0003a0 90 73 29 bc 74 b0 83 bc a2 be 18 bd c0 6c 3c bd
       -0.010342494 -0.01607535 -0.037291177 -0.04600215
0003b0 19 16 d2 3a e2 55 13 3d 79 45 7e 3d 47 81 59 bd
       0.0016028314 0.035970576 0.062077973 -0.053101804
0003c0 04 b8 90 b8 6b f4 d3 bd 92 60 2f 3c 5f 96 0f 3c
       -6.900731e-05 -0.103493534 0.0107041765 0.008763879
0003d0 b3 03 64 bc d4 65 b5 3d 4b 9a 9a 3d 1e 58 b4 bd
       -0.013916898 0.08857313 0.0754896 -0.088058695
0003e0 7b 53 00 3d 63 8d ab 3c 51 ba 33 bd 56 e4 54 b9
       0.031329613 0.020941442 -0.043878857 -0.00020302957
0003f0 c9 03 92 3d 94 9a 14 bd 37 26 31 3c bc d7 3b 3d
       0.07129628 -0.03628023 0.010812334 0.045860037

B1 f4 [32]
000000 4a dd ec bb 45 08 be 3c b5 26 a9 bc da 59 f5 bb
       -0.007228528 0.023197303 -0.02064834 -0.007487518
000010 7a 16 3c bc 2c 70 d3 bc 3b e9 75 39 42 87 0f 3d
       -0.011479968 -0.025810324 0.00023451906 0.0350411
000020 60 e5 4e 3b 90 2e be 3b 5e 2b ad 3b df b9 c9 3b
       0.0031569824 0.0058038905 0.005284711 0.0061561908
000030 58 59 35 bc 72 3c be 3c be 6a bc 3c aa ff 47 3c
       -0.0110686645 0.023222182 0.023000117 0.012206951
000040 66 05 e2 3a e7 2a d7 3a 5c 66 a6 3c be be 84 bc
       0.001724404 0.0016415984 0.02031248 -0.016204234
000050 cd fe 99 ba a6 20 13 3c 98 47 20 bb 41 90 c5 3b
       -0.001174891 0.008979952 -0.0024456736 0.0060291593
000060 d5 b9 0b 3c ed 52 e0 ba d3 dc e4 3c ed 49 ce bb
       0.0085281925 -0.0017114558 0.027937328 -0.0062954337
000070 35 ac 64 3c 2f 90 bb 38 84 1f 5d 3c 5b d2 43 bc
       0.013957073 8.943711e-05 0.013496283 -0.011952008

scale1 f4 [32]
000000 7f d4 ce 3f 1c 6f 39 40 7c 7d 11 40 d8 e8 59 40
       1.6158599 2.8974066 2.273284 3.4048367
000010 af 7b 1e 40 6f 79 65 40 dd 44 75 40 54 19 32 40
       2.476299 3.5855367 3.832328 2.782796
000020 0c d2 23 40 48 2e 77 40 52 c4 25 40 c1 7f 30 40
       2.5596952 3.8621998 2.5901074 2.7577975
000030 29 c7 79 40 ff f0 49 40 dc bf 09 40 a9 13 26 40
       3.9027808 3.1553342 2.1523352 2.59495
000040 5f b6 3e 40 64 ba 81 40 aa 14 0b 40 36 49 49 40
       2.979881 4.054003 2.1731362 3.1450934
000050 49 e2 4f 40 c5 8d d1 3f d8 d2 af 3f ae 9b ff 3f
       3.2481863 1.637139 1.373622 1.9969385
000060 76 40 25 40 62 5d 56 40 e5 a8 ed 3f 2a d9 3b 40
       2.5820594 3.3494496 1.8567168 2.9351296
000070 05 7b 10 40 f0 64 62 40 85 82 3b 40 46 f9 28 40
       2.2575085 3.5374107 2.9298413 2.6402144

bias1 f4 [32]
000000 10 8c 85 3f cb b7 d8 3e 33 52 21 3f 93 49 e0 be
       1.0433369 0.42327723 0.6301605 -0.43806133
000010 da 5f a2 be aa b9 bf bf 30 ea 5d 3d 81 78 a1 be
       -0.31713754 -1.4978535 0.054178417 -0.3153725
000020 72 30 9c 3d d9 b7 76 3e c2 df 03 bd dc 0e 7c be
       0.07626428 0.2409357 -0.032195814 -0.24615043
000030 da 51 5a 3e 8c a1 1b bf ff 78 d5 bd 88 82 b0 be
       0.21320286 -0.60793376 -0.10423469 -0.34474587
000040 29 8e 44 bf bc 74 c7 3f 1d b8 ca be 5a 51 16 3f
       -0.7677942 1.55825 -0.39593592 0.5871788
000050 39 47 03 3e 8a 2c d7 3d 1d a3 b5 3e 43 2d 35 bf
       0.12820138 0.10506542 0.35476008 -0.7077219
000060 74 32 97 3e f5 5b 3d 3e bc e3 0d 3e 93 25 c2 3e
       0.2953068 0.1849211 0.13856405 0.37919292
000070 60 33 40 bf 5d a0 ab 3f 6d 94 1d 3f 1c 5e 64 3f
       -0.7507839 1.3408314 0.61554605 0.892061

mean1 f4 [32]
000000 00 00 00 80 00 00 00 80 00 00 00 80 00 00 00 00
       -0.0 -0.0 -0.0 0.0
000010 00 00 00 00 00 00 00 00 00 00 00 80 00 00 00 00
       0.0 0.0 -0.0 0.0
000020 00 00 00 80 00 00 00 80 00 00 00 00 00 00 00 00
       -0.0 -0.0 0.0 0.0
000030 00 00 00 80 00 00 00 00 00 00 00 00 00 00 00 00
       -0.0 0.0 0.0 0.0
000040 00 00 00 00 00 00 00 80 00 00 00 00 00 00 00 80
       0.0 -0.0 0.0 -0.0
000050 00 00 00 80 00 00 00 80 00 00 00 80 00 00 00 00
       -0.0 -0.0 -0.0 0.0
000060 00 00 00 80 00 00 00 80 00 00 00 80 00 00 00 80
       -0.0 -0.0 -0.0 -0.0
000070 00 00 00 00 00 00 00 80 00 00 00 80 00 00 00 80
       0.0 -0.0 -0.0 -0.0

var1 f4 [32]
000000 00 00 80 3f 00 00 80 3f 00 00 80 3f 00 00 80 3f
       1.0 1.0 1.0 1.0
000010 00 00 80 3f 00 00 80 3f 00 00 80 3f 00 00 80 3f
       1.0 1.0 1.0 1.0
000020 00 00 80 3f 00 00 80 3f 00 00 80 3f 00 00 80 3f
       1.0 1.0 1.0 1.0
000030 00 00 80 3f 00 00 80 3f 00 00 80 3f 00 00 80 3f
       1.0 1.0 1.0 1.0
000040 00 00 80 3f 00 00 80 3f 00 00 80 3f 00 00 80 3f
       1.0 1.0 1.0 1.0
000050 00 00 80 3f 00 00 80 3f 00 00 80 3f 00 00 80 3f
       1.0 1.0 1.0 1.0
000060 00 00 80 3f 00 00 80 3f 00 00 80 3f 00 00 80 3f
       1.0 1.0 1.0 1.0
000070 00 00 80 3f 00 00 80 3f 00 00 80 3f 00 00 80 3f
       1.0 1.0 1.0 1.0

W2 f4 [32, 32]
000000 d5 72 82 be fd f6 5d 3d 2a 66 b6 3e dd 26 20 be
       -0.25478235 0.054190625 0.3562482 -0.15639825
000010 ba ba c6 bd 93 66 8f bd b3 c5 eb 38 11 c8 87 bd
       -0.09703584 -0.07001986 0.000112424976 -0.066299565
000020 85 3f 55 be 6a d8 7f 3e f0 d1 64 bd 40 93 9b ba
       -0.20825012 0.24984899 -0.055864275 -0.0011869445
000030 80 d9 27 be 47 6b 01 3e b0 3e 4f 3c 2b fb c0 3d
       -0.16391563 0.1263858 0.012649223 0.094229065
000040 0c f2 a0 bc f2 87 80 3a 56 7f 98 3e bf 3e 9d 3d
       -0.019646667 0.000980614 0.2978465 0.076779835
000050 66 08 9f bb f6 3f 9a be 32 5a 49 3e f4 00 34 be
       -0.004853296 -0.30126923 0.19663313 -0.17578489
000060 42 d2 ab 3d a2 de a1 be 03 28 1d be 97 3f ec 3d
       0.08389713 -0.31615168 -0.15347295 0.11535566
000070 cf f9 63 3d 8f 05 81 3d f5 47 56 be aa 41 30 be
       0.055658158 0.06299888 -0.20925887 -0.17212549
000080 18 63 ff bc 8a 4c d2 3d cf 6a f4 3b 13 19 12 be
       -0.031175181 0.10268505 0.0074590216 -0.14267378
000090 32 b8 4b be 40 bb 01 3e aa 8d 1c bc b3 a3 54 bd
       -0.19894484 0.12669086 -0.00955526 -0.05191393
0000a0 c0 36 07 3e 1d d0 4c 39 01 62 cb 3a 1d ee cd bd
       0.13204479 0.00019532484 0.0015516878 -0.10055182
0000b0 68 70 01 be 9e 23 bb 3d 20 97 22 3c f5 c8 3e 3e
       -0.12640536 0.09137653 0.009923726 0.18631347
0000c0 34 65 42 3e f9 55 5c 3e a8 e5 86 3d 6f 97 d8 bd
       0.18983918 0.21517171 0.06586772 -0.10575759
0000d0 1f b4 61 be b7 83 c2 3c 94 15 ee bb f7 a6 4a 3c
       -0.22041367 0.023744447 -0.007265756 0.012368909
0000e0 6c e6 66 bd 2e a0 6d bc 5f 81 ad 3d 88 3a a3 3d
       -0.05637209 -0.014503522 0.08471941 0.07970148
0000f0 58 c8 2e bc 2d de 89 3e cf 04 38 3e e7 91 55 ba
       -0.010667883 0.2692732 0.17970584 -0.00081470463
000100 6f e9 67 bd c7 80 bd bd e7 23 22 3d 41 e6 35 bc
       -0.056619104 -0.09253078 0.03958502 -0.01110226
000110 94 15 58 ba 1e c3 49 be 0d 3a 5f ba fe 95 09 3d
       -0.00082429615 -0.19703338 -0.0008515425 0.03359031
000120 61 67 30 3e 62 27 53 3e 28 68 c0 3d 03 9b 33 3d
       0.17226936 0.20620492 0.09394866 0.043849003
000130 30 97 3f be f6 55 0c ba 6e ff 89 3c 05 77 09 b9
       -0.18710017 -0.00053533853 0.016845431 -0.00013109676
000140 7d de 42 3e 46 2f df bd 1c 26 44 3d 36 39 c5 3d
       0.19030185 -0.108976886 0.047887906 0.09630053
000150 8b 5e 66 3e c4 dd a9 39 f5 e9 55 be cf 5f 05 be
       0.22497003 0.0003239942 -0.20890029 -0.1302483
000160 6b 5e 11 be bd 59 1e bd e3 a7 15 bd fd 83 2e 3a
       -0.14196174 -0.0386598 -0.036537062 0.0006657241
000170 e9 32 41 bd 11 e1 0b 3e 3e e6 66 be a1 aa 34 3c
       -0.047167692 0.13660075 -0.22548768 0.011027009
000180 2e 9c df 3d fd fa a2 b9 c3 c8 b7 bd 5d 87 e8 39
       0.10918461 -0.0003108605 -0.08973839 0.00044351342
000190 48 a4 43 be 76 b7 8d 3d ab 02 3c 3d d8 87 0b be
       -0.19105637 0.06919758 0.045900982 -0.13626039
0001a0 a6 61 4c be a1 3a 19 3e ab 95 0a 3e c0 eb 5e 3a
       -0.19959125 0.14963771 0.13533656 0.00085037574
0001b0 c9 b2 8f 39 77 5f 63 3c 0f 39 6a 3d d4 45 10 3e
       0.0002740829 0.013877741 0.05718332 0.14089137
0001c0 9e 6d fc bc 6f 3d 9d 3d 27 c6 8d 3b db c1 b8 3a
       -0.030813988 0.07677733 0.0043266 0.0014095859
0001d0 2b ae 46 bd 4f 91 d8 bc 14 3b e6 3c eb e0 9e 3d
       -0.048505943 -0.026436476 0.028104343 0.077577434
0001e0 94 c1 13 be f4 d4 46 38 1d 62 d2 3d 1e f7 36 ba
       -0.14429313 4.7405207e-05 0.1027262 -0.00069795724
0001f0 3e d1 64 3d 02 98 ca bc 0e 93 bb 3d ad f7 96 bd
       0.05586361 -0.024730686 0.09158908 -0.07371459
000200 5c 7e 4e be ad 8c c2 bd 56 a1 b4 3c cd f1 cc 3d
       -0.2016539 -0.09499488 0.022049587 0.10007057
000210 86 23 4f be 79 b7 9d bb fa 18 88 bd 04 45 f0 bd
       -0.20228395 -0.0048131314 -0.06645389 -0.11731914
000220 de 2a bb bd 6d 7f 41 be 8d e3 ab 3c 4a b7 31 3e
       -0.09139036 -0.18896265 0.020982528 0.17355075
000230 ae 67 49 bd 0c 41 38 38 8f 90 1a 3e f2 6c f8 3d
       -0.049171142 4.3929598e-05 0.15094207 0.12130155
000240 20 d8 93 bc 76 b7 00 bd cd c1 0a 3b 98 2e 47 3e
       -0.018047392 -0.031424962 0.0021172643 0.19451368
000250 b2 ae 80 bd 75 52 30 be 8f 0d e7 3d ed 42 dc 3d
       -0.062833205 -0.17218955 0.11281883 0.107549526
000260 34 bc f0 bd 5e 4c 57 be 32 1e da bc 3a 33 d0 bc
       -0.11754647 -0.21025226 -0.026625726 -0.025415052
000270 a8 83 b3 3a 0c 94 28 3e d4 3e b4 ba c6 bd 31 3d
       0.0013695853 0.16462725 -0.0013751634 0.043393873
000280 53 63 76 3d c9 f9 94 bd 7a 92 4a 3c a7 88 57 be
       0.060153317 -0.07274205 0.012364024 -0.21048222
000290 c1 b7 2f 3e 0d 8d 12 bd 02 3d 74 b9 68 7c a3 bd
       0.1715994 -0.035779048 -0.0002329238 -0.07982713
0002a0 17 28 55 bb 6d f2 e5 39 24 cd 88 bd b4 8d 39 b8
       -0.0032525116 0.00043858905 -0.066797525 -4.423941e-05
0002b0 ac 7a 9b ba a2 d6 22 3e ba db 49 bd eb 0c 8f bd
       -0.0011862121 0.15902188 -0.049281813 -0.06984886
0002c0 ba 8f 7c 3d b1 5f f2 bc 4b be 54 3d 24 f3 2a 3d
       0.061660506 -0.029586645 0.05193929 0.041735783
0002d0 cb 6c 05 3e 60 12 75 be fb 1d f2 bd 85 a7 cc 3b
       0.13029782 -0.23932791 -0.118221246 0.006245556
0002e0 2e d5 19 3e 6a 1d 30 bb fc 12 ad b8 20 c6 14 3d
       0.15022728 -0.0026873 -8.252819e-05 0.03632176
0002f0 3e bf 10 be c6 16 b7 bd 30 73 2f bd 80 75 84 3d
       -0.14135453 -0.089398906 -0.04283446 0.06467724
000300 88 e0 53 3d 3f 77 e5 bc 44 50 72 bb 0b d7 ed 3c
       0.0517278 -0.028010963 -0.0036974112 0.029033205
000310 58 b1 d6 bc 2c ff 27 3c f1 1a 81 bd d5 1c 7a be
       -0.026207611 0.010253709 -0.06303967 -0.24425061
000320 60 03 b9 3c b5 53 6c 3b f5 89 2a 3e 7a 5c 97 3d
       0.022584617 0.0036060635 0.16654189 0.073906854
000330 5f e3 f4 b9 a9 48 a6 3a 7c 5f 91 3b 14 3d df 3d
       -0.0004670871 0.0012686449 0.0044364315 0.109003216
000340 f5 77 80 3a 7b 06 65 3d 0c c6 1e 3e 95 c0 75 3c
       0.0009801375 0.055914383 0.15505236 0.014999528
000350 0f c3 51 3b c9 d1 00 bd f6 2d 99 be 3b ec 27 3e
       0.0032007133 -0.031450067 -0.29917878 0.16398709
000360 b9 36 b0 ba 35 22 fc bc 07 51 d8 bd bf 9f 53 3a
       -0.0013444043 -0.03077803 -0.1056233 0.0008072815
000370 bf f5 d9 3d 50 d0 74 bd 44 02 45 be 43 ac 5c be
       0.106425755 -0.059768975 -0.19239146 -0.21550088
000380 5e c1 ae 3c 8c ff 88 bd 9e a6 af bd 9b ad a7 bd
       0.021332439 -0.06689367 -0.085767016 -0.081874095
000390 c1 5c 10 bb da 8f 56 be 9c f3 73 3d cd ac 2c 3b
       -0.0022027942 -0.20953313 0.059558496 0.0026348114
0003a0 77 5f 37 3e c4 a9 90 39 07 3c 3f be d7 dd fd bc
       0.1790751 0.00027592306 -0.18675242 -0.03098957
0003b0 2a 18 81 bd b6 1e fa bc fe 4a 73 bd 77 9a 57 bd
       -0.06303437 -0.030532222 -0.05939769 -0.052637544
0003c0 f4 e6 7b bc 8d 17 0f bc b8 52 92 bd fc 2e 4e 3e
       -0.015374888 -0.008733642 -0.071446836 0.2013511
0003d0 6d 78 ef 3d f2 23 38 3e f5 42 82 bb 82 ee 40 bc
       0.11692891 0.17982462 -0.003975267 -0.011775615
0003e0 b5 20 78 be 96 e2 45 3d 0e 35 40 3e 5e 44 87 3a
       -0.24231227 0.048311792 0.18770239 0.0010320058
0003f0 57 b2 61 3d 55 fe f3 3d dd 2d db 3c 08 9c 3a 3d
       0.05510172 0.11913744 0.026755268 0.04555896

B2 f4 [32]
000000 58 50 33 3b 2d 82 5d bc 1b 25 14 bc c5 90 c5 bb
       0.002736112 -0.013519806 -0.00904205 -0.0060292208
000010 68 86 40 bb 4b 2c 22 bd 3b 1d fe 3b 85 ec 8c 3b
       -0.0029376987 -0.039593022 0.0077549494 0.0043006563
000020 08 af 13 bc 61 2b 8b 3b 52 10 ec 3b a3 f9 89 3c
       -0.009013899 0.0042471145 0.007204094 0.016842669
000030 6c ca 6f 3c dd 1b d0 3c c7 56 2b 3c d1 ba 21 bc
       0.0146356635 0.025403911 0.010457701 -0.009871201
000040 45 f8 29 3b 65 8d 09 bc 11 1e 23 3b 12 d5 09 bc
       0.0025935334 -0.0083955275 0.0024889747 -0.008412616
000050 69 05 14 ba 60 18 95 3a 27 a1 24 3b 78 8e e0 3b
       -0.0005646558 0.0011375062 0.0025120468 0.006852921
000060 63 0f a8 3a a0 aa 98 3b e0 bc 00 3c 63 a7 c2 3b
       0.0012821968 0.004659012 0.007857531 0.005940364
000070 ca 34 87 bc 2f 32 44 3c e4 2b 9b 3b f1 07 9f bb
       -0.016504664 0.011974855 0.004735457 -0.0048532416

scale2 f4 [32]
000000 01 c7 1f 40 1c e0 38 40 a9 ee 31 40 63 f3 4e 40
       2.4965212 2.8886786 2.7801917 3.2336051
000010 c7 ab 0e 40 02 85 33 40 1d 9d c1 40 f7 db 26 40
       2.2292345 2.8049932 6.050429 2.6071756
000020 bf 83 7f 40 5f 41 e8 3f e8 cf 11 40 79 00 c7 3f
       3.9924161 1.814495 2.2783146 1.5547019
000030 83 ce fa 3f c8 62 b8 3f e6 36 72 40 ee 18 0e 40
       1.9594272 1.4405146 3.7846007 2.2202716
000040 0a d4 81 40 18 15 5a 40 79 44 48 40 b6 01 56 40
       4.0571337 3.4075375 3.1291792 3.3438544
000050 cd 48 89 40 6b 00 6f 40 3e a3 20 40 eb 8e fa 3f
       4.290137 3.7344005 2.5099635 1.9574865
000060 cd eb 09 40 ec cb 3d 40 59 c7 f0 3f 0c c1 86 40
       2.1550171 2.9655714 1.8810836 4.2110653
000070 32 58 80 40 a2 a3 1a 40 d9 62 52 40 52 4a db 3f
       4.010766 2.4162374 3.2872832 1.7132056

bias2 f4 [32]
000000 ce a2 89 be 33 8c 19 3f 73 de db be 9c 1e 95 3f
       -0.26882023 0.5997955 -0.42943153 1.1649966
000010 70 c3 28 bf cd 11 3e 3f fb b6 e6 3f f8 e0 a5 3f
       -0.65923214 0.7424591 1.8024591 1.295928
000020 7a e5 5b 3f 0c 7f fa 3e 20 30 0d 3e 24 e3 51 3f
       0.8589703 0.48925054 0.1378789 0.81987214
000030 d8 62 26 3f e2 fc b9 3e 8b 20 79 3f aa f5 36 bf
       0.64994574 0.36325747 0.9731528 -0.71468604
000040 62 7a cf bf e1 00 5c bf ee d3 04 bf be 8d fc bf
       -1.6209223 -0.8593884 -0.5188588 -1.9730756
000050 ed 60 26 bf da 56 09 40 7d 6d ae bd ea f7 91 bd
       -0.64991647 2.145926 -0.08516977 -0.07127364
000060 50 dc bf bc 56 4f 17 40 b5 b7 a8 3e b4 30 35 bf
       -0.023420483 2.3642173 0.32952657 -0.7077744
000070 e9 64 ab bf fe cb 18 3e 8e b8 f7 be e6 bd d1 3e
       -1.339017 0.14921567 -0.48382992 0.40965194

mean2 f4 [32]
000000 00 00 00 00 00 00 00 80 00 00 00 00 00 00 00 80
       0.0 -0.0 0.0 -0.0
000010 00 00 00 00 00 00 00 80 00 00 00 80 00 00 00 80
       0.0 -0.0 -0.0 -0.0
000020 00 00 00 80 00 00 00 80 00 00 00 80 00 00 00 80
       -0.0 -0.0 -0.0 -0.0
000030 00 00 00 80 00 00 00 80 00 00 00 80 00 00 00 00
       -0.0 -0.0 -0.0 0.0
000040 00 00 00 00 00 00 00 00 00 00 00 00 00 00 00 00
       0.0 0.0 0.0 0.0
000050 00 00 00 00 00 00 00 80 00 00 00 00 00 00 00 00
       0.0 -0.0 0.0 0.0
000060 00 00 00 80 00 00 00 80 00 00 00 80 00 00 00 00
       -0.0 -0.0 -0.0 0.0
000070 00 00 00 00 00 00 00 80 00 00 00 00 00 00 00 80
       0.0 -0.0 0.0 -0.0

var2 f4 [32]
000000 00 00 80 3f 00 00 80 3f 00 00 80 3f 00 00 80 3f
       1.0 1.0 1.0 1.0
000010 00 00 80 3f 00 00 80 3f 00 00 80 3f 00 00 80 3f
       1.0 1.0 1.0 1.0
000020 00 00 80 3f 00 00 80 3f 00 00 80 3f 00 00 80 3f
       1.0 1.0 1.0 1.0
000030 00 00 80 3f 00 00 80 3f 00 00 80 3f 00 00 80 3f
       1.0 1.0 1.0 1.0
000040 00 00 80 3f 00 00 80 3f 00 00 80 3f 00 00 80 3f
       1.0 1.0 1.0 1.0
000050 00 00 80 3f 00 00 80 3f 00 00 80 3f 00 00 80 3f
       1.0 1.0 1.0 1.0
000060 00 00 80 3f 00 00 80 3f 00 00 80 3f 00 00 80 3f
       1.0 1.0 1.0 1.0
000070 00 00 80 3f 00 00 80 3f 00 00 80 3f 00 00 80 3f
       1.0 1.0 1.0 1.0

W3 f4 [32, 5]
000000 7d 08 ac 3d 14 25 81 3e b4 5e 3c 3d d0 30 42 be
       0.084000565 0.252236 0.045988753 -0.18963933
000010 50 e3 a8 3d ea 78 cd bd 27 ad 8c bb a5 4c 2a bd
       0.082464814 -0.10032828 -0.0042931023 -0.041577
000020 2a 12 8b be ad 9a a9 bc 1b 97 79 bd e5 3c 2d be
       -0.27162296 -0.020703638 -0.06093512 -0.1691776
000030 c8 1a 8f 3e 91 7d 3b 3e 0c 48 f5 3d 42 a4 9e 3d
       0.2795012 0.18309619 0.119766325 0.077461734
000040 ba 7a e6 3c 83 3e 14 bd ff c1 02 bd ea 82 18 be
       0.028134692 -0.03619243 -0.03192329 -0.1489369
000050 5d 55 80 3e 6e 24 b7 bc 31 ef d9 bc 3d 6e 6f bd
       0.25065127 -0.022356238 -0.026603313 -0.05845474
000060 14 dc 75 3e 9e 35 2d 3d a2 61 f5 3d ce dd 9a be
       0.24009734 0.04228746 0.119815126 -0.3024735
000070 05 12 51 3e d9 46 47 be cc cc fd bc 77 a5 d9 bc
       0.2041703 -0.1946062 -0.030981444 -0.026568158
000080 eb 44 ef 3d 06 4e c4 3d 43 8a aa bb a6 bb 24 be
       0.11683067 0.09585194 -0.0052044704 -0.16087207
000090 03 c9 71 3d c5 07 33 3d ea 95 05 3e 2a 09 31 3e
       0.05902959 0.04370858 0.13045469 0.17288652
0000a0 23 0d 0a 3e 7a f7 7b b9 b7 1d f7 bd 96 75 0c be
       0.13481574 -0.00024029418 -0.120662145 -0.1371673
0000b0 39 08 87 bd 13 30 a7 be 9e 43 e6 bd 32 e7 1e 3e
       -0.06593365 -0.32653865 -0.11243366 0.15517882
0000c0 3b 85 88 3e 93 05 4a be 7a 05 3c bd cc 26 90 bd
       0.26664147 -0.19728689 -0.04590366 -0.0703865
0000d0 25 29 46 3e 87 10 a6 bd 65 c3 10 3e 83 0d b4 3d
       0.19351633 -0.08108621 0.14137037 0.0879164
0000e0 5f 09 6c 3d b5 8d 33 3e d4 3d 26 be fe 71 5d 3d
       0.057626124 0.17534526 -0.16234523 0.05406379
0000f0 30 cf 86 3d 32 b3 95 bd 84 53 84 be b0 00 e3 3b
       0.06582487 -0.073095694 -0.25844967 0.006927572
000100 0c 69 0e 3e d9 ca 2b bc 3a f0 d9 38 d5 ca 26 3e
       0.1390726 -0.010485374 0.00010392112 0.16288312
000110 55 81 3d be 77 e6 3f 3c df be 38 bc 9e 19 ab bd
       -0.18506368 0.011712662 -0.011275976 -0.083544955
000120 22 4e 14 be 4f 99 60 3c 92 f7 2a be cc 2c c8 bd
       -0.1448293 0.013708427 -0.16696003 -0.09774169
000130 76 4c 3a 3e c7 19 3c bd 3e 8e 02 3e 2f cf c2 3d
       0.1819323 -0.04592302 0.12749574 0.095121734
000140 06 9f fa 3b b3 ad f2 bd ce f5 bb bb 79 c8 de bc
       0.0076483516 -0.11849537 -0.0057360893 -0.027195202
000150 b0 17 3f be 9b fe 2e 3e 5f 0b 79 bd 78 f5 95 3d
       -0.1866138 0.17089312 -0.06080186 0.0732221
000160 49 ae 18 3d ac b7 ba ba 47 72 a9 3e 44 72 c2 bd
       0.037275586 -0.0014245412 0.33095 -0.09494451
000170 75 7d 3d be 67 fa 09 be 50 25 0a 3e d7 82 31 3d
       -0.1850489 -0.13474427 0.13490796 0.04333767
000180 d7 12 4c 3e 33 78 2d 3e f1 91 ae 3d 1f dc 15 be
       0.19929062 0.16940384 0.0852393 -0.14634751
000190 92 a2 5b 3d aa 25 db bd 38 08 ae bb b7 eb 6b 3c
       0.053621836 -0.10700543 -0.0053110383 0.0143994605
0001a0 62 2e c2 bd f3 1f 03 3e 7b f6 38 3e 87 1c 47 3d
       -0.09481503 0.12805156 0.18062775 0.04861119
0001b0 00 2f a1 bc 1d cb aa bd 48 7c c4 3d f9 0d 03 bd
       -0.019675732 -0.08339522 0.09594017 -0.031995747
0001c0 83 61 11 3e 0f f5 1b 3c 48 bd aa bd 7f e7 e1 3d
       0.14197354 0.009518876 -0.08336884 0.110304825
0001d0 87 35 5e 3e 40 38 2d be bc a4 22 3c 8e 3d 1a bd
       0.21700107 -0.16915989 0.009926971 -0.03765636
0001e0 e2 92 50 bd 78 94 f3 3d 37 40 90 be 94 e0 96 3e
       -0.05092133 0.118935525 -0.28173992 0.29468215
0001f0 25 d2 00 be 7a 7c f4 bd 41 52 2a be be d1 be 3a
       -0.12580164 -0.119378045 -0.1663294 0.0014558358
000200 9d 69 53 bc 43 9a 4f 3e 6d a8 ae bb 8f 05 75 3d
       -0.012903598 0.2027369 -0.0053301365 0.059819754
000210 f4 75 9d be c0 88 85 3d b6 f7 01 be b2 a7 cf bd
       -0.30754054 0.065202236 -0.1269215 -0.10139407
000220 59 61 25 3e 00 25 db 3d 8c e9 f3 3d ec 3c 02 be
       0.16150416 0.107004166 0.1190978 -0.12718552
000230 fe 87 5c be 15 1e 03 be fd cb 14 bd 6b f4 38 be
       -0.21536252 -0.12804444 -0.03632735 -0.18061988
000240 77 f4 48 3d 52 fe 29 be 2f 8c 43 3e e6 70 97 3d
       0.049061265 -0.16600922 0.19096445 0.073945805
000250 42 4f f0 3c 72 da d9 bd 55 f9 04 3b 1b b3 00 3e
       0.029334668 -0.10637368 0.0020290215 0.12568323
000260 b4 9d 22 3e ef 40 77 bd 60 46 da 3c b7 ac 0f be
       0.15880471 -0.06036466 0.026644886 -0.14030729
000270 44 4c 12 be 87 8b 54 be 58 09 0d be 0c da 68 3e
       -0.14286906 -0.2075635 -0.13773096 0.22739428

B3 f4 [5]
000000 f3 00 b3 bc 8d f1 da bc aa 71 cf bc 11 31 9b 3c
       -0.021851039 -0.026726509 -0.025322754 0.018944295
000010 9a 44 de 3b
       0.0067830803

scale3 f4 [5]
000000 98 77 8f 40 a2 2d 63 40 83 99 d0 40 d1 7b ae 40
       4.483349 3.5496602 6.518739 5.4526143
000010 59 4a a0 40
       5.0090756

bias3 f4 [5]
000000 e1 15 c7 bd 5a f3 00 bf d8 88 fa bc ff b1 de be
       -0.0972097 -0.50371325 -0.03058283 -0.43495175
000010 06 29 fa 3e
       0.48859423

mean3 f4 [5]
000000 00 00 00 80 00 00 00 00 00 00 00 80 00 00 00 00
       -0.0 0.0 -0.0 0.0
000010 00 00 00 80
       -0.0

var3 f4 [5]
000000 00 00 80 3f 00 00 80 3f 00 00 80 3f 00 00 80 3f
       1.0 1.0 1.0 1.0
000010 00 00 80 3f
       1.0
