onnx-to-hls/example-onnx-model-files/three_layer_keras.onnx (onnx, 18824 bytes, 8 tensors)

W f4 [16, 64]
000000 51 d8 8b 3e aa 14 f8 bd c5 8c fd 3e 30 53 19 3d
       0.27313474 -0.12113316 0.4952146 0.03743285
000010 27 9e 6a be 51 89 b8 3e e4 f7 8f 3d e3 f5 06 3e
       -0.22911893 0.36042264 0.07029703 0.13179736
000020 ae a2 a8 3e c9 33 b8 bd c8 7c 4e be 58 62 d9 be
       0.32936615 -0.08994252 -0.20164788 -0.42457843
000030 d0 af a2 bc 38 41 40 3d f0 1b 22 bd 1f 03 9f 3e
       -0.019859225 0.046937197 -0.039577425 0.3105707
000040 21 ab 7c be 8f 88 6b be 1f 3e 25 3e cf 49 51 3d
       -0.24674655 -0.23001312 0.16136979 0.05109578
000050 14 de 81 3e 2e 50 2d 3e 34 bd 8b be a5 a4 43 3e
       0.25364745 0.16925117 -0.27292788 0.19105776
000060 b6 cd 60 3e ec a9 b1 3d 88 6c 87 3e 2d 89 16 be
       0.21953472 0.08674988 0.2644999 -0.14700766
000070 62 d4 59 3e ce 72 49 3e 2e 4c ff 3e ec 8c 57 be
       0.21272424 0.19672701 0.49862808 -0.21049851
000080 99 46 b6 3e 47 ee 0a 3f b4 63 92 be b0 d3 82 be
       0.35600737 0.5426983 -0.28591692 -0.2555213
000090 a4 c1 b1 3d 16 52 70 3e f0 cc cf bc 52 d1 7e 3e
       0.08679512 0.23468813 -0.025366277 0.24884537
0000a0 92 2e 41 3e 2e 22 34 3e 9d 67 89 3e 37 f5 67 3c
       0.18865421 0.17591164 0.26836863 0.014157585
0000b0 d4 95 b1 3e 68 5d 8c 3e 12 91 bb 3e e1 f2 63 be
       0.34684622 0.27415013 0.36634117 -0.2226062
0000c0 85 fa 52 3e 2d 69 ac be 06 00 3b be e1 fa 32 bd
       0.20603378 -0.33673993 -0.18261728 -0.043696288
0000d0 8a e1 44 3b 34 58 d2 3d 67 7d 48 3e f0 0d 70 bb
       0.0030041658 0.1027073 0.19579087 -0.00366294
0000e0 ba 80 e4 be 40 02 6c 3c 7f cd da 3e c4 23 94 be
       -0.4462946 0.014404833 0.42734906 -0.28933537
0000f0 8a 6d 92 be fe 18 c4 be c1 e4 b0 be 4e 0c 09 3e
       -0.28599197 -0.38300318 -0.34549525 0.133836
000100 9f c3 9d be 1c 74 42 be 7b e2 5e 3e b4 2a b6 bd
       -0.3081331 -0.18989605 0.21766083 -0.08894864
000110 ef 0a 21 be b9 ab b2 3e 16 71 ae be ae e9 3e bd
       -0.15726827 0.3489664 -0.34070653 -0.046609573
000120 d9 70 09 3e 89 82 49 3e 77 f7 23 bd 55 a5 a6 be
       0.13421954 0.19678701 -0.040030923 -0.32548013
000130 9f f2 d4 3e 28 89 33 bf f7 49 9e 3e ec 58 84 3d
       0.41591355 -0.7013116 0.30915806 0.06462273
000140 61 ae c2 3e 00 f0 68 3a 07 3c 17 3e ec a7 74 bc
       0.38023666 0.00088858604 0.14768992 -0.014932614
000150 71 9c 62 ba f0 a5 87 3d fa 13 cd 3e cd b9 41 bd
       -0.00086445274 0.06623447 0.40054303 -0.047296334
000160 8e 58 b3 be b9 39 84 3d 43 03 30 bd 57 5f 58 3e
       -0.350285 0.06456322 -0.04297186 0.2113012
000170 4c ab b8 bd 75 2d a1 3e d4 5f bb 3e 28 96 25 bf
       -0.09017047 0.31479993 0.3659655 -0.64682245
000180 a3 20 4a be 6c 8a ac be c9 6f be 3e 4d e8 a7 be
       -0.19739012 -0.33699358 0.3719466 -0.3279442
000190 fc 04 58 be 27 12 d3 3e 3e 6f 2f 3e 4b c0 93 3e
       -0.21095651 0.41224787 0.1713228 0.28857645
0001a0 e6 86 66 3e 41 83 b0 3e 4b d8 d9 3c 6d 20 0c be
       0.22512397 0.3447514 0.026592394 -0.13684244
0001b0 9a 5c f4 bd dc 08 11 3e e4 95 0d 3f ed dd c0 3e
       -0.11931725 0.14163536 0.5530684 0.37669316
0001c0 68 56 ea bb 5c b6 91 3d 79 20 51 bf 66 1b 29 be
       -0.0071514137 0.071148604 -0.81690174 -0.16514358
0001d0 30 29 f1 be c9 5b d7 be dc 51 11 bd d9 1e 43 bf
       -0.47101736 -0.42062214 -0.035478458 -0.76218945
0001e0 73 e3 e3 be eb 2b d4 3e c0 28 46 bd b1 59 a1 3e
       -0.44509467 0.41439757 -0.048378706 0.31513742
0001f0 a1 8f 0e be bb 95 ce 3d 64 bb e7 3e f1 09 cf 3e
       -0.13921978 0.100871526 0.45260155 0.40437272
000200 19 7f 82 3f 6d a5 a3 bf 2b c3 bd bf fb 8f 9c 3e
       1.0195037 -1.2784859 -1.4825186 0.30578598
000210 21 77 cd bf b6 3d 95 be 9f 55 8a 3e d3 7d f0 bf
       -1.605198 -0.29148644 0.2701845 -1.8788399
000220 ca 2f ba 3f 6d 46 b5 bf f6 27 1b 3e 44 5a b7 be
       1.4545834 -1.4162117 0.15151963 -0.35811055
000230 4e 54 7a 3e 87 3c 59 bf b4 05 d1 3d 81 36 a8 be
       0.24446222 -0.8485798 0.10206166 -0.32854083
000240 a1 02 9b be 66 91 4e 3e 84 a8 12 c0 a0 cd 28 bf
       -0.30275443 0.20172653 -2.2915354 -0.6593876
000250 34 0f 3f be 00 d9 c8 3c 79 4b 8b 3f ba a3 5f bf
       -0.18658143 0.024517536 1.0882407 -0.873592
000260 bc bb f9 3d 00 26 20 c0 a0 3e 6d 3f c0 ad 0b be
       0.121940106 -2.5023193 0.92673683 -0.13640499
000270 96 13 1d be c2 81 20 3e 12 29 f2 3f 20 57 8e 3f
       -0.15339503 0.15674499 1.8918784 1.1120338
000280 44 e9 ef 3d f4 65 af 3f 8e a2 91 3d b1 b0 fe 3f
       0.11714414 1.3702989 0.07111083 1.9897672
000290 df 3e d6 3e 80 34 5f 3b 00 e8 cc 3c 16 7d bf bf
       0.41844842 0.0034058392 0.02501297 -1.4960048
0002a0 20 7d 5b bd 16 ed 35 3e f0 40 9a 3e 56 6b a4 3f
       -0.053586125 0.17766222 0.30127668 1.2845256
0002b0 b9 87 ce be a6 50 88 3f b1 bb a4 3f be 00 03 c0
       -0.40337923 1.0649612 1.2869779 -2.0469203
0002c0 a5 a9 1d 40 0e a4 82 bf d0 4c 53 bf 67 f6 d8 bf
       2.4634793 -1.0206316 -0.8253908 -1.6950196
0002d0 c4 53 c6 3f d8 d0 35 bd ff b0 8b 3f 3f 89 15 bf
       1.5494313 -0.044388622 1.091339 -0.58412546
0002e0 5e 35 35 be 53 e1 8d 3e c2 6e 48 3e 76 2e db be
       -0.17696139 0.2771097 0.19573501 -0.42808884
0002f0 5e 87 03 c0 bd 71 aa 3e 1a 72 96 3f ba 60 54 3e
       -2.0551372 0.332899 1.1753571 0.20740023
000300 33 6e 26 40 a7 1d e6 bf fa f1 41 c0 67 ba 3b be
       2.600476 -1.7977799 -3.030394 -0.18332826
000310 73 d0 42 c0 bf ee 8b 3e de 1f 76 3e a4 f4 2c c0
       -3.0439727 0.27330586 0.24035594 -2.7024317
000320 ee 69 a4 3f 3e 0a 26 c0 77 0c 1d bf 96 52 73 3e
       1.2844827 -2.5943751 -0.61347145 0.23761973
000330 60 f2 4c 3c b7 52 07 bf 68 bc c4 bd 84 33 52 be
       0.012508959 -0.5286059 -0.09606248 -0.20527464
000340 36 db a4 bf 06 17 2a be b0 07 1d c0 3f 36 ab be
       -1.2879398 -0.16610345 -2.4535942 -0.33439824
000350 ae 79 13 bd 20 4b 33 bd fb 6d d7 3e da 0e dc be
       -0.036004715 -0.043772817 0.42076096 -0.4298008
000360 59 c1 9f 3e 71 40 24 c0 13 a9 03 40 c1 39 44 3c
       0.312022 -2.5664332 2.0571945 0.01197666
000370 ff a1 a0 3e ee 05 26 be fc 19 21 40 4b 2f 26 40
       0.31373593 -0.162132 2.517211 2.5966365
000380 fe b6 76 3e be b1 33 40 54 1d 36 3e 86 db 13 40
       0.24093243 2.8077235 0.17784625 2.3102736
000390 ea 02 0e 40 34 1a 46 be 5c 28 b2 be 38 12 53 c0
       2.2189279 -0.19345933 -0.34796417 -3.297987
0003a0 4e b7 05 be a4 02 be bd e8 eb 86 3e 9c cf af 3f
       -0.13058206 -0.092778474 0.26351857 1.3735232
0003b0 1c be 5a 3d b9 20 0d 40 2e 06 d5 3f 25 b4 10 c0
       0.05340396 2.2051222 1.6642511 -2.2609951
0003c0 c0 f2 4a 40 c2 9c 2a c0 87 42 44 bf b0 76 43 c0
       3.1710663 -2.6658177 -0.7666401 -3.054119
0003d0 df a0 22 40 82 20 77 3e 6a 69 01 40 6b a1 8d bf
       2.5410688 0.24133494 2.022059 -1.1064886
0003e0 44 6f 84 3e a8 70 92 be ee 76 7d 3e ea e7 db be
       0.2586614 -0.28601575 0.247524 -0.42950374
0003f0 cf 5f 2d c0 ba e5 19 3f b1 7f fa 3f d4 8a 9b 3d
       -2.7089727 0.6011616 1.9570218 0.07594839

B f4 [64]
000000 d6 7c 26 bf 43 36 a2 be d0 ee 5a 3f 00 00 00 00
       -0.65034235 -0.31682023 0.8552065 0.0
000010 4a 77 17 3f 00 00 00 00 00 00 00 00 bf f4 9e be
       0.59166396 0.0 0.0 -0.310461
000020 61 84 2d 3f 78 e2 22 3f 5b cf 4e 3f 00 00 00 00
       0.6778012 0.63626814 0.8078515 0.0
000030 00 00 00 00 7c d1 66 bf 00 00 00 00 00 00 00 00
       0.0 -0.901634 0.0 0.0
000040 ff 5a 39 3f 00 00 00 00 41 21 b1 3e b3 fc 28 bf
       0.72404474 0.0 0.34595683 -0.6601059
000050 0e ac 43 bf 00 00 00 00 65 92 b9 3e 10 73 43 bf
       -0.7643441 0.0 0.36244503 -0.76347446
000060 00 00 00 00 ce 5d 48 be f8 d5 59 bf 59 e8 42 3f
       0.0 -0.19567034 -0.85092115 0.76135784
000070 00 00 00 00 00 00 00 00 85 87 f1 3e a8 8e 7b bf
       0.0 0.0 0.47173706 -0.9826455
000080 00 00 00 00 4a e1 68 3e 52 f9 65 3f a4 01 14 bf
       0.0 0.22742191 0.8983356 -0.57815003
000090 7e 11 50 bf 00 00 00 00 00 00 00 00 03 a8 67 3f
       -0.8127669 0.0 0.0 0.9049074
0000a0 00 00 00 00 00 00 00 00 15 35 8e 3d 62 a4 c0 3e
       0.0 0.0 0.06943718 0.37625414
0000b0 6f fb 19 bf 23 6e 1f 3f 0f 91 11 3f 6e 12 8d 3e
       -0.6014928 0.6227743 0.56861967 0.27553123
0000c0 ac e8 07 bf ba fd 23 3f 97 08 67 bf aa b7 25 3f
       -0.53089404 0.6405903 -0.9024748 0.64733374
0000d0 cd 50 74 bf 00 00 00 00 70 26 60 bf ea e3 49 bf
       -0.9543579 0.0 -0.8755865 -0.78863394
0000e0 64 a7 c3 3c 00 00 00 00 00 00 00 00 00 00 00 00
       0.023883529 0.0 0.0 0.0
0000f0 c5 f5 7b be ce e6 2b 3f e4 fa ec 3e 00 00 00 00
       -0.24605472 0.67149055 0.46285164 0.0

W1 f4 [64, 32]
000000 7d 51 dd 3c 6f 54 1a 3c 97 eb 3b be d6 60 81 3b
       0.027016396 0.009419545 -0.18351589 0.0039483113
000010 d1 e3 94 3d 69 c7 36 3e b5 c2 33 3e 21 07 1b be
       0.07270015 0.17849506 0.17554744 -0.15139438
000020 2c 8b 1e bd eb 40 0b be f9 28 58 3e 3e 4c e3 3d
       -0.038706943 -0.13598983 0.2110938 0.110985264
000030 cf 20 4c be a2 91 12 3d 35 e6 d4 bb 50 8d 10 3e
       -0.1993439 0.035783418 -0.0064971694 0.14116406
000040 4e 7a d1 3d 14 18 24 3d 2b 02 49 be d7 08 75 3d
       0.10228406 0.040062025 -0.19629733 0.059822883
000050 2b e8 89 3d 8e c2 db bc b0 05 3c bd 12 54 ed bd
       0.06733736 -0.02682617 -0.04590386 -0.11588301
000060 39 0c b6 bd a8 fb 2f be e9 b9 ae 3d f1 98 59 3e
       -0.0888905 -0.17185843 0.08531553 0.21249749
000070 48 6b fb 3d a8 ab e5 3c 89 ac 12 bd df e5 c3 3d
       0.12276322 0.028035954 -0.035809074 0.09565329
000080 8e 2b db 3d 57 72 42 be 6c 71 a1 bd 20 e2 01 be
       0.10701667 -0.1898893 -0.07882962 -0.12683916
000090 32 a0 33 be 73 18 df 3c 19 84 1e be 62 76 53 be
       -0.17541578 0.027233338 -0.15480079 -0.20650628
0000a0 81 59 0e 3c f3 71 ac bd 81 59 de bd b2 36 19 3e
       0.008688332 -0.084201716 -0.10856915 0.14962271
0000b0 00 71 bd 3d e4 3f f2 3d 11 74 86 be ed 53 7a 3d
       0.09250069 0.118285924 -0.26260427 0.061115194
0000c0 56 78 42 3c 0a 16 d5 3d 11 cb d7 bc 5d 2e f8 ba
       0.011869511 0.10404594 -0.026341947 -0.0018934716
0000d0 ea 8e 2a 3e 45 63 31 be d3 43 4d 3e ea ae 99 3d
       0.1665608 -0.17323025 0.20045404 0.07504065
0000e0 26 65 fa bd c9 19 8d bd fc 4f 98 3e 27 0e 8c 3d
       -0.12226324 -0.06889684 0.29748523 0.06838637
0000f0 9c 44 4b be 02 f3 ea 3d 08 6a 02 3e 09 11 ac bd
       -0.19850391 0.11472131 0.1273576 -0.08401687
000100 3e a8 ab 3c 13 8f aa bd 80 62 70 bd 28 48 80 be
       0.020954248 -0.083280705 -0.058687687 -0.2505505
000110 5c 8f ed 3e a2 bc c0 3e b6 a7 20 bf 38 03 ca bd
       0.46398437 0.37643915 -0.62755907 -0.09863895
000120 f4 47 c7 be 8d 1e 0d 3f 1e 52 fe 3e d2 e3 c7 be
       -0.38922083 0.5512474 0.49672025 -0.39041
000130 7b 5e c2 3e e3 ac 71 3e 2e 96 88 be ef 78 c2 be
       0.37962708 0.23601107 -0.26677078 -0.3798289
000140 03 0f c6 3e 57 68 d9 bd dc 1a 0b be ec fc bb bd
       0.38683328 -0.10615604 -0.13584465 -0.091791004
000150 17 7a 86 3e 47 48 6c 3e 6f 35 3a be a2 69 2e be
       0.26265022 0.23074447 -0.18184446 -0.17032483
000160 81 5e 0c bf 71 0e d4 bd 01 99 d5 bd 80 03 b2 be
       -0.548317 -0.10354317 -0.10429574 -0.34768295
000170 ea a2 eb be 04 7a 48 3d 11 82 b2 3e c2 1f b8 bf
       -0.4602273 0.04894449 0.34864858 -1.4384692
000180 c4 d9 8e bd cb 5d 5b 3e 75 be 47 be 5b 56 10 3e
       -0.06975129 0.21422498 -0.19506247 0.14095442
000190 2d c6 1c 3e 40 1a be bb 47 53 1f 3e 92 4e 12 be
       0.15309973 -0.005801469 0.15559112 -0.14287785
0001a0 5a d5 59 be 24 91 ad bd bb e7 4d be 26 1d b3 3d
       -0.21272793 -0.08474949 -0.2010793 0.08745794
0001b0 3a ee 90 3d be 85 86 bd 43 1d 34 be e8 51 79 bd
       0.07076688 -0.06568478 -0.17589287 -0.060869128
0001c0 c0 ae b4 3c 4c e5 ec bd d9 a4 5b 3e ca 96 a1 3d
       0.022055984 -0.115671724 0.21449603 0.07890089
0001d0 97 11 07 3e 22 44 09 be ab 8a 49 3e e0 eb 7b bd
       0.13190304 -0.13404897 0.19681804 -0.061504245
0001e0 12 ef b1 3d 36 51 90 bd 13 5a 34 3e 9b b4 14 3e
       0.08688177 -0.0704674 0.17612486 0.1452202
0001f0 d8 e4 ed bc f3 6e 4a 3e e8 96 56 bd f0 ea 92 bc
       -0.029039785 0.19768886 -0.05239001 -0.017934293
000200 52 57 4c bd 19 08 6f be 39 28 d9 3d f9 c6 78 be
       -0.049887963 -0.23342933 0.10603375 -0.24294652
000210 13 14 00 3e b0 ce 0e 3e 45 f2 78 be 2a 6b a0 bd
       0.12507658 0.13946033 -0.24311168 -0.0783294
000220 7e 90 8c 3d 15 6e 43 3d 0a 6a fe 3d 50 0b 1f 3d
       0.06863497 0.047712404 0.12422569 0.038829148
000230 5b 41 ae 3d 3a 9e 0b 3e 6f db 0f be 69 0b 0e 3e
       0.08508559 0.13634577 -0.14048551 0.1387154
000240 a9 6f d2 bd 1e 4e 1b be a1 4c 24 3d cd 80 3e 3c
       -0.10275204 -0.15166518 0.04011214 0.011627388
000250 f5 af cf bd 23 dc 84 bd a8 67 48 be 0a 6f 2d 3b
       -0.10140983 -0.064873 -0.19570792 0.002646389
000260 68 1c d0 bb c6 bf e1 bd 7c f9 1e 3c 26 df c4 bd
       -0.0063510425 -0.11022906 0.009703036 -0.09612875
000270 92 9d 1e 3e 36 fb f0 bd cc 3b dd 3d 10 25 31 be
       0.15489796 -0.11766665 0.10802421 -0.17299294
000280 e2 4f 9d bd 04 6b 15 be ec 2f 59 3d 34 30 dd bd
       -0.07681252 -0.14591604 0.053024217 -0.1080021
000290 9a 0c ba 3d 16 b8 a9 bd 25 a2 25 3e b2 c3 99 3d
       0.09084435 -0.08287065 0.16175134 0.07508029
0002a0 79 47 11 3e ce 5f 4d be 00 cc 25 be 06 3b 9c 3d
       0.14187421 -0.20056078 -0.16191101 0.07628445
0002b0 de 20 4f be f0 a6 57 bc 0d 63 47 3e 79 6d 3b be
       -0.20227382 -0.01316236 0.19471379 -0.18303479
0002c0 7b c3 f4 bd f9 a7 38 3e 52 be 94 3d 0c f8 a1 bd
       -0.119513474 0.18032826 0.07262863 -0.07908639
0002d0 70 ff 19 be 62 1b c7 3d be b2 b1 3d 4c 74 31 be
       -0.15038848 0.0972202 0.086766705 -0.1732952
0002e0 19 a1 24 3e 3d 7f 0f 3e 54 08 83 bd c1 1a 4f 3e
       0.16077079 0.14013381 -0.06398073 0.2022505
0002f0 50 b9 38 bc 78 7e 77 bd 6a ee a7 3d b6 45 15 be
       -0.011274651 -0.060423344 0.08199771 -0.14577374
000300 bc 1f 39 3d 0f 4f d3 bd 3a 66 9b 3d 19 1d 36 be
       0.04519628 -0.103178136 0.075878575 -0.17784537
000310 44 b9 a1 bd 08 0c 5f bd 30 c3 45 3c 88 f8 7d bd
       -0.07896665 -0.054454833 0.012070462 -0.062004596
000320 b6 c1 aa bd a8 4b c9 bc 73 70 54 3e a8 7f 0f bd
       -0.08337729 -0.024572209 0.20746021 -0.03503385
000330 13 1f 05 3e 2a 00 19 be fa b6 c6 3d cc 65 28 be
       0.13000135 -0.14941469 0.09702869 -0.16445082
000340 fc c9 4c 3d 53 02 09 3e 03 a4 25 be b6 9e 19 be
       0.049997315 0.13379793 -0.16175847 -0.1500195
000350 fc 8d 84 bd db 09 5a 3e 60 e1 90 bc 80 73 8b bc
       -0.06472394 0.21292822 -0.017685592 -0.017022848
000360 45 9e da bd ff f6 4b 3e b4 20 bf bd 02 5c 0b be
       -0.10674719 0.1991844 -0.093324095 -0.13609317
000370 3d 7d 12 3e 86 60 21 be d7 2c 25 3e 54 82 3e be
       0.14305587 -0.15759477 0.16130386 -0.18604404
000380 a4 f1 24 bd 85 02 06 be 9f 2a 5d 3d 77 1a 45 bd
       -0.04026951 -0.13086899 0.053995725 -0.048120942
000390 7a 36 57 be 2b 58 41 3e 79 7a 57 be 08 8f 09 bd
       -0.21016875 0.1888129 -0.21042813 -0.03358367
0003a0 52 cd 4e 3d fc b1 c6 bc 4a a5 30 be 65 3f 0f be
       0.050488777 -0.024254791 -0.17250553 -0.13989027
0003b0 8e 0d 64 3e cd d3 ec 3d 83 e9 37 3e d7 0e 02 be
       0.22270796 0.11563835 0.17960171 -0.12700973
0003c0 b8 6c a1 3d 5e e9 2b be 17 49 f6 3c 6b c4 09 3e
       0.078820646 -0.16788241 0.030064149 0.13453834
0003d0 0e 0f 1d be 89 59 8e 3d 37 cb 37 3e f1 53 86 bc
       -0.15337774 0.06950671 0.17948614 -0.016397448
0003e0 ab d5 7e 3e 48 28 c1 3d cc 65 35 3c 2d 7b 52 3e
       0.24886195 0.09431511 0.011071634 0.205548
0003f0 c9 c5 0d 3e c9 6b 00 be d1 a7 b8 bd 5c 3a 9a 3d
       0.1384498 -0.12541117 -0.090163834 0.075306624

B1 f4 [32]
000000 3a b5 52 3f 53 bb 91 bd 64 ce 10 3d 75 d4 20 bf
       0.8230778 -0.071158074 0.03535308 -0.62824184
000010 5a 0c a9 be ea ae ef be 1b d6 75 bf 00 00 00 00
       -0.33017236 -0.46813136 -0.96029824 0.0
000020 08 1f 6d bf 17 fb 3f 3f 84 30 f5 3e 92 66 70 be
       -0.92625475 0.7499251 0.47888577 -0.23476627
000030 3c 89 15 3f 04 95 17 3f 53 f5 cd 3e d7 19 4c be
       0.5841253 0.59211755 0.4022623 -0.19931732
000040 e1 3f 18 3f 00 00 00 00 3f c3 a6 3e ce be 84 be
       0.5947247 0.0 0.32570836 -0.25926822
000050 90 c0 6e 3e 06 8d dc 3e 00 00 00 00 d8 22 b7 bb
       0.23315644 0.43076342 0.0 -0.0055888705
000060 c7 0f 58 bf 1e d3 c2 3d 7d 1a 4a 3e c8 45 00 bf
       -0.84399074 0.09512924 0.19736667 -0.5010648
000070 78 64 46 bf 00 00 00 00 e7 89 14 3f 10 be 2b bf
       -0.77497053 0.0 0.5802292 -0.6708689

W2 f4 [32, 32]
000000 45 81 2d bf a7 94 7e 3e 27 19 86 3e bd 93 eb be
       -0.67775375 0.24861394 0.26191065 -0.46011153
000010 92 12 49 be 03 ac 8f be 6e 51 18 bf c8 7e 12 3e
       -0.1963599 -0.28060922 -0.5949925 0.14306176
000020 23 c6 1b bf 60 3b 9d 3e ad 46 22 bd b9 cc 42 be
       -0.6084921 0.30709362 -0.039618183 -0.19023408
000030 b8 68 87 ba 77 a7 db 3d 3f 7e 28 be e6 9d f8 3d
       -0.0010330891 0.10725301 -0.16454409 0.12139492
000040 c8 0f c9 bd 89 b2 a3 be 5b 27 78 be 63 bc d1 be
       -0.09817463 -0.3197215 -0.24233763 -0.4096404
000050 fb 85 9d 3c 80 91 06 ba 65 c9 19 3f 58 f1 f5 be
       0.019228926 -0.00051333755 0.6007293 -0.48035693
000060 2b be 39 3f b2 49 40 be 63 99 c8 be fe b5 58 bd
       0.725558 -0.18778113 -0.39179525 -0.052907936
000070 c2 43 86 3e 40 5f 9c 3d f8 a8 3f be 7c c7 89 be
       0.2622357 0.07635355 -0.187168 -0.26910007
000080 bf 91 00 bc 55 57 aa 3e e5 d4 2f bd be e8 9c be
       -0.007847249 0.33269754 -0.04292764 -0.30646318
000090 c5 d9 6b be 51 76 fd 3d 71 dd fb bd be cb 82 be
       -0.23032291 0.12376083 -0.12298096 -0.25546068
0000a0 1e 1b f3 3d be 2b 86 3e 0f 14 c1 3d 98 bb 8e be
       0.118704066 0.26205248 0.09427654 -0.27877498
0000b0 b1 7d 91 bd 5c f0 94 3e 0d 21 a3 bd 05 f9 be 3e
       -0.07104052 0.2908963 -0.07965288 0.37299362
0000c0 76 43 77 3e ef 2d eb 3d e2 8b b1 3d be 6b a0 be
       0.24146828 0.114833705 0.08669259 -0.313322
0000d0 6f dd a6 be 1f 35 57 be aa ea 03 be d5 1a 01 3d
       -0.32590815 -0.21016358 -0.12882486 0.03151973
0000e0 cc 7b 8e be fd 45 e6 3d f4 b7 dc 3d b1 7d 01 bd
       -0.27828825 0.11243818 0.10777274 -0.03161401
0000f0 ca a6 ba bd da 57 09 3e ca 2b 90 3e c0 1b 83 3d
       -0.09113844 0.13412419 0.28158408 0.06401777
000100 67 a2 73 be 6e b6 40 be 62 22 ff bd 32 35 8d 3d
       -0.2379242 -0.18819591 -0.1245773 0.06894912
000110 31 b9 e4 3b 7a 0e 16 be ad be 32 3d 60 57 f6 3d
       0.0069800843 -0.1465396 0.043638874 0.12028384
000120 80 c0 ce 3d 56 e8 5c 3e 74 41 c9 3e fc a0 eb 3d
       0.1009531 0.21573004 0.3930775 0.11505315
000130 0e b4 f9 be 87 f1 33 3d 79 7c 3d be 62 1c c9 bd
       -0.48770183 0.04393151 -0.18504514 -0.09819867
000140 f7 3e 4c 3e c3 dd 92 be 00 65 57 3d d4 79 2d be
       0.19945894 -0.28684816 0.052586555 -0.16941005
000150 a1 e8 36 3e 98 48 98 3e 94 9f 09 be 68 d3 86 be
       0.17862178 0.29742885 -0.1343978 -0.26333165
000160 64 5e dc bd 26 32 4f bd af d1 81 be 6b 7f 9a 3c
       -0.10760191 -0.050584935 -0.25355288 0.018859586
000170 57 00 e3 bd 92 6e 65 3e 1e 88 2c bd 74 f6 84 3d
       -0.11084049 0.2240546 -0.042122 0.0649232
000180 75 57 82 3e 75 1c db 3d 74 66 96 be 78 10 a0 3d
       0.2545735 0.10698787 -0.2937504 0.07815641
000190 ca cd 8e be ed 04 48 3e 46 49 33 bd 27 1a 13 be
       -0.2789138 0.19533129 -0.04377105 -0.14365445
0001a0 8d c2 8d be c8 95 83 3e 9b b9 11 3e fe b6 e7 bd
       -0.27687493 0.25700212 0.14230959 -0.113142
0001b0 4f 16 b0 bd 95 68 13 3d 1c 39 5f 3e 1d 6a 82 3e
       -0.08598005 0.03598841 0.21799129 0.25471583
0001c0 f4 a6 04 be e4 5c 6c 3e c3 9a 89 3c 60 b8 56 3e
       -0.12954313 0.2308231 0.016797429 0.20968771
0001d0 c7 db d5 bd 36 34 d3 bd 97 71 43 3d 83 77 9f 3e
       -0.1044231 -0.10312693 0.04771575 0.31145868
0001e0 66 31 8c be 8b 45 92 3d b2 2b 95 3e f4 39 d7 3d
       -0.27381438 0.071421705 0.291349 0.105091006
0001f0 82 53 90 3e 38 ca c5 3c e0 e1 f8 3d 48 f1 9a bd
       0.2818871 0.024144277 0.12152457 -0.07565552
000200 76 cc e9 bc c4 2c 9e be c7 76 21 bd 7a 2a 9d 3e
       -0.028539877 -0.30893528 -0.039419916 0.3069647
000210 b5 75 84 be 00 9f 7a bd e4 9d 55 be 2d f7 22 be
       -0.25871053 -0.06118679 -0.20861012 -0.15914603
000220 86 41 6f be af 02 9e be 05 c6 61 3d 63 22 8e 3e
       -0.23364839 -0.30861422 0.055120487 0.2776061
000230 fb 18 2d be 02 54 ef 3d 84 16 90 3e 8d 49 51 3d
       -0.1690406 0.11685945 0.28142178 0.051095534
000240 a8 40 03 3e 6f 60 b7 bd 8a 57 7d bd 5a 9b 71 3e
       0.12817633 -0.0895394 -0.061851062 0.23594418
000250 cd bd ed bd 07 a5 69 bd e8 10 4e 3e 22 7f 96 3e
       -0.11608467 -0.057042148 0.20123637 0.2939387
000260 ef 5d f5 bd d9 94 20 be 96 26 5b bd aa 0d e7 bc
       -0.11980807 -0.15681781 -0.053503595 -0.028204758
000270 1c c6 54 bd d5 5c 4f 3e eb 39 0c 3e dc c6 b8 3d
       -0.051946744 0.20250256 0.13693969 0.090223044
000280 49 af 88 3e 43 bb 9a be 14 71 0a be 09 73 40 be
       0.26696232 -0.30220994 -0.13519698 -0.18793882
000290 3f 25 7f 3e 3b 0d 93 3d c3 69 d5 bb ff 4f 52 be
       0.24916552 0.07180258 -0.006512852 -0.20538329
0002a0 77 57 17 3e a3 be b6 ba ec d1 e6 bd 3c 45 96 3d
       0.14779459 -0.0013942312 -0.11270508 0.07337424
0002b0 05 f2 c4 3d e3 e8 8f 3e d6 6e d8 3c af 8c 2f be
       0.09616474 0.28107366 0.026420038 -0.1714351
0002c0 b5 84 33 3e 5a 83 15 3e 7c eb 88 3d 1a aa 61 3b
       0.17531092 0.14600888 0.0668554 0.0034433664
0002d0 a1 13 8c 3e fe 90 47 bd 46 f8 c5 bd f6 31 6f 3d
       0.27358726 -0.04872226 -0.09666495 0.058397256
0002e0 26 96 8d 3e 59 bc 0d be b0 26 c6 3c 82 cd f5 3d
       0.27653617 -0.1384138 0.02418837 0.12002088
0002f0 02 fb 60 be 86 d4 ca 3c 65 37 11 3d 08 5b 17 3d
       -0.21970752 0.024759542 0.03545322 0.03695205
000300 d3 10 03 3f 38 a0 9d be d0 b9 b4 bc 80 7c 8f 3d
       0.51197547 -0.307863 -0.022061259 0.07006168
000310 5b d5 29 bc 12 e2 b0 3d 03 31 50 be bf c2 97 be
       -0.010365809 0.086368695 -0.20331196 -0.29640767
000320 c9 5f af 3e 4c d0 84 bd 3e 4c 80 3e c6 5b 1b 3e
       0.34252766 -0.06485042 0.25058168 0.15171728
000330 79 79 1c be ca fe e7 3c 39 00 71 be 16 0b 82 3e
       -0.15280713 0.028319735 -0.23535241 0.25399083
000340 35 87 f6 bc c6 e4 d9 3d f5 ef ff 3e 19 9b a4 bd
       -0.030093769 0.10639338 0.4998776 -0.08037395
000350 e5 ca a0 3c 3a 60 00 be 92 9e 39 be 43 44 9e 3e
       0.019627998 -0.12536708 -0.18126896 0.30911455
000360 7a 56 2d bf 25 76 0c 3d b9 c4 78 be a5 c0 6c bd
       -0.6771008 0.03429236 -0.24293794 -0.057800908
000370 62 0f 9c 3d f8 9d b3 3c 01 be 89 be 6c d3 8e be
       0.076201215 0.021925911 -0.26902774 -0.27895677
000380 20 f7 56 3c 14 f3 9a bd 50 7b 2d bd 5a bf 5f be
       0.013120443 -0.07565895 -0.042353928 -0.21850339
000390 78 db 76 3d 78 4a 6c 3d 71 5e 18 be 06 75 03 be
       0.060267895 0.057688206 -0.14879777 -0.1283761
0003a0 80 52 e5 3d 80 a9 cd 3c 4c b8 62 be 24 47 cb bd
       0.11197376 0.025105238 -0.22140616 -0.09925678
0003b0 10 3f 79 bd 4a f6 bc bd 7a aa f7 bd 5a 9c e7 bd
       -0.060851157 -0.092266634 -0.12093063 -0.113091186
0003c0 98 3d 5c be f4 00 f9 3d 20 2a 11 bc 52 ea 6b 3e
       -0.21507871 0.12158385 -0.008860141 0.23038605
0003d0 f2 6e 00 3e b5 71 9c 3e 30 08 c8 3d 10 cd bb 3c
       0.12542322 0.30555502 0.09767187 0.02292493
0003e0 71 f1 30 be 42 ce 3b 3e b4 59 2e 3e b0 0e d9 3c
       -0.17279603 0.183404 0.17026407 0.026496261
0003f0 d8 95 c0 3d e8 f0 34 3e 86 55 2b 3e 92 ee d1 bd
       0.094035804 0.17670023 0.16731843 -0.10250582

B2 f4 [32]
000000 9e ba f7 be bf 52 00 3f c9 a2 d4 bb 44 75 8c 3e
       -0.48384565 0.5012626 -0.006489132 0.27433217
000010 c1 01 85 be 04 67 e9 be e0 fd aa 3d 00 00 00 00
       -0.259779 -0.45586407 0.08349204 0.0
000020 96 62 87 be cf 94 ae bd 2b cb e2 3e 00 00 00 00
       -0.26442403 -0.08524477 0.4429563 0.0
000030 ba e6 a9 3e 39 0c af 3e c6 21 d4 be 82 c4 10 be
       0.33183843 0.34189013 -0.41432017 -0.14137462
000040 b7 a7 00 3e e7 43 9d be 25 5e 32 bf ef fe 26 be
       0.12563978 -0.30715868 -0.69674903 -0.16308187
000050 89 c5 86 be 89 e4 d7 3e 39 fb b0 3d e9 9b 17 bf
       -0.26322582 0.42166546 0.08641667 -0.59222275
000060 6c 09 ea 3e 2c 25 df 3d b7 24 00 be b1 64 a2 3d
       0.45710313 0.10895762 -0.12514006 0.079293616
000070 6b a4 b9 3e 57 43 5b bd c8 f6 b5 3e 00 00 00 00
       0.36258253 -0.053531017 0.35539842 0.0

W3 f4 [32, 5]
000000 3c d8 ad 3e 35 56 cb 3e ab 43 aa 3f 2f c2 08 c0
       0.33954036 0.39714208 1.3301901 -2.136852
000010 d9 51 eb 3e 68 25 28 bf 30 68 ee be e1 03 01 3e
       0.45960882 -0.6568208 -0.46563864 0.12599136
000020 91 81 c7 bd bc 18 ad 3c d4 03 e1 3d ea b5 86 be
       -0.0974151 0.021129958 0.10987058 -0.26310664
000030 26 5f 97 3e 44 55 98 3e 0b 68 bb bc 23 73 5c 3e
       0.2956478 0.29752553 -0.02287676 0.21528296
000040 fb 67 b5 bd 1d c4 e1 3d b8 7c de 3d 7a 31 21 bf
       -0.08857723 0.11023734 0.10863632 -0.6296612
000050 c4 ad 51 3e 71 d4 25 bd 0e 35 1e bd 70 4e f5 3d
       0.20476443 -0.040485803 -0.038624816 0.119778514
000060 33 cc a2 3e 8f 46 82 3d 04 45 85 3c d0 18 af be
       0.31796417 0.06361114 0.01626826 -0.34198618
000070 87 2d 6c 3e b4 36 11 be b3 c2 d4 bc cc 96 a7 bc
       0.23064242 -0.14181024 -0.025971746 -0.020457648
000080 ad 78 3b 3e 24 ff a8 3d 0c 94 19 3e c2 76 53 be
       0.18307753 0.08251789 0.14997882 -0.20650771
000090 9f 61 9a 3e 88 bb 40 3d 80 bb b3 3c d3 bd 93 3e
       0.30152604 0.047053844 0.021939993 0.28855762
0000a0 a2 67 3e 3f c1 1a b9 3e c4 05 fa bc 3a 50 d3 3e
       0.7437688 0.36153224 -0.030520327 0.41272146
0000b0 a3 72 98 bf 6c c6 f0 be e4 2a 72 be 52 b4 02 3e
       -1.1909984 -0.47026384 -0.23649174 0.12764099
0000c0 73 7a 36 3f 47 00 16 be 28 e9 e0 bd 16 e6 d6 bc
       0.7128059 -0.14648543 -0.10981971 -0.02623276
0000d0 45 69 6d 3e 7b 90 c9 bd 9e 57 3b 3e ca 49 5f 3e
       0.23184688 -0.098420106 0.18295142 0.21805492
0000e0 60 ba 67 3c 8a e3 78 3e 82 87 a7 bd 04 04 8e bd
       0.014143556 0.2430555 -0.08180143 -0.0693436
0000f0 70 4e ec 3d 12 1a ee 3c 58 7c 29 bf b3 52 5c bf
       0.11538398 0.029065166 -0.6620536 -0.8606369
000100 f5 54 a5 3f 98 e8 95 be c0 ef b1 3e 3a a0 1d 3e
       1.2916552 -0.29279017 0.34753227 0.15393153
000110 95 b2 77 be 61 4a dd ba 94 5b e8 3d 49 8b 26 bd
       -0.24189217 -0.0016883129 0.11345592 -0.040660176
000120 fd a3 a8 be 36 f0 bd 3d bf 40 0c bf d2 13 47 be
       -0.32937613 0.09274332 -0.54786295 -0.19441155
000130 26 29 45 3e 75 ea 87 be f8 ce 87 3e 14 3c 8b 3e
       0.19253978 -0.26546064 0.26525092 0.27194273
000140 2c 98 b4 bd c2 c4 a9 3b 86 59 dd bb a8 cc c3 bd
       -0.08818087 0.005180926 -0.006755057 -0.095605195
000150 3e 86 83 be 9e 17 4e 3e f6 89 7f bd 43 bd 34 3d
       -0.25688356 0.20126197 -0.06238743 0.044125807
000160 38 62 ba 3d d9 14 ce 3c 4a 61 d6 3e ea a1 a0 3e
       0.09100765 0.025156425 0.418711 0.3137353
000170 7e 85 b6 bf 23 b0 5f 3e 0a 57 a3 bc 4e 8c 27 3e
       -1.4259489 0.21844535 -0.019938964 0.16362116
000180 93 ef 38 3e 55 5f 53 3d 6c cb ae 3d 5c b9 9e bd
       0.1806014 0.051604588 0.085348934 -0.07750198
000190 d6 c9 be 3e 88 2c 2c be a9 bc 30 bc 6c f0 a6 bc
       0.37263364 -0.16813862 -0.010787168 -0.020378314
0001a0 b6 a1 57 be 06 de 21 be 1d c1 4e 3e 3d 66 27 3f
       -0.21057782 -0.15807351 0.20190854 0.6539038
0001b0 3b b1 09 3e 92 7e 05 bf 53 0c 83 3d 7b 54 e7 bd
       0.13446514 -0.52146256 0.06398835 -0.1129541
0001c0 93 8f a9 3e f8 9c f8 bc a0 ae 87 3d 84 35 ad 3e
       0.3311735 -0.030348286 0.06625104 0.33829892
0001d0 35 97 e6 3e ed 0c 6e bf 16 1e 0b 3f 93 b8 62 be
       0.45037237 -0.92988473 0.5434278 -0.22140722
0001e0 97 b7 c5 3d 10 59 2d 3e 0b fc 50 bf 7f 4b 2f 3f
       0.096541576 0.16928506 -0.8163459 0.6847457
0001f0 5a 05 e5 be be fc 2b be fd b3 6c be 59 13 3c bc
       -0.44730645 -0.16795632 -0.23115535 -0.011479222
000200 89 8c 75 3d 1b aa 99 3e 0c 5d 47 be db df 3e 3d
       0.059948478 0.30012593 -0.19469088 0.046600204
000210 85 0f a0 be a7 f0 62 bd 4d 4d 56 be c0 52 05 bc
       -0.3126184 -0.055405285 -0.20927925 -0.008137405
000220 55 c7 06 3e 01 55 07 3e 8f 40 f3 3d d1 a9 9f be
       0.13161977 0.1321602 0.11877548 -0.31184247
000230 1a f9 a1 be 66 86 1c be 5c ad 9d bd 46 1e 8a be
       -0.31635362 -0.15285644 -0.07699081 -0.26976222
000240 03 65 b1 3d 33 c5 68 be 28 44 82 3e 14 ac 39 3c
       0.086618446 -0.22731476 0.25442624 0.0113325305
000250 19 78 ec 3d e8 9c 3b be ba d7 56 bd 9e 63 00 3e
       0.11546344 -0.18321574 -0.052451827 0.12538001
000260 7d 51 45 3e 87 ce 7f be 99 27 18 3e 0b 40 99 be
       0.19269367 -0.24981128 0.14858855 -0.29931673
000270 66 a0 99 bd 70 da 7d be 84 4b 16 be 91 70 8c 3e
       -0.07501297 -0.24790359 -0.14677244 0.2742963

B3 f4 [5]
000000 3d 5c a4 be fe f2 01 3e 20 b2 d9 3e e3 4e 1f be
       -0.32101622 0.1269035 0.4251871 -0.15557437
000010 49 76 9f 3c
       0.019465582
