onnx-to-hls/example-onnx-model-files/three_layer_pytorch.onnx (onnx, 32007 bytes, 8 tensors)

1 f4 [64, 16]
000000 98 c6 09 be 8e 86 61 be 80 6e 32 3b e0 ff 05 3c
       -0.13454664 -0.22023985 0.0027226508 0.008178681
000010 3c c1 45 be 0e 3d 60 3e 00 35 86 bc 50 9d b4 3d
       -0.19311994 0.2189829 -0.016382694 0.088190675
000020 90 ad 9d 3c 9e 05 5d 3e 9c d1 00 be fc 57 89 3d
       0.0192478 0.21584174 -0.1257996 0.06706235
000030 86 d4 30 be 90 93 a5 3d 90 4c b0 bd 10 80 65 3e
       -0.17268571 0.08084786 -0.08608353 0.22412133
000040 e4 e7 6a be 86 27 1d 3e de af 09 3e 94 c0 af 3d
       -0.22940022 0.15347108 0.13445994 0.08581653
000050 c0 3c 28 3e f8 e8 b2 bd 80 27 91 3b 50 0d 64 3d
       0.16429424 -0.087358415 0.0044297576 0.05567676
000060 90 17 4a 3d 32 de 0d 3e 3c cf 8a bd c8 f9 38 be
       0.049338877 0.13854292 -0.06777808 -0.18064034
000070 44 19 ac 3d 1a 3a 19 be cc 71 d7 3d 90 da 24 bd
       0.084032565 -0.1496357 0.10519752 -0.0402475
000080 c6 72 23 be 2a 9d 75 be bc cc ad 3d 6c 55 21 3e
       -0.15961751 -0.23985735 0.084863156 0.15755242
000090 c0 56 22 3d 00 6d f9 3c 0a e7 42 be a0 77 50 bc
       0.039633512 0.030447483 -0.19033447 -0.012723833
0000a0 da b0 63 be be 27 00 be 94 09 2b be 96 13 30 3e
       -0.22235432 -0.1251516 -0.16702873 0.17194971
0000b0 34 c4 ee 3d b8 61 62 3e f0 f0 3c be 74 2c e5 3d
       0.116585165 0.22107589 -0.18451285 0.111901194
0000c0 00 d4 c1 3c a2 e8 10 be 60 fc 65 bc 18 99 b7 3d
       0.02366066 -0.14151242 -0.014037222 0.08964747
0000d0 54 9d 05 3e a0 5a 6d 3c cc 0d 2d 3e 10 ed 11 3e
       0.13048297 0.014486939 0.16899794 0.14250588
0000e0 f0 0a 48 3d 80 6f fe 3b a8 f4 6b be a8 e9 2d 3e
       0.048838556 0.0077647567 -0.23042548 0.16983664
0000f0 b4 dc 03 be 80 90 57 bc cc 66 50 be 20 22 0c 3c
       -0.1287716 -0.01315701 -0.20351714 0.008553058
000100 28 1a ee 3d f8 11 57 3d a8 20 01 bd 58 5e 1b 3e
       0.11626083 0.05250737 -0.031525284 0.15172708
000110 80 24 ee 3d 18 a1 a7 3d 42 18 12 3e fc ab 63 3e
       0.116280556 0.08185023 0.14267066 0.22233576
000120 50 e1 81 bd f6 03 6d be 4e d5 54 be ec 11 08 be
       -0.06341803 -0.23146042 -0.20784494 -0.13288087
000130 78 b7 69 bd c0 b7 eb 3d a0 25 de 3c fc e4 2f 3e
       -0.057059735 0.11509657 0.02711755 0.17177194
000140 0c 8e 4c 3e a0 6d 59 3c 72 89 6e be 1c a4 37 3e
       0.19976062 0.013270766 -0.23294619 0.17933697
000150 14 ed 81 bd 54 c5 ca 3d 58 35 d3 3d 12 d6 6a 3e
       -0.06344047 0.099009186 0.10312909 0.22933224
000160 c8 bc 67 be cc b8 bb bd 5e ec 18 be 50 48 ac bd
       -0.22630608 -0.091661066 -0.14933917 -0.0841223
000170 f8 ea 5d 3d 00 0e 4e be fe ee 0a be a8 48 32 be
       0.05417916 -0.20122528 -0.13567731 -0.17410529
000180 94 b5 f1 bd 40 a0 fb bc ee 70 3a be 20 c3 50 be
       -0.118022114 -0.030716062 -0.18207142 -0.20386934
000190 68 bf 09 3d 68 c5 23 3d 7c db 12 be ca 7f 2e 3e
       0.033629805 0.039983183 -0.14341539 0.17040935
0001a0 60 80 47 3e aa 2c 7c be b0 d3 4a 3d 44 09 90 3d
       0.19482565 -0.24626413 0.049518287 0.07033017
0001b0 b8 6b df 3d 1c d4 39 3e 80 06 1a be e0 15 5b 3e
       0.109092176 0.1814732 -0.15041542 0.21395063
0001c0 82 d1 1c be 28 be fb 3d 68 26 aa bd 18 c9 57 be
       -0.15314296 0.12292129 -0.08308107 -0.21072805
0001d0 b6 8c 09 3e 8a 4d 38 be 1c ec 63 3e ac 14 10 be
       0.13432583 -0.17998329 0.22258037 -0.14070386
0001e0 c8 5f 46 bd 20 2e 65 3e c8 c0 1b 3d 12 1a 22 be
       -0.048431188 0.22380877 0.038025647 -0.15830258
0001f0 9c 89 d6 3d 08 24 11 be ba 6c 67 3e 06 13 0c be
       0.10475466 -0.14173901 0.2260007 -0.13679132
000200 2e 3a 00 be 00 c3 44 3c e0 29 b2 bc 10 73 9d 3c
       -0.12522194 0.012009382 -0.021748483 0.019219905
000210 e8 ac d9 bd 9c 30 61 3e 34 0e 77 3e f4 cf 41 3e
       -0.106286824 0.219912 0.24126512 0.18926984
000220 ec 62 b9 3d 2e 08 46 be b8 85 7e 3d 04 e5 33 be
       0.09052071 -0.19339058 0.062139243 -0.17567831
000230 5a 5d 78 3e 00 fd 7f bc c0 2d 11 3c 24 8d 40 3e
       0.24254361 -0.015624285 0.008861005 0.18803841
000240 20 a2 1c bc c0 bd 1e bd 08 e7 b5 bd 30 98 e2 bc
       -0.009560138 -0.03875518 -0.08881956 -0.02766046
000250 80 06 e4 bd 54 eb f7 3d f0 62 9e 3c d8 fe 00 bd
       -0.11134052 0.12105432 0.019334286 -0.031493038
000260 46 06 4d 3e 2e 2c 49 be 68 85 e0 bd 80 10 e2 bb
       0.20021924 -0.1964576 -0.10962945 -0.0068989396
000270 7e f3 0e 3e 00 ce 4e bc 74 b2 37 3e 18 03 36 3d
       0.13960072 -0.012622356 0.17939168 0.044436544
000280 da 9f 11 be 22 68 5c 3e 5e 7c 66 be f8 62 eb 3d
       -0.14221135 0.21524099 -0.2250838 0.11493486
000290 ca da 65 be e6 4c 66 3e 8c 44 3c be 4c 45 b5 bd
       -0.22446743 0.22490272 -0.18385524 -0.08851108
0002a0 88 81 28 be ac f4 c0 3d 1c a7 12 be 30 2d 88 3d
       -0.16455662 0.094216675 -0.1432156 0.06649244
0002b0 5c 50 98 bd 00 8e f7 bc 8c d6 40 be 34 8c 7f 3e
       -0.07437202 -0.030219078 -0.18831843 0.24955827
0002c0 e4 6c 18 3e a0 c2 ea 3c 38 6e 6b be 80 09 47 3e
       0.14885288 0.028657258 -0.22991264 0.19437218
0002d0 50 43 2b bd 28 5a 60 3d 3c 70 d2 bd 08 91 c5 3d
       -0.04181224 0.05477348 -0.10275313 0.09646803
0002e0 d0 60 7f bd 30 11 1a be a4 6a 78 be 80 d4 6f 3e
       -0.062348187 -0.15045619 -0.2425943 0.23420906
0002f0 20 2b 4b 3d d0 5a 2f be c6 75 16 3e 90 19 e7 3c
       0.049601674 -0.17124486 0.14693365 0.028210431
000300 30 7f fb 3c 50 17 92 3c 70 10 58 bd 40 00 2d 3e
       0.030700296 0.017833382 -0.05275005 0.16894627
000310 80 49 d8 3b a8 63 0c 3e 28 8f 6e 3e 02 34 33 be
       0.0066005588 0.13709891 0.23296797 -0.17500308
000320 4c 00 f9 3d 9e 87 6c be 50 f4 c6 3c 4a fb 41 be
       0.1215826 -0.23098609 0.02428642 -0.18943515
000330 e4 e0 86 bd f2 c9 2f be 18 28 53 3e 34 82 17 be
       -0.06585863 -0.1716688 0.20620763 -0.14795762
000340 ec 9b 35 3e 18 a9 42 3d 2a 4a 54 3e 98 73 1c 3e
       0.1773526 0.04752454 0.20731416 0.1527847
000350 58 fd 11 be 50 17 b7 bc a0 a6 9c bc d0 e9 d9 3d
       -0.14256799 -0.022349983 -0.019122422 0.10640299
000360 42 29 45 be e0 2d 4d 3d bc 3e 8a bd 80 12 3a 3d
       -0.1925402 0.050092578 -0.06750247 0.0454278
000370 60 40 2b bc a8 5c 5d bd 50 e3 17 bd fe aa 25 3e
       -0.01045236 -0.054043442 -0.037082016 0.1617851
000380 20 66 25 bd 0c d9 34 be f0 32 fc 3c b0 32 ac bd
       -0.040380597 -0.17660922 0.030786008 -0.084081054
000390 38 a3 91 3d bc 86 f3 bd d4 06 fe bd e0 27 e8 3c
       0.0711121 -0.11890933 -0.12403646 0.028339326
0003a0 40 d3 a9 bc 98 e0 3d 3e 58 b6 23 3e b0 17 76 3d
       -0.020730615 0.18542707 0.15987527 0.060081184
0003b0 20 d6 53 3e 8c f0 73 be e0 21 fd bd 00 06 2e 3d
       0.20687151 -0.2382223 -0.12359977 0.04248619
0003c0 4e 93 26 be 60 28 b1 3d c0 26 e5 bd 78 a4 4b be
       -0.1626713 0.08650279 -0.111890316 -0.19886959
0003d0 16 d1 31 3e 50 33 cb 3c ec 67 d7 3d 98 ad 50 3d
       0.17364916 0.024804741 0.105178684 0.050946802
0003e0 72 ff 1c 3e 32 55 6b 3e 68 d1 36 3d 64 24 41 be
       0.1533182 0.22981718 0.0446333 -0.18861538
0003f0 a8 14 0e be 00 52 02 3d 1c 21 a2 bd 40 23 1f 3d
       -0.13875067 0.031816483 -0.07916471 0.038851976

2 f4 [64]
000000 86 1a 21 be c0 ba 6d be 70 cb e7 bd 8c 2d 45 3e
       -0.15732774 -0.2321577 -0.113180995 0.19255656
000010 b0 65 df 3d b0 25 3a bd 44 c6 23 3e 20 0e d1 3d
       0.10908067 -0.045446098 0.15993601 0.10207772
000020 d4 3b 5a 3e d6 e2 29 3e 02 23 07 3e 86 64 40 3e
       0.21311885 0.16590437 0.13196948 0.18788347
000030 1c fd 75 be 00 c1 b8 ba 80 7b 7d 3c 22 80 18 be
       -0.24022335 -0.0014095604 0.015471339 -0.14892629
000040 74 ab 5e be d4 ee f7 3d 6a 69 58 be 80 17 0f be
       -0.21745092 0.121061 -0.21133962 -0.13973808
000050 d8 d8 3e 3e 88 1d 41 3d 28 db 69 3d e6 82 3a be
       0.18637407 0.047147304 0.05709377 -0.18213996
000060 50 9b 8d 3c b0 93 79 3d 88 4e c2 bd 78 f6 d7 bd
       0.017285973 0.06093186 -0.09487635 -0.10545057
000070 78 af 47 3d 68 0b e7 3d 40 e3 fe 3c 00 94 a2 3d
       0.048751324 0.112814724 0.03111422 0.07938385
000080 48 16 d2 bd 54 f2 06 3e a0 f8 0c bd f0 bb eb bc
       -0.10258156 0.13178378 -0.034416795 -0.028776139
000090 f4 77 d6 3d 00 3e 12 3b f6 63 08 be 9c f0 3a be
       0.10472098 0.0022314787 -0.13319382 -0.18255848
0000a0 48 58 72 3e 88 93 cb bd a0 27 3b bd 3e ce 32 3e
       0.23666489 -0.09940249 -0.045692086 0.17461488
0000b0 e8 b8 b1 3d 04 16 44 be b8 33 9b bd 98 f5 35 be
       0.08677846 -0.19149023 -0.07578224 -0.17769468
0000c0 78 7c 8c 3d 52 d4 5d be 98 6d 43 bd 2c 7d b9 3d
       0.06859678 -0.21663025 -0.04771194 0.09057078
0000d0 24 b5 6b be ec 06 68 be fc 75 bc 3d 90 1e 40 be
       -0.23018318 -0.2265889 0.09202191 -0.18761659
0000e0 90 12 df 3c 1e 4d 25 be e8 d8 17 bd fc 41 99 bd
       0.027230531 -0.16142699 -0.037072092 -0.07483289
0000f0 c0 53 51 3d 6c 35 5c 3e 40 55 0a 3e f0 6f 09 be
       0.05110526 0.21504754 0.13509083 -0.13421607

3 f4 [32, 64]
000000 80 bb ab 3a c0 30 0b 3c d6 d6 c2 3d e8 49 f8 3c
       0.0013102144 0.00849551 0.09513633 0.030308679
000010 c2 80 90 bd 08 f5 96 bc 48 76 96 3d f8 5a 6e 3d
       -0.070558086 -0.018427387 0.07346779 0.058192223
000020 e2 25 9b 3d 34 3e 4e 3d 8c f1 d4 bd d0 80 bf bc
       0.07575585 0.05035229 -0.10397634 -0.023376852
000030 fa 1f 82 bd 92 c8 a3 3d 9c 6a 4a 3d c0 1b d9 bb
       -0.06353755 0.0799724 0.049418077 -0.0066256225
000040 40 e9 e3 3b 7c f4 44 bd fc 59 66 bd d4 44 31 3d
       0.006955296 -0.04808472 -0.05623816 0.04327853
000050 88 a7 43 bd c0 16 4e 3b 44 1f c4 3d 78 dc 40 bd
       -0.047767192 0.0031446666 0.09576276 -0.047085255
000060 52 2c b4 3d 14 3b 67 3d 1c b4 2f bd 60 69 59 3d
       0.08797516 0.056452826 -0.042896375 0.05307901
000070 20 eb 30 bc d4 de cb bd 74 b0 7a bd d8 58 0a 3d
       -0.010798246 -0.099546105 -0.061203435 0.033776134
000080 b0 a8 df 3d fa 36 d8 bd 7e 1c 83 3d e8 6c b0 bc
       0.109208465 -0.10557361 0.06401919 -0.021536306
000090 48 97 9f 3d 58 17 49 bd c6 60 f7 3d 10 ec 4a 3d
       0.077925265 -0.049094528 0.12079005 0.049541533
0000a0 72 d6 a8 bd 72 c3 ca 3d 66 b4 fa bd ea 20 aa bd
       -0.08244027 0.099005595 -0.122414395 -0.08307059
0000b0 80 3b b1 bb 72 58 d2 bd 40 cd 2f 3c 82 4f a6 bd
       -0.0054087043 -0.10270776 0.010730088 -0.08120634
0000c0 14 77 91 3d aa e4 d4 3d 42 28 f9 3d 7c e6 c8 3d
       0.071027905 0.10395177 0.12165882 0.098095864
0000d0 74 a1 5c bd 50 43 66 3d 8c 5e a7 bd 9a 25 ee 3d
       -0.05386491 0.056216538 -0.0817233 0.11628266
0000e0 e6 90 e2 bd b0 74 58 bc b0 28 b6 bd 9a ed e2 3d
       -0.110627934 -0.013211414 -0.08894479 0.11080475
0000f0 46 68 f7 3d 40 ac 54 3b d2 2e cd 3d d0 59 cd bd
       0.120804355 0.0032451302 0.10018696 -0.10026896
000100 00 5f 00 bd b0 44 ba bc a2 b9 ce 3d 6c ce 20 3d
       -0.0313406 -0.02273783 0.100940004 0.03925936
000110 ec 62 6f bd 26 ec f6 bd b4 64 40 3d 64 09 7d 3d
       -0.05844395 -0.120567605 0.046971038 0.061776534
000120 40 85 e0 bb 0c 48 59 bd e8 28 18 3d 24 d7 83 3d
       -0.006851822 -0.053047225 0.037148386 0.06437519
000130 10 2a 67 bc b6 4d 93 bd f8 b5 85 3d e0 54 f8 3d
       -0.01410915 -0.071925566 0.065288484 0.121255636
000140 26 4d 9d 3d 10 65 09 bc f4 c9 56 bd 40 b5 fa 3b
       0.076807305 -0.008385912 -0.05243869 0.007651001
000150 b0 72 b2 3c 60 92 aa bb b4 92 79 bd 20 cb e4 bc
       0.021783203 -0.0052054375 -0.060930923 -0.027928889
000160 28 d4 81 3c d0 40 af bd 60 92 64 bc 78 e9 6b bd
       0.015848234 -0.08557284 -0.013950914 -0.0575957
000170 18 50 d8 bc 9e 01 db bd 40 fe 36 bc 34 a7 9a bd
       -0.02640538 -0.10693668 -0.011169016 -0.07551423
000180 a0 25 1b 3c 74 3c c9 bd a8 b1 6a bd c0 69 10 bb
       0.00946942 -0.09825984 -0.057298332 -0.0022035688
000190 86 50 ac 3d f0 e8 2c bc 28 a5 19 bd 40 14 21 bc
       0.08413796 -0.0105535835 -0.03751102 -0.009831488
0001a0 5c 1d 99 bd b4 f8 84 3d b0 e1 91 3c 1e 4d cc 3d
       -0.07476303 0.06492749 0.017807811 0.099756464
0001b0 60 ac 80 bb 32 ce d7 bd d8 4c 2c 3d 24 e5 d3 bd
       -0.0039267987 -0.105373755 0.04206547 -0.103464395
0001c0 a0 52 ac bb d8 81 10 3d f0 70 15 bd 60 95 49 bc
       -0.005258873 0.03528008 -0.03648466 -0.01230368
0001d0 9e e2 b9 3d 46 2a eb bd 70 87 13 3c d0 39 70 3c
       0.09076427 -0.114826724 0.009004459 0.014662221
0001e0 10 a1 54 3c bc 25 af 3d d0 17 c4 3c e8 c8 bd bc
       0.012977853 0.08552119 0.023937136 -0.023167089
0001f0 9e 0d f4 3d 80 47 e9 bd 0a 76 f4 bd 7a 6a d7 bd
       0.1191666 -0.11390591 -0.11936577 -0.10518356
000200 a8 c7 fc 3c a4 5d 74 bd 70 28 29 bc 80 3f a5 bd
       0.030856922 -0.059659615 -0.010324582 -0.08068752
000210 50 c6 67 bd 80 ae 56 bd 94 e6 71 3d b0 2b df bc
       -0.05658561 -0.05241251 0.059057787 -0.027242512
000220 e8 bc 8d bd bc 4c 4b bd 90 57 65 bd 48 b5 a0 3c
       -0.06920797 -0.049633726 -0.05599171 0.019617692
000230 06 2a ff bd 78 e5 5b bd b0 6d 7a 3d 28 e8 a7 bd
       -0.12459187 -0.053685635 0.061139762 -0.08198577
000240 68 2d 8d 3d 32 72 a4 bd e0 55 d7 3d 44 d6 29 3d
       0.06893426 -0.080295935 0.10514426 0.041464105
000250 00 a6 cf ba b6 74 b1 3d 5c b0 e6 3d 58 1b 65 bd
       -0.0015842319 0.08664839 0.11264107 -0.05593428
000260 e4 d7 fc 3d 70 f2 e3 bc 40 a9 15 3d 12 97 e3 bd
       0.12345865 -0.027825564 0.036538363 -0.11112799
000270 ac c5 24 bd 20 09 f7 3c 00 bc 77 ba 04 74 d6 bd
       -0.040227577 0.030155718 -0.00094503164 -0.10471347
000280 08 15 a9 3d 44 71 02 3d f8 f1 2b bd 86 11 8b bd
       0.082559645 0.0318463 -0.041978806 -0.06790452
000290 00 30 f9 3d c0 90 e8 3c b2 76 8d bd 6c 38 c3 bd
       0.121673584 0.028389335 -0.06907405 -0.09532246
0002a0 50 6a 64 3d ec be b0 bd 88 82 24 3d f4 bb 1d 3d
       0.05576545 -0.086301655 0.040163547 0.038509324
0002b0 66 12 dc bd 80 bf 93 3d b0 d3 a3 3d b8 e9 a9 3d
       -0.10745697 0.0721426 0.079993606 0.082965314
0002c0 20 1c 2b 3d 32 ed c0 3d bc 3a cb 3d 28 97 18 bd
       0.04177487 0.094202414 0.09923312 -0.03725353
0002d0 40 8b 05 3d 0c a0 5a 3d 60 93 7e 3c 40 d5 f9 bd
       0.032603502 0.05337529 0.015538067 -0.12198877
0002e0 bc 37 10 bd 00 93 ed ba f4 8b 83 bd 34 bb cd 3d
       -0.035209402 -0.0018125474 -0.06423178 0.10045472
0002f0 fc 93 2e bd 92 ea ef bd c0 d3 2e bd 30 75 ac 3d
       -0.042621598 -0.117146626 -0.04268241 0.08420789
000300 d2 10 d2 3d d0 fd 91 bc 6c 15 c6 3d 12 22 dc 3d
       0.102571145 -0.017821223 0.09672055 0.10748686
000310 82 0d 8c 3d e0 a4 6e bd c8 68 3b 3d 54 f4 c2 bd
       0.06838514 -0.058262706 0.045754224 -0.09519258
000320 a0 7d d4 3d 0a 7c 87 3d 68 5d 37 3d b8 d2 58 bd
       0.103755236 0.066154554 0.044766814 -0.052935332
000330 98 6f f0 bc 24 0b e9 bd 9e 06 a8 bd 18 d8 bb 3c
       -0.029350087 -0.11379078 -0.08204387 0.02293019
000340 50 12 10 bc 40 8e e5 3d 68 91 f8 bc 08 76 ba bc
       -0.008793429 0.11208773 -0.030342773 -0.02276136
000350 e4 39 77 bd 10 e5 f4 bd b8 d3 a4 3d 78 8e cf bc
       -0.060357943 -0.11957753 0.08048195 -0.02533649
000360 08 be e8 bc 90 c2 b3 bd d0 a2 06 3d d4 a5 05 3d
       -0.028410926 -0.08777344 0.032870114 0.03262885
000370 bc bd 83 bd 40 29 9f 3d 6c c3 00 bd d8 e6 c2 3c
       -0.06432673 0.0777154 -0.03143637 0.023791716
000380 b0 c1 7a bd d0 ff 7f bc 3c 7b ee bd c0 36 05 bc
       -0.06121987 -0.015624955 -0.11644599 -0.008130729
000390 34 02 0d 3d 10 72 9c bd 8e c0 9e bd 80 75 3d bc
       0.03442593 -0.07638943 -0.07751571 -0.011563659
0003a0 a0 be 1c 3c b0 6a f6 bd b0 67 90 3d 3e 21 a4 bd
       0.009566933 -0.12032068 0.07051027 -0.08014153
0003b0 f0 9b 98 3c b6 90 c9 3d e8 83 76 3d d6 12 af 3d
       0.018629044 0.098420545 0.06018439 0.085485145
0003c0 4e 1d a5 3d c0 32 03 bc 68 8b be 3d 06 e1 ca 3d
       0.0806223 -0.008007705 0.093039334 0.09906201
0003d0 c2 59 ed 3d 0c 9b 36 3d 3e 6b e0 bd e0 c7 f4 bb
       0.115893856 0.044581458 -0.10957955 -0.007470116
0003e0 50 35 16 3d b8 3f d4 bd f0 80 7c bd 94 07 7a bd
       0.036671937 -0.10363716 -0.061646402 -0.061042383
0003f0 6c e7 06 bd c8 60 ef bd 5c 58 c2 3d 68 15 21 bd
       -0.032935545 -0.116883814 0.094895095 -0.039327055

4 f4 [32]
000000 0e 9d 9a 3d 50 33 e8 bc 40 fb 68 3c 8c 31 5d bd
       0.07549487 -0.02834478 0.014220059 -0.05400233
000010 c0 91 76 3c b4 6d 65 3d 58 67 66 bd 80 2b 8d ba
       0.015049398 0.056012824 -0.0562509 -0.001077041
000020 e0 52 95 3d d6 35 c4 bd e0 d5 af 3c f4 79 bc 3d
       0.07291198 -0.09580581 0.021464288 0.09202948
000030 0a 0a ef bd 0c 21 0a 3d 10 dd 94 3c 44 bf 56 bd
       -0.11671837 0.033722922 0.018171817 -0.0524285
000040 e0 7e 26 3c 00 dc 3a 3c fc 83 d7 bd e0 3a d3 bc
       0.010162085 0.011404991 -0.10523221 -0.02578491
000050 be 0a 84 bd 6e 4e bc 3d 5c 66 c1 bd 60 51 7b bd
       -0.064473614 0.09194647 -0.094433516 -0.061356902
000060 c0 f9 8a 3c 74 82 da bd 26 51 cc bd e0 f9 46 3c
       0.016964793 -0.10669413 -0.09976415 0.012144536
000070 bc 60 05 3d e8 30 bd 3d e4 a5 71 bd cc 18 5d 3d
       0.032562956 0.09237844 -0.058996096 0.053978726

5 f4 [32, 32]
000000 96 3e c6 3d e0 92 10 bd b8 2c 92 bd a0 0d 03 3d
       0.09679906 -0.03529632 -0.07137436 0.031995416
000010 80 46 a2 3b 3f 05 07 be ac 02 10 be e0 52 2f bc
       0.004952252 -0.13185595 -0.14063519 -0.010700911
000020 4e ca 81 bd 97 63 83 bd d4 ce 4d 3d b4 62 54 3d
       -0.06337415 -0.0641548 0.050246075 0.051851943
000030 48 8e f3 bc 9c 9a 57 bd 3a 2d cf bd 32 c5 11 be
       -0.02973093 -0.05263768 -0.10116048 -0.1423538
000040 83 6c 86 bd 75 02 a5 bd 80 1f b2 bb d8 03 9a 3c
       -0.06563666 -0.08057109 -0.005435884 0.018800661
000050 94 7b 84 3d 89 75 b9 bd 2a 96 91 3d 68 cb 46 bd
       0.06468883 -0.09055621 0.0710872 -0.048533827
000060 aa e8 a4 3d af 6b 0f 3e 0c 81 51 3d 79 b4 33 be
       0.0805219 0.14005922 0.05114846 -0.17549314
000070 e7 36 12 3e f7 d7 dd bd 47 b5 14 3e d0 77 17 3d
       0.14278756 -0.10832208 0.14522277 0.036979496
000080 23 7d 80 bd 54 e8 a6 bd d6 22 55 bd 16 3d e1 3d
       -0.06273868 -0.08149782 -0.052035175 0.10997979
000090 fe ea 25 be b8 27 0c bd 21 05 14 be 5d 37 0e be
       -0.16202924 -0.034217566 -0.14455082 -0.13888307
0000a0 3f d0 30 be 50 40 7e 3d 8a 56 04 be ed e5 21 3e
       -0.1726694 0.062073052 -0.12923637 0.15810366
0000b0 c4 38 45 bd 50 a7 10 be 14 f6 14 be 40 fb 7d 3b
       -0.04814984 -0.14126325 -0.14546996 0.0038754493
0000c0 6a 90 24 be 3e 85 9f 3d bd 53 1e 3e 83 c3 1e 3e
       -0.16070715 0.07789086 0.15461631 0.1550427
0000d0 a9 16 32 3e 42 0b 6a bd 53 41 1d be ed fd 12 3e
       0.17391457 -0.057139643 -0.1535695 0.14354677
0000e0 96 cb 11 be cc bc 27 3d 1c d7 2a 3d 38 06 fb bd
       -0.14237818 0.040951535 0.04170905 -0.122570455
0000f0 a4 e2 0d bd 1b 4f 33 3e 0c 12 b6 bd 90 ad 01 be
       -0.03463997 0.17510645 -0.08890161 -0.12663865
000100 19 c8 28 be 53 e3 1e be a8 12 ff bc 0d 03 26 3e
       -0.16482581 -0.15516405 -0.031136826 0.16212101
000110 7b 5b 8f bd 56 92 ce 3d 0b 9a 31 3e 4b cc cb bd
       -0.069998704 0.10086505 0.17343919 -0.09951075
000120 34 84 53 3d 4c 62 28 3d 70 4b 6d bc a8 a2 c9 3c
       0.05163975 0.04110937 -0.014483318 0.024613693
000130 66 24 ed bd 6e 95 af 3d ca 50 c0 3d 43 db 29 3e
       -0.11579208 0.08573423 0.09390409 0.16587548
000140 5d da 28 be ce 3e 56 bd ed e4 10 3e 36 96 c8 3d
       -0.16489549 -0.05230599 0.14149828 0.097942755
000150 4e e5 c1 3d 30 eb 06 be 4e c4 ab 3d ef de 1b 3e
       0.094675645 -0.13175654 0.083870515 0.15221761
000160 97 1f 0b 3e 78 46 ee 3c dc 53 2d be 80 60 c0 ba
       0.1358627 0.029086336 -0.16926521 -0.0014677197
000170 31 8c 06 be b5 53 08 3e 1d b0 20 be 25 90 2a 3e
       -0.13139416 0.13313182 -0.15692182 0.1665655
000180 8d ef 21 3e fb d2 12 3e d0 2d b2 bc d7 2d 2a 3e
       0.15814038 0.14338295 -0.02175036 0.16619049
000190 8a 85 d6 3d 4b 29 00 3e 80 cc 7e 3d f6 e5 2d be
       0.10474689 0.12515752 0.062206745 -0.16982254
0001a0 7c 03 92 3d 9c 5d 50 3d 74 66 80 3d ce c0 9f 3d
       0.07129571 0.050870523 0.062695414 0.078004465
0001b0 c0 05 17 bb 71 1f 2e 3e f8 0f 94 bc f5 30 16 3e
       -0.0023044199 0.17004181 -0.01807402 0.14667113
0001c0 30 5f f9 bd 9a 0d 87 3d d2 9d c3 bd c0 5d 26 3b
       -0.12176359 0.06594391 -0.09551586 0.002538547
0001d0 9f 98 09 3e 04 7b 52 bd e4 8a 1a 3d 08 ea 82 bd
       0.13437127 -0.051386848 0.037730113 -0.06392294
0001e0 c1 ba 04 3e 50 b3 0f bc d0 0d 1b 3c 41 88 0f 3e
       0.12961866 -0.008770779 0.009463742 0.1401682
0001f0 00 c1 25 3b ac fe 73 3d 00 6b 3e 3b 61 66 24 3e
       0.002529204 0.059569046 0.0029055476 0.1605468
000200 2e 02 b1 3d 00 69 21 be d0 c3 27 be 28 00 16 be
       0.08642994 -0.1576271 -0.1638329 -0.14648497
000210 b0 4d 9f bd fc f7 00 3d c0 39 14 3b 6a 5b 17 be
       -0.077784896 0.031486496 0.002261743 -0.14780965
000220 c7 1e bc bd 18 6b 2e 3d 95 d8 10 3e 95 f2 07 3e
       -0.09185558 0.0425826 0.1414512 0.13276131
000230 44 f3 36 3d 49 52 ad bd d0 65 47 3d d0 21 40 3d
       0.04466559 -0.0846296 0.04868108 0.046907246
000240 2d ed 0d 3e 5c 97 26 3d d8 4d f7 bd 81 73 24 3e
       0.13860007 0.04067169 -0.120753944 0.16059686
000250 62 56 f2 3d 98 49 15 bd 98 8b a2 bc 20 69 65 3d
       0.118328825 -0.036447138 -0.019841954 0.05600846
000260 34 b0 01 3d a6 61 f4 bd 88 64 d2 bd 51 b3 03 3e
       0.03166218 -0.119326875 -0.10273081 0.12861373
000270 00 e9 95 3b 9f 6b ad bd a5 da 20 3e 5e 56 2a be
       0.004574895 -0.08467793 0.15708406 -0.16634509
000280 27 fb 11 3e 5a b4 57 bd d8 0b fc 3c 50 2f 20 bc
       0.14255963 -0.05266223 0.030767366 -0.009776905
000290 c1 de e2 bd f7 bb 18 be 36 03 d0 3d 5b 5c e7 bd
       -0.11077643 -0.14915453 0.101568624 -0.11296912
0002a0 bc 9b 21 bd 6c ee 0f 3d d1 57 15 be 0c 29 95 bd
       -0.03945516 0.035139486 -0.1458428 -0.0728322
0002b0 70 42 04 bd 75 9e 15 3e b8 76 91 3c c6 f1 1b be
       -0.032289922 0.14611228 0.017756805 -0.15228948
0002c0 da 15 c1 3d a0 a2 6f 3c 53 b8 2f 3e c0 0f a8 bb
       0.09427996 0.014626175 0.17160158 -0.0051288307
0002d0 a0 57 37 3c 84 f1 2f 3d b0 26 15 3d ea 97 a5 3d
       0.011190325 0.042954937 0.03641385 0.08085616
0002e0 9f 11 15 3e bd 7c 23 be 68 4f f0 3c b7 b8 26 be
       0.14557503 -0.15965553 0.029334739 -0.162814
0002f0 d2 0d f6 bd 73 0f 1d 3e 3b 77 e2 bd 5d 9b 1d be
       -0.12014355 0.15337925 -0.11057898 -0.15391298
000300 76 7b b3 3d 90 81 05 bc 8c 68 4a bd 9c 87 79 bd
       0.08763783 -0.008148566 -0.04941611 -0.060920343
000310 ba 5d 58 bd e7 84 1e be 85 8c 10 3e 58 14 f4 3c
       -0.05282376 -0.15480386 0.14116104 0.029794857
000320 80 f9 ff 3c b4 ee 45 bd b0 06 05 bd da 5d 24 be
       0.0312469 -0.04832335 -0.03247708 -0.16051427
000330 e9 e9 1c 3e 72 0d e2 3d 40 33 28 be 27 5b 1d 3e
       0.15323605 0.11037721 -0.164258 0.15366803
000340 dd 5d 00 be c0 3a ef bd c0 c4 34 3d 7f 1b 18 3e
       -0.12535806 -0.116811275 0.044132948 0.14854239
000350 74 03 04 3d d4 92 57 3d 31 db 23 3e 2a 1f 04 be
       0.032229856 0.05263026 0.16001584 -0.12902513
000360 58 cc 1e 3d 64 fb 28 be 9a b5 a6 3d 78 d3 91 bc
       0.038769096 -0.16502148 0.081401065 -0.017801031
000370 10 18 7e bc 44 aa 2e be 1f 5b 33 3e 94 19 91 bd
       -0.015508667 -0.17057139 0.17515229 -0.07084957
000380 a1 0a 11 3e 1e 14 ea 3d 5a 7d a2 3d 02 7d 5a bd
       0.14164211 0.11429618 0.07934065 -0.053341873
000390 b6 38 e6 3d 85 41 e5 bd e8 30 9d 3c 0b e5 0f be
       0.112412855 -0.111941375 0.01918836 -0.14052217
0003a0 98 92 e5 bc 2a 03 22 be 04 be 6f bd 63 43 1d 3e
       -0.028024003 -0.1582152 -0.058530822 0.15357737
0003b0 eb 97 14 3e c2 8f e8 3d 90 63 7a bd 36 0e a3 3d
       0.14511077 0.113555446 -0.061130106 0.07961695
0003c0 9c 0d a9 bd c6 eb e6 bd 48 4d 85 3c 5c df 68 3d
       -0.08254549 -0.11275439 0.016272202 0.056853637
0003d0 a6 c8 a2 3d 6d 6c 06 3e 50 3b 4f bc 00 26 f7 bc
       0.07948427 0.13127299 -0.012648419 -0.030169487
0003e0 00 25 e1 bb 96 c8 b2 3d d8 04 97 bc fb 76 20 3e
       -0.006870866 0.08729665 -0.018434927 0.15670387
0003f0 2b 36 0f 3e f0 75 95 3c 6e 91 db 3d 12 3a a7 3d
       0.13985507 0.018244714 0.10721098 0.08165373

6 f4 [32]
000000 d1 14 19 3e d1 df d3 bd 59 a7 8e bd 71 37 16 3e
       0.14949347 -0.10345424 -0.06965513 0.14669587
000010 4a 68 05 be 40 b0 10 3b 5d fe ef bd 1e ff a6 3d
       -0.13028064 0.002207771 -0.11718438 0.081541285
000020 e6 35 b0 bd 0f 92 00 be 08 88 0c be fe 9c b7 3d
       -0.0860403 -0.12555717 -0.13723767 0.08965491
000030 0d 6d a6 bd a9 d8 10 3e 98 45 21 3d f1 4f 0c 3e
       -0.081262685 0.1414515 0.03937301 0.1370237
000040 05 cc 2d 3e 5d f6 ed bd 5a dc b1 3d 7e 30 da 3d
       0.16972359 -0.11619256 0.08684607 0.106537804
000050 d0 82 98 bd 0e c2 ec 3d d9 c1 02 be 09 99 ce bd
       -0.074468255 0.115604505 -0.1276926 -0.10087783
000060 64 26 ad bd bc b8 5a bd 96 9f 33 be 4a 0d dc 3d
       -0.08454588 -0.053398833 -0.17541346 0.10744722
000070 15 fc 30 3e a4 d8 28 3d ca d1 cf 3d 00 91 44 ba
       0.17283662 0.04122223 0.10147436 -0.00074984133

7 f4 [5, 32]
000000 18 4f 1f be f6 d1 a0 3d 84 d7 0d be d5 e9 8d bd
       -0.15557516 0.07852547 -0.13851744 -0.069293655
000010 7c d9 00 be 9b 49 1b 3e f5 1c 13 3e 38 19 48 3d
       -0.12582964 0.15164797 0.14366515 0.048852175
000020 7b e2 11 be 96 30 c9 3d b0 68 4b bd 3b a9 11 3e
       -0.14246552 0.0982372 -0.049660385 0.14224713
000030 c8 cd 4c 3d d2 c5 d7 3d 8b 0c 07 be fd 57 b1 bd
       0.050000936 0.10535778 -0.13188379 -0.086593606
000040 4a c5 73 bd e8 79 89 3d fe 86 0b be ae 79 9b bd
       -0.05951432 0.06712705 -0.13625714 -0.07591568
000050 59 21 08 be b8 91 08 bd bf 4d 2c be ca d3 b1 3d
       -0.13293971 -0.033342093 -0.16826533 0.08682974
000060 81 4b 30 be b1 5d 2b 3e 98 c8 28 3d b8 cc e1 bd
       -0.17216302 0.16734959 0.041206926 -0.11025375
000070 e7 76 ff bd 42 1d be 3d 09 e7 22 be 39 a6 08 be
       -0.12473851 0.09282924 -0.15908445 -0.13344659
000080 90 da 0b 3d 3f 2e 21 3e 4c 1b 35 3d 9c a1 76 3d
       0.034143984 0.15740298 0.044215485 0.060212716
000090 86 46 d5 3d 5c ab 08 be 98 10 06 3d b4 67 d2 bd
       0.10413842 -0.13346618 0.03273067 -0.10273686
0000a0 4a 9f 28 be 6d 72 04 3e ca 7b ae bd c4 58 93 bd
       -0.16467014 0.12934275 -0.08519705 -0.07194665
0000b0 62 d9 eb bd 60 9b ba bb e2 1a 10 be f7 ef c3 bd
       -0.11516072 -0.0056947917 -0.14072755 -0.09567254
0000c0 55 06 15 3e f2 38 a5 3d 18 c1 3b 3d ba f8 8c 3d
       0.14553197 0.08067502 0.045838445 0.06883378
0000d0 20 2e 06 3c 94 ae 12 bd 36 62 af 3d 32 df d8 bd
       0.008189708 -0.035811022 0.08563654 -0.10589446
0000e0 2f cf a8 bd b2 8b bf 3d d1 23 2e 3e 98 69 1c be
       -0.08242642 0.09352817 0.1700585 -0.15274656
0000f0 e0 42 d9 bd 30 94 35 3d 10 32 99 bd 40 9a 54 bc
       -0.106084585 0.044330776 -0.07480252 -0.012976229
000100 16 69 f8 bd 50 d8 42 3d b3 ed 84 bd b8 ef d8 3c
       -0.121294186 0.047569573 -0.0649065 0.026481494
000110 f0 45 4d bc 68 e3 f9 3c 78 1d f2 bd 76 d4 94 3d
       -0.012528881 0.030503944 -0.11822027 0.07267086
000120 aa 40 bc bd 98 91 3b 3d 1e e4 b2 3d 6e 55 db 3d
       -0.09192021 0.045793146 0.08734916 0.10709654
000130 9e aa de bd d4 34 10 3d 38 21 50 3d 20 58 f5 bc
       -0.108723864 0.03520663 0.05081293 -0.029949248
000140 3d e4 00 3e 80 f9 b7 3b ca 45 b4 3d d8 e0 a0 3c
       0.12587066 0.0056144595 0.08802374 0.019638464
000150 cb ec 11 3e b0 c6 27 bd 70 e3 b6 bc 3f 23 30 3e
       0.14250486 -0.040960968 -0.022325248 0.17200945
000160 7b 85 80 bd ef 24 08 be ea fa a1 3d df 13 d3 bd
       -0.062754594 -0.13295339 0.07909186 -0.103065245
000170 e0 c5 6e 3c b4 1b 59 3d 59 4c 0a 3e e4 3d 1a be
       0.014573544 0.053004935 0.13505687 -0.15062672
000180 2f 32 10 3e 98 a9 7c bd d8 63 8f bc f6 d9 26 be
       0.14081644 -0.061685175 -0.017503664 -0.16294083
000190 17 36 1c 3e c6 01 ee 3d 7c 08 2c be 23 12 e2 bd
       0.15255009 0.11621432 -0.16800112 -0.110386156
0001a0 06 db 97 3d ac bb 25 be d2 6b 1d be b0 00 94 bc
       0.07414822 -0.16184872 -0.15373161 -0.018066734
0001b0 ef 4e 24 3e bf 27 d6 bd 00 76 9e 39 83 52 1e 3e
       0.16045736 -0.104568 0.00030224025 0.15461163
0001c0 c0 08 96 bb fd 90 ee bd 60 eb 75 3c 9a 1e 07 be
       -0.00457868 -0.11648748 0.015009731 -0.13195267
0001d0 55 3d 12 be 3e 8e 8d 3d 7f 01 1a be d8 df c8 bd
       -0.14281209 0.06911896 -0.15039633 -0.0980832
0001e0 e1 86 b5 bd 03 f1 c2 bd 9f 16 15 3e 90 33 21 be
       -0.08863617 -0.095186256 0.1455941 -0.15742326
0001f0 c8 5c e6 3c 39 23 17 3e cb 87 18 3e 60 95 f4 3b
       0.028120413 0.1475953 0.14895551 0.007464096
000200 38 57 9d bc cf fa 26 3e 04 86 3e bd 78 a7 8c 3d
       -0.019206628 0.16306613 -0.046514526 0.0686788
000210 6a fb ee 3d ba 7d d8 bd dd 40 33 be 49 a5 2d 3e
       0.11669047 -0.105708554 -0.17505212 0.16957583
000220 2e 7b df bd fd 09 b7 bd 40 95 cb 3c 50 1c 5e 3d
       -0.109121665 -0.08937452 0.024851441 0.05422622
000230 d3 a7 ab bd 60 03 e2 bc f0 eb 27 3c 5e 57 b6 bd
       -0.08381619 -0.0275895 0.010249123 -0.08903383
000240 80 65 a7 3c 7d 4e 30 3e d0 19 42 bd 94 00 3e bd
       0.020434141 0.17217441 -0.047387898 -0.04638727
000250 38 42 2a bd 2c b7 77 bd 22 7d 07 be 66 45 5d bd
       -0.041567057 -0.06047742 -0.13231328 -0.05402126
000260 b1 a2 0c 3e 4e 86 9f 3d f9 d7 28 be 91 b0 1a 3e
       0.13733937 0.077892885 -0.16488637 0.15106417
000270 78 65 d4 3c 66 94 88 3d ab 15 32 3e b0 e2 06 be
       0.02592729 0.0666893 0.17391078 -0.13172412

8 f4 [5]
000000 3b bc 18 be 79 ce d5 bd 90 a9 7f 3d 00 50 6e 3a
       -0.14915554 -0.10439772 0.062417567 0.00090909004
000010 8e 02 90 3d
       0.07031737
