onnx-to-hls/example-onnx-model-files/two_layer_keras.onnx (onnx, 2242 bytes, 3 tensors)

W f4 [10, 32]
000000 09 4f 70 3e 77 5c 40 be 49 73 07 3d 56 49 47 bd
       0.2346765 -0.18785273 0.03306893 -0.048653923
000010 6c f1 bf be 36 86 25 3f 03 e3 4c 3d 72 41 a0 3e
       -0.37488878 0.64657915 0.050021183 0.3129993
000020 b9 64 ad 3e 67 f1 f4 bd ab 4a d6 bd e4 ea 8a bb
       0.33865908 -0.11960106 -0.104634605 -0.004239427
000030 44 65 86 3d f1 a3 48 3e 37 f0 dc 3c 98 bc 84 3e
       0.06562284 0.19593789 0.026970012 0.25925136
000040 13 16 20 bd 74 b5 de bd a2 1b 9f be 6c 68 09 3e
       -0.03908355 -0.10874453 -0.3107577 0.1341874
000050 fb 1f a1 3e 1f 51 7b 3d 51 ee 1b bf 4b 66 5a 3e
       0.31469712 0.06135666 -0.60910517 0.21328084
000060 11 db fb 3c 07 d0 e4 3d 1a e7 ac 3e ea 73 01 bf
       0.030744107 0.111724906 0.33770066 -0.50567496
000070 2e e8 eb 3e 7b 68 14 3e eb 23 17 3f a4 d9 0e be
       0.46075577 0.14492981 0.5903918 -0.13950211
000080 8e 8c fa 3e 71 cc 6d 3f 44 ff 99 bd 3d b0 da 3d
       0.4893536 0.9289008 -0.07519391 0.10678146
000090 c5 08 33 3e 28 c7 38 3d df cc 44 bc c8 f3 88 3e
       0.17483814 0.045111805 -0.012011736 0.2674849
0000a0 9b a1 5e 3e de 5f 5c bd 53 76 05 3f 52 e0 3d 3f
       0.21741335 -0.053802364 0.52133673 0.7417041
0000b0 a2 ac 51 3e 7d 6c 42 3e bb e4 31 3f de db 40 bd
       0.2047601 0.18986697 0.6948964 -0.04708468
0000c0 ad d8 7a bd c9 94 b0 be e3 01 75 be 4c f0 4b 3e
       -0.061241794 -0.34488514 -0.23926501 0.19915885
0000d0 f0 40 23 be 1e 01 79 3e 19 72 0f 3f cd 29 68 bd
       -0.1594274 0.24316832 0.56033474 -0.05668049
0000e0 08 2c 9a be 31 c1 0f 3e 7b 9b 76 3f 9e 91 85 bb
       -0.30111718 0.1403854 0.96330994 -0.004076197
0000f0 08 dc 90 3c 59 11 18 bf c5 6d d9 be a5 88 4e 3e
       0.017683044 -0.5940147 -0.4246656 0.20169313
000100 a5 8b a9 bf 08 0c 39 bf c6 45 90 bf 1f b4 49 3e
       -1.3245741 -0.72283983 -1.1271293 0.19697617
000110 14 cc d4 be e6 95 43 3f ae c9 a7 be ea 27 b4 be
       -0.4156195 0.764006 -0.32771057 -0.35186702
000120 bc 1c ce 3c 72 70 b3 bf bb b8 d0 be 08 85 47 bf
       0.025160186 -1.401869 -0.40765938 -0.77937365
000130 1d cf 3d be 8f a1 b4 be cc c0 cb be 45 91 99 3e
       -0.18536039 -0.3527951 -0.3979553 0.29993644
000140 10 f3 17 3f 96 f8 61 3e 46 82 67 bf b7 8b ce 3e
       0.5935526 0.22067484 -0.90433156 0.4034097
000150 b3 09 27 3f 63 9d 9b 3e 22 8d 6c be b8 fd 2d 3f
       0.65249175 0.30393514 -0.23100713 0.6796527
000160 1c df 2f bf 65 8c 09 3f 09 99 e4 3e b1 28 cf 3e
       -0.6869981 0.5372985 0.44648007 0.40460733
000170 4b 46 1d be b6 27 6d bd 16 4b 1e be 25 44 aa bb
       -0.15358846 -0.0578992 -0.1545833 -0.0051961117
000180 05 7e 77 bf 10 d4 3a bf a4 11 97 3d 63 c5 02 be
       -0.96676666 -0.7297983 0.073764116 -0.1277061
000190 c9 c2 2f be 26 4e 3c 3f 76 4c f5 3e b8 e0 d1 bd
       -0.17164148 0.73556745 0.47909898 -0.1024794
0001a0 8b a2 26 3e c1 d4 82 be 31 56 b5 3c 14 59 06 bf
       0.16272943 -0.25552943 0.022135826 -0.5247967
0001b0 1a 95 44 bf c1 43 10 be 34 80 c0 3e 58 9f f8 3e
       -0.7679001 -0.14088346 0.3759781 0.4855907
0001c0 a9 81 ea 3e ca 2e 1a bf 56 33 04 bf e4 e8 9c be
       0.45802048 -0.60227644 -0.5164083 -0.3064643
0001d0 fa db 98 3e ad 0e 11 bf 41 29 10 3e 86 b1 88 be
       0.2985533 -0.5666302 0.14078237 -0.2669794
0001e0 2d c1 9f be 9d 21 b8 3e a0 bf e1 bc ab 19 2e 3f
       -0.3120207 0.35963145 -0.027557194 0.68007916
0001f0 63 45 3d bd 1f 4d 12 bf 68 9b 1e be 58 ea 98 3e
       -0.04620875 -0.5714893 -0.1548897 0.2986629
000200 3d 1c 4b 3d a0 45 a1 3e 97 37 60 be b0 36 2d 3f
       0.049587477 0.31498432 -0.21896206 0.6766157
000210 54 ec 68 3e 80 0e bc be 49 3d 31 3e 6b 58 b0 3e
       0.22746402 -0.36729813 0.17308535 0.34442458
000220 2a 38 2b 3f bb cd be be c8 43 3e bc 52 b4 95 be
       0.66882575 -0.37266335 -0.01161284 -0.29239136
000230 69 54 bc 3e b7 71 93 3e b9 17 0b 3e 51 3d b6 be
       0.3678315 0.28797695 0.13583268 -0.35593656
000240 bf d2 81 be 32 6a 6f 3e 5c 7e 39 bf 78 2d 3f 3e
       -0.253561 0.23380354 -0.72458434 0.18669689
000250 c7 43 57 3e 49 ce 38 3e 29 84 ac be e7 c9 3e be
       0.21021949 0.18047442 -0.3369458 -0.18631707
000260 e7 21 e6 3d 3b d0 c2 be 52 ac 6e be 4b 3a a8 bd
       0.11236935 -0.38049492 -0.23307922 -0.082142435
000270 c6 d5 f9 be 1e 99 b4 3e ca 88 ff 3e ba 2c 50 be
       -0.4879591 0.3527307 0.4990905 -0.20329562
000280 1d 84 c6 3c 96 bc b0 be 32 23 d4 be 58 33 25 3f
       0.024232918 -0.3451888 -0.41433102 0.6453147
000290 7f ca 22 bf 6a 2e bb 3b 3b 53 0c be d4 75 3b be
       -0.63590235 0.00571232 -0.13703625 -0.18306667
0002a0 0c 3c 09 3e 7f 5d 14 3e 9d 63 08 3e d2 9b 98 3e
       0.13401812 0.14488791 0.1331925 0.2980638
0002b0 a0 27 09 bd e2 a9 3a be 38 0e 9d be b5 dc 91 be
       -0.033485055 -0.18228868 -0.3067491 -0.284887
0002c0 b9 5f 0f 3f 5f f4 03 3f c9 ec 98 be 77 2d 11 3f
       0.56005436 0.51544756 -0.29868153 0.5671
0002d0 ea 56 00 3e 6e 1b bf 3d 9f e1 af 3e 1a 19 d7 3e
       0.12533155 0.09331404 0.34351823 0.42011338
0002e0 db 76 6a be 8d 14 bb 3e 10 56 07 be 85 70 5f be
       -0.22896902 0.36539117 -0.13216424 -0.21820267
0002f0 24 9d 89 be d0 ef a4 be 48 fe fd be e0 13 14 3e
       -0.268777 -0.32214212 -0.49608064 0.14460707
000300 a7 2b 2f bd ae 0d 1c 3f f3 f2 af be 5c 6f 26 be
       -0.04276624 0.60958374 -0.34365043 -0.16253418
000310 4c df 9d 3e 37 67 11 bd 9b 90 fb 3e 71 27 64 3e
       0.30834424 -0.035498824 0.49133763 0.2228067
000320 4f f6 81 3e 08 b9 ce 3e 5a d6 1a 3f 09 91 16 3f
       0.2538323 0.40375543 0.60483325 0.58815056
000330 1f 19 6b 3e 11 00 a6 bd 04 6e 91 3e 5a 31 d0 be
       0.22958802 -0.081054814 0.28404248 -0.40662652
000340 57 58 1b bf 3a a8 34 bf cc 1e 15 3f 83 6e 1e 3f
       -0.6068167 -0.70569193 0.5825012 0.6188738
000350 0d 6f ca be 02 33 22 3e 8a 6c 8a bc 1b d5 25 3e
       -0.3953785 0.1583977 -0.016897459 0.16194575
000360 34 2f 7b 3e d0 96 1f 3f 06 95 35 be 0a 22 27 3c
       0.24529725 0.62339497 -0.17732629 0.010200987
000370 01 3c 42 3f c5 cb f0 be 3b f2 2b be 25 e0 7f bf
       0.7587281 -0.47030464 -0.16791622 -0.9995139
000380 29 23 10 3f a4 68 9f 3e 0a f4 39 3f 80 e1 47 be
       0.5630365 0.31134522 0.72638 -0.19519615
000390 ee ee 62 3e 2a e0 df be a0 10 7a be d6 3b 80 be
       0.22161457 -0.4372571 -0.24420404 -0.2504565
0003a0 62 9b 5a be a5 2d f1 3d be 36 0c 3f 34 80 39 3e
       -0.21348336 0.11776284 0.5477103 0.18115312
0003b0 56 70 5c bd 82 e8 b7 3d a4 4c 03 bb c4 40 36 3e
       -0.05381807 0.08979894 -0.0020034695 0.17798144
0003c0 e7 9b 9e be c5 5e 27 3c 2d 6e f8 3d 39 35 1c 3f
       -0.3097832 0.010215466 0.12130389 0.6101871
0003d0 cb 75 d2 be 54 5d dd 3e 93 bb 38 3e 6e b0 c3 be
       -0.41105494 0.43235266 0.18040304 -0.38220543
0003e0 aa d9 95 3e fb 03 c7 be fd 46 2a 3e 61 2d ef be
       0.29267627 -0.38870224 0.16628642 -0.4671431
0003f0 d6 a3 1f 3f 18 ad 8d be 34 b2 94 be a1 7e f8 be
       0.6235937 -0.27671123 -0.29042208 -0.4853411

B f4 [32]
000000 aa bb 57 3f 08 6c 4a 3f fb 3d 26 3f 02 37 90 3d
       0.8427073 0.7907109 0.64938325 0.07041742
000010 f9 3b d1 3e 10 7d 34 39 1b 41 c3 be 13 ff f2 3e
       0.40866068 0.00017212727 -0.3813561 0.4746023
000020 e5 27 9d 3b 5d 44 67 3f 80 f0 d3 3e f3 59 95 3e
       0.0047960156 0.9033869 0.41394424 0.29170188
000030 32 58 3f 3e 80 68 46 3f 02 0d 7b 3f b5 40 09 bd
       0.18685988 0.77503204 0.98066723 -0.033508975
000040 9b ce 0b 3e d4 07 02 bf aa 75 8f 3e f6 77 28 be
       0.13653032 -0.50793195 0.28019458 -0.16452011
000050 7b 9c eb 3d 84 a6 ec 3e e0 b6 5c 3d 65 72 8f be
       0.11504456 0.4622079 0.05388534 -0.28016964
000060 e1 f7 5c 3f 32 01 b0 bb 88 b4 dd 3e ab e1 df 3d
       0.86315733 -0.0053712362 0.43301797 0.109317146
000070 d5 65 e6 3e b2 17 8a 3e 19 d6 01 3f 5c 3f c8 bc
       0.44999567 0.26971203 0.5071731 -0.024444275

W1 f4 [32, 1]
000000 41 a5 90 bf 86 5f 1d bf a0 72 51 bf 3c c0 1d be
       -1.1300431 -0.6147388 -0.8181553 -0.15405363
000010 4e 94 8f 3e 16 f0 21 3f 0a c8 a5 3f f9 35 1e bf
       0.28042835 0.6325697 1.2951672 -0.61801106
000020 e6 f4 5f be 6f c8 d0 bf 53 a7 0d 3f 2c 2a 9d 3f
       -0.21870765 -1.6311167 0.5533344 1.2278495
000030 16 47 ab bf 0f 0d 99 3f 03 ae 1e bf 2c 56 96 3e
       -1.3381069 1.195711 -0.6198427 0.2936262
000040 0f 07 fb 3e 9a 66 17 bf 81 3d 76 bf 41 f6 8d be
       0.49028823 -0.5914093 -0.961876 -0.2772694
000050 dd 65 bb 3e e3 9a dc be be a9 fe bd 53 40 f9 be
       0.36601153 -0.4308692 -0.124347195 -0.48681888
000060 41 42 cb be f1 56 da be 81 ee 41 3f f9 ec c9 3e
       -0.39698985 -0.42644456 0.75754553 0.39438608
000070 be 1c 69 3f f7 1c 10 bf 8f 42 4d be b1 1d 52 3f
       0.9105948 -0.56294197 -0.20044921 0.82076555
