onnx-to-hls/example-onnx-model-files/two_layer_pytorch.onnx (onnx, 8688 bytes, 3 tensors)

1 f4 [32, 10]
0	0xbe770001	-0.24121095
1	0x3d7931b0	0.0608384
2	0x3e56cde6	0.20976982
3	0x3dec72c8	0.1154533
4	0x3e61b316	0.22040972
5	0x3e88b5f7	0.26701328
6	0x3da55db4	0.08074513
7	0x3e5ff082	0.2186909
8	0xbe2d7710	-0.1693995
9	0x3e6fda9e	0.2342324
10	0x3e11dc22	0.1424413
11	0x3e6b6b8e	0.22990248
12	0x3dc90cd0	0.09816897
13	0x3e9376c9	0.28801563
14	0x3e0dffb0	0.13867068
15	0x3e912d1b	0.28354725
16	0x3e652146	0.22375974
17	0xbd9b8f82	-0.07595731
18	0x3e49a8ee	0.19693348
19	0xbe8b9a53	-0.27266178
20	0xbc2042c0	-0.009781539
21	0x3d3b45f0	0.045720994
22	0xbe2c3ef8	-0.16820896
23	0x3e016ade	0.12638423
24	0x3d4fc748	0.05072716
25	0x3e85d8e3	0.26142034
26	0xbe32c639	-0.17458428
27	0xbe2e6872	-0.1703203
28	0x3e75d532	0.24007109
29	0x3e8dd68b	0.27702746
30	0xbe9606c0	-0.29302025
31	0xbe4329d5	-0.19058926
32	0x3e1827a4	0.14858872
33	0xbdcf849a	-0.101327136
34	0x3e819359	0.2530773
35	0x3e46908a	0.19391075
36	0xbc103dc0	-0.008803785
37	0x3e8fba15	0.28071657
38	0x3dae7d9c	0.08520052
39	0xbdd51fec	-0.10406479
40	0x3e4e1302	0.20124438
41	0x3e8270c9	0.25476673
42	0xbcdb5ea0	-0.02677852
43	0xbe8198e0	-0.25311947
44	0x3d26dd10	0.040738165
45	0xbe5670e4	-0.20941502
46	0xbe45f620	-0.1933217
47	0x3e17c4bc	0.14821142
48	0x3c5a1aa0	0.013312012
49	0x3e03d8ac	0.12875623
50	0xbd9175cc	-0.07102546
51	0xbe701816	-0.23446688
52	0xbe2b7d1c	-0.16746944
53	0x3e1f258c	0.15541667
54	0xbe983bb5	-0.29733053
55	0x3d8a1fcc	0.06744346
56	0x3e778206	0.24170694
57	0x3d68b248	0.056810647
58	0x3e1ef102	0.15521625
59	0x3e65f0d6	0.22455153
60	0x3daff760	0.08592105
61	0xbd8711b0	-0.065951705
62	0x3dfc38ac	0.12315497
63	0xbd2df5a8	-0.042470604
64	0x3d22b8c0	0.039726973
65	0x3e84c731	0.2593322
66	0xbe0a2b15	-0.13492997
67	0x3e091b50	0.13389325
68	0xbe0e16ee	-0.13875934
69	0x3d4f5ab8	0.050623626
70	0xbdec5e48	-0.1154142
71	0xbd235738	-0.0398781
72	0xbe59d9b1	-0.21274449
73	0xbe77f3e5	-0.24214132
74	0xbe4b821a	-0.19873849
75	0x3e5e3296	0.21698985
76	0xbd806dac	-0.06270918
77	0xbe4aeeb8	-0.19817626
78	0xbd3906b8	-0.045172423
79	0xbe6ed030	-0.23321605
80	0xbe2a00c2	-0.16601852
81	0xbe8e590c	-0.27802312
82	0xbcb03780	-0.02151084
83	0x3bb55e80	0.005534947
84	0x3e8a4715	0.27007356
85	0x3c901180	0.01758647
86	0xbe4fb2c4	-0.20283037
87	0xbde71e0a	-0.11285026
88	0x3e1a418c	0.15064067
89	0xbcb46620	-0.022021353
90	0x3e5b94aa	0.2144343
91	0xbe13da70	-0.14438796
92	0xbdcdc3ae	-0.100470886
93	0x3de57578	0.11204046
94	0x3e1c8f7a	0.15289107
95	0xbe8c81e1	-0.2744284
96	0xbc2c0980	-0.010500312
97	0xbdbf6f8e	-0.09347449
98	0x3e84da83	0.2594796
99	0x3e60fbaa	0.21971002
100	0xbd8dfc8c	-0.06932935
101	0xbdce2754	-0.10066095
102	0xbe4c6ee0	-0.1996417
103	0xbdcf21d2	-0.101138726
104	0xbe039fae	-0.12853882
105	0x3dcb4814	0.09925857
106	0xbd698dc0	-0.05701995
107	0x3e862a83	0.2620431
108	0xbe848844	-0.25885212
109	0x3e3fc6e2	0.18728212
110	0x3e9f34dd	0.3109502
111	0x3e6512de	0.22370479
112	0x3e393c68	0.1808945
113	0x3e4262be	0.1898298
114	0x3dbd3844	0.092392474
115	0xbe8e7cb1	-0.27829507
116	0xbe9308d3	-0.2871767
117	0x3dcc4714	0.099744946
118	0x3e502dce	0.20329973
119	0x3c4fe7a0	0.012689501
120	0x3de22f70	0.11044204
121	0x3dc12b20	0.094320536
122	0xbe20b539	-0.15694131
123	0xbdf506ce	-0.119641885
124	0x3d342418	0.043979734
125	0x3e3be6e8	0.18349802
126	0xbe3c136d	-0.18366785
127	0xbe52de2f	-0.20592569
128	0x3df37f08	0.11889464
129	0x3e1849ee	0.14871952
130	0x3e933e7b	0.28758606
131	0x3e326fc0	0.17425442
132	0xbe1e5cd6	-0.15465102
133	0x3e160aec	0.14652604
134	0xbde910e8	-0.11380178
135	0x3cb45000	0.022010803
136	0x3e80fc51	0.25192502
137	0xbe97ae0f	-0.29624984
138	0xbdd5cc3a	-0.10439344
139	0x3e354820	0.17703295
140	0xbe0a48b3	-0.13504295
141	0x3d913ffc	0.07092282
142	0xbdf77d0a	-0.12084396
143	0xbca36710	-0.019946605
144	0x3e6f4042	0.23364356
145	0xbe4e7837	-0.20163046
146	0x3e8b5117	0.27210304
147	0xbe753ecb	-0.23949735
148	0xbe26628e	-0.16248533
149	0x3ca4a140	0.020096421
150	0xbe55a2c8	-0.20862877
151	0xbe105c9a	-0.14097825
152	0xbe9e4c82	-0.30917746
153	0x3e31808a	0.1733419
154	0x3e7d5da2	0.2474275
155	0x3d819b6c	0.063284725
156	0x3e93bbbd	0.2885417
157	0x3e57a0ee	0.21057484
158	0x3ccf1860	0.025280178
159	0x3cfa0580	0.0305202
160	0xbe687c63	-0.227037
161	0xbb294e00	-0.0025833845
162	0x3e0b7f4c	0.13622779
163	0x3e90dac7	0.28291914
164	0xbd0fff60	-0.035155654
165	0x3e858ebb	0.26085457
166	0x3e9d22a5	0.30690494
167	0x3e3db54e	0.18526193
168	0xbe9c34d7	-0.30509064
169	0x3e14229e	0.1446633
170	0x3e0ed4d6	0.13948378
171	0x3e10a300	0.1412468
172	0xbe49775b	-0.19674437
173	0x3d48c030	0.04901141
174	0xbdad0e1c	-0.08449957
175	0xbe866c0f	-0.26254317
176	0xbdeca2e2	-0.11554505
177	0x3e6308a2	0.22171262
178	0x3e92de55	0.2868525
179	0xbe7c3e71	-0.24633195
180	0x3e44650e	0.19179174
181	0x3ea186c5	0.31548133
182	0x3e2a291c	0.16617244
183	0xbddbe28e	-0.10736571
184	0xbde19ad4	-0.11015859
185	0x3e614fe6	0.22003135
186	0x3c2cbc20	0.010542899
187	0x3e74ed32	0.23918608
188	0x3e448a4e	0.19193384
189	0x3e336726	0.17519817
190	0xbe956a52	-0.29182678
191	0x3e7316fe	0.2373924
192	0x3bb49140	0.005510479
193	0x3e64480e	0.22293112
194	0x3e74cf6a	0.23907247
195	0x3ddb1d0c	0.106988996
196	0x3dcf476c	0.101210445
197	0xbe8cdd79	-0.2751272
198	0x3e4eac0e	0.20182821
199	0x3e99e71b	0.30059132
200	0xbcc16740	-0.023608804
201	0x3e65758a	0.22408119
202	0xbcc20250	-0.023682743
203	0xbe119608	-0.14217389
204	0xbe1a2052	-0.15051392
205	0x3de7eba4	0.11324242
206	0x3cff7ff0	0.031188935
207	0xbe38adc0	-0.1803503
208	0x3d99da70	0.07512367
209	0x3ca840c0	0.020538688
210	0x3c5dd5e0	0.013539761
211	0x3cd83450	0.026392132
212	0xbe7852b2	-0.24250296
213	0x3e64c97e	0.22342488
214	0x3e5d16ce	0.2159073
215	0xbe37acf2	-0.17937067
216	0x3da3ebb4	0.08003941
217	0xbc87f300	-0.016595364
218	0x3d613050	0.054977715
219	0x3e8e1759	0.27752188
220	0x3e96f4a5	0.29483524
221	0x3deb2114	0.114809185
222	0xbe3bfb97	-0.18357693
223	0xbe52ab39	-0.20573129
224	0x3e8d0def	0.27549693
225	0xbe95ead8	-0.29280734
226	0xbd9cb11e	-0.0765097
227	0x3e6884aa	0.22706857
228	0xbdf98c04	-0.12184909
229	0xbe1dac1a	-0.15397683
230	0x3d81b27c	0.06332871
231	0x3cb42f70	0.021995276
232	0x3e969577	0.29410908
233	0xbe1ed475	-0.15510733
234	0x3ddd5634	0.108074576
235	0xbe41b8d8	-0.18918169
236	0xbd8aeb88	-0.06783205
237	0x3d316c88	0.043316394
238	0x3e99989f	0.29999253
239	0xbe5268a3	-0.20547728
240	0xbe34b248	-0.17646134
241	0xbcabcbe0	-0.020971239
242	0x3cb01a10	0.021496803
243	0xbea135a3	-0.31486234
244	0x3e1ee222	0.1551595
245	0x3d2267f0	0.039649904
246	0x3d595e28	0.05306831
247	0x3e3c59a2	0.18393567
248	0x3daa0100	0.08300972
249	0x3e5619a6	0.20908222
250	0xbe47d24e	-0.19513819
251	0xbd368c58	-0.044567436
252	0xbe66d1c4	-0.22540957
253	0xbdec4228	-0.11536056
254	0x3e592c3e	0.21208283
255	0xbd9c888a	-0.0764323

2 f4 [32]
0	0xbe9836aa	-0.29729205
1	0xbe729907	-0.23691188
2	0xbdb54292	-0.08850588
3	0x3d58ae00	0.052900314
4	0x3e9cd089	0.3062785
5	0x3ddfb2e8	0.109227955
6	0xbdcf9cd6	-0.10137336
7	0x3e9fcc8d	0.31210747
8	0x3de871c8	0.11349827
9	0xbccb64e0	-0.024828374
10	0xbd4b0f18	-0.04957494
11	0x3e602a56	0.2189115
12	0x3e2970fc	0.16547006
13	0xbd93f628	-0.07224685
14	0xbe726cba	-0.23674288
15	0xbd7bc7a0	-0.061469674
16	0x3cd8b220	0.026452124
17	0xbe78da4a	-0.2430202
18	0xbdf7184e	-0.120651826
19	0x3e8760b1	0.26440957
20	0xbe09e3bc	-0.1346578
21	0x3d14ae40	0.03629899
22	0xbe769484	-0.24080092
23	0xbe881521	-0.2657862
24	0x3e89a70d	0.26885262
25	0xbe269464	-0.16267544
26	0x3ccd46a0	0.02505809
27	0x3d108920	0.035287023
28	0x3d314ed8	0.043288082
29	0xbe56e22e	-0.20984718
30	0x3e962d75	0.29331556
31	0xbcfd0c80	-0.03088975

3 f4 [1, 32]
0	0x3dc42576	0.095774576
1	0x3d00f204	0.031480804
2	0xbd17bfd8	-0.03704819
3	0x3cb2bb60	0.021817863
4	0x3e154557	0.14577232
5	0xbd7e0b10	-0.06202227
6	0xbe01b674	-0.12667257
7	0x3d96a80a	0.0735627
8	0xbe20700b	-0.15667741
9	0x3e1488a3	0.14505248
10	0xbe305433	-0.1721962
11	0xbc2ef820	-0.010679275
12	0xbdfe2e84	-0.12411216
13	0xbc49ff30	-0.012328908
14	0xbd800839	-0.06251568
15	0x3e19b045	0.15008648
16	0x3d1d6ab8	0.038431853
17	0x3dd41af2	0.10356702
18	0xbd50bd14	-0.05096157
19	0x3d11ff2c	0.03564374
20	0x3e236b83	0.15958981
21	0x3d1377d0	0.036002934
22	0xbdc2a4d2	-0.09504093
23	0x3e3383a3	0.17530684
24	0xbd46bcd8	-0.04851994
25	0x3d2cd994	0.042199686
26	0xbd60d75a	-0.054892875
27	0xbd936948	-0.07197815
28	0x3d094aac	0.03351848
29	0xbc598bd0	-0.013277963
30	0x3b0911c0	0.002091512
31	0x3d922308	0.07135588
