example-models/onnx/three_layer_bn_pytorch.onnx (onnx, 42287 bytes, 24 tensors)

1 f4 [64, 16]
0	0x3cf714a0	0.030161202
1	0xbdc88720	-0.09791398
2	0xbe727230	-0.23676372
3	0xbd375490	-0.04475838
4	0xbd54cfb8	-0.05195591
5	0xbe7893bc	-0.24275106
6	0xba16c600	-0.000575155
7	0xbdfd708c	-0.12374982
8	0x3e75dfc0	0.24011135
9	0xbdc78368	-0.09741861
10	0xbc825710	-0.015910655
11	0x3e7d701c	0.24749798
12	0x3dba63d0	0.09101069
13	0x3c6ecde0	0.014575452
14	0x3dc1b4b0	0.094582915
15	0xbe4288ec	-0.18997544
16	0x3d3dabc8	0.0463064
17	0x3cc57d40	0.024107575
18	0x3de24e80	0.11050129
19	0xbe7ae16e	-0.24500057
20	0x3dece4a4	0.11567047
21	0xbc8f7650	-0.01751247
22	0x3e6a0d98	0.22856748
23	0xbe3d3316	-0.18476519
24	0x3e32e0dc	0.1746859
25	0x3e5129f2	0.20426157
26	0x3e65be74	0.22435933
27	0xbd52f8e0	-0.051506877
28	0xbe3d55ea	-0.18489805
29	0xbdad4800	-0.084609985
30	0x3d10d7d8	0.035362095
31	0x3d909ddc	0.07061359
32	0xbd9c652c	-0.076364845
33	0x3c277240	0.01022011
34	0x3dda65e4	0.10663965
35	0x3e62dc14	0.22154266
36	0x3d673d18	0.056454748
37	0xbd448dd8	-0.047986835
38	0xbdd2d524	-0.102945596
39	0x3dc74550	0.09730017
40	0xbd9cad40	-0.07650232
41	0x3e25d3f2	0.16194132
42	0xbde48148	-0.11157471
43	0x3df24478	0.11829466
44	0x3d8d5540	0.06901026
45	0x3ca95150	0.020668656
46	0x3dcaf454	0.09909883
47	0x3d9aaf34	0.075529486
48	0xbe613c1c	-0.21995586
49	0xbd161c20	-0.036647916
50	0xbe411746	-0.18856534
51	0xbd2558c8	-0.04036787
52	0xbe2a79d8	-0.16648042
53	0xbe11c34c	-0.14234656
54	0x3d9120f8	0.070863664
55	0xbdf9b068	-0.1219185
56	0x3def2768	0.11677438
57	0xbc366c40	-0.011134207
58	0xbe1155ac	-0.14192837
59	0x3d161470	0.036640584
60	0x3c04f1a0	0.0081142485
61	0xbca0fa60	-0.019650638
62	0xbccc1170	-0.024910659
63	0x3e313fdc	0.17309517
64	0xbe273d10	-0.16331887
65	0xb9a32000	-0.00031113625
66	0xbd286430	-0.04111117
67	0xbe21e6b4	-0.15810663
68	0xbcc025b0	-0.02345547
69	0x3e3c9daa	0.18419519
70	0xbe37c9a6	-0.17948017
71	0x3e2e926c	0.17048043
72	0x3e49b1b0	0.19696689
73	0xbe711fce	-0.23547289
74	0xbd223e20	-0.03961003
75	0x3e3f4092	0.18676975
76	0xbce05790	-0.027385503
77	0xbc641120	-0.013920099
78	0xbd68a8e0	-0.056801677
79	0xbdb534f0	-0.08847988
80	0x3e5166ae	0.20449325
81	0x3e224c1a	0.15849343
82	0xbe22a25c	-0.15882248
83	0xbde82f70	-0.11337173
84	0xbe2da582	-0.16957667
85	0x3db311e4	0.08743647
86	0x3d74b6e8	0.059744745
87	0x3dc2b088	0.09506327
88	0x3e024b44	0.12724024
89	0x3e231eca	0.15929714
90	0xbe796476	-0.24354729
91	0xbe59a52c	-0.21254414
92	0xbe758a30	-0.23978496
93	0x3e0d9ce6	0.13829383
94	0xbd97d2e0	-0.07413268
95	0xbdde8850	-0.10865843
96	0xbd611048	-0.054947168
97	0xbd80514c	-0.06265506
98	0x3e00f678	0.1259402
99	0x3cc1b5b0	0.023646206
100	0x3e717764	0.235807
101	0x3e636e14	0.2220996
102	0x3cb7e070	0.022445887
103	0x3b9d05c0	0.004791945
104	0xbcc17280	-0.023614168
105	0x3e0c2628	0.1368643
106	0x3d9b70cc	0.07589874
107	0xbe474930	-0.19461513
108	0x3e04ca42	0.1296778
109	0xbe4ae2bc	-0.19813055
110	0xbb490380	-0.0030672252
111	0xbdb55698	-0.08854407
112	0x3e10eba0	0.14152384
113	0xbdf52f34	-0.11971894
114	0x3e725ca0	0.23668146
115	0x3e6406d6	0.22268233
116	0xbe3ee344	-0.18641382
117	0x3e21efb4	0.15814096
118	0x3e40cba0	0.18827677
119	0xbe2caf0a	-0.16863647
120	0xbe4481ca	-0.19190136
121	0xbe078100	-0.13232803
122	0x3c2740c0	0.010208309
123	0x3e59bb88	0.21262944
124	0xbc0d3420	-0.008618385
125	0xbda0aa04	-0.07844928
126	0xbde2ef6c	-0.11080822
127	0x3e3ad726	0.18246135
128	0xbd112830	-0.035438716
129	0x3cb7d700	0.022441387
130	0xbb57c900	-0.0032926202
131	0x3e1e6472	0.15468004
132	0xbdb83ae4	-0.089956075
133	0xbe42e78c	-0.1903364
134	0xbe4a9a24	-0.19785362
135	0x3bb469c0	0.0055057704
136	0x3e1c9cdc	0.15294212
137	0x3d950d5c	0.07277939
138	0x3e7db156	0.2477468
139	0xbe17808c	-0.1479513
140	0x3ccf4f40	0.025306344
141	0x3ddab5b8	0.10679191
142	0x3e72f5cc	0.23726577
143	0xbd8f2618	-0.06989688
144	0xbe7ef180	-0.24896812
145	0xbd8d60d4	-0.06903234
146	0xbe5b79ea	-0.21433225
147	0x3e42fcc0	0.19041729
148	0x3e12525e	0.14289233
149	0x3e0c49d8	0.13700044
150	0x3e13de2a	0.14440218
151	0x3e1d33f8	0.15351856
152	0x3d078448	0.033085138
153	0xbe1e94ce	-0.15486452
154	0xbd20a7c8	-0.03922251
155	0xbe1838dc	-0.1486544
156	0x3d8460c4	0.06463769
157	0x3e01bfe4	0.12670857
158	0xbcc2df20	-0.023788035
159	0x3e5d2b54	0.2159856
160	0x3dbcb9e8	0.09215146
161	0xbe0e7fae	-0.13915893
162	0xbe1be79c	-0.1522507
163	0xbe78872a	-0.24270311
164	0xbb9acf40	-0.004724413
165	0xbe2361f6	-0.15955338
166	0xbd1de9e0	-0.03855312
167	0x3e140a48	0.14457047
168	0x3dbe4b68	0.09291726
169	0xbd1c1070	-0.038101614
170	0xbd997d20	-0.07494569
171	0xbde9c4ec	-0.11414513
172	0x3e462a90	0.19352174
173	0x3dec1640	0.11527681
174	0x3e5b5ad4	0.21421367
175	0xbda08a1c	-0.07838842
176	0x3e58119a	0.21100464
177	0xbe513918	-0.20431936
178	0x3d165788	0.03670457
179	0x3dc74bc4	0.09731248
180	0x3e30f7fa	0.17282096
181	0x3dbb0948	0.0913263
182	0xbe1544e0	-0.14577055
183	0x3ddd6944	0.108110934
184	0xbe771a5e	-0.24131152
185	0x3dc4856c	0.09595761
186	0xbdbbfd90	-0.091792226
187	0xbe767c24	-0.24070793
188	0x3d1dc500	0.038517952
189	0x3e1bc4c8	0.15211785
190	0xbc715ee0	-0.014732093
191	0x3e3016f4	0.17196256
192	0x3e59d2b4	0.21271783
193	0xbe490c8c	-0.19633693
194	0x3e65a7ea	0.22427335
195	0xbe782ff6	-0.24237046
196	0xb9aa0400	-0.00032427907
197	0x3df61a30	0.120167136
198	0x3e0ae1d8	0.13562715
199	0xbde081f0	-0.109622836
200	0xbdf15504	-0.117837936
201	0xbbc05400	-0.0058693886
202	0xbe6ade96	-0.22936472
203	0xbcb41cd0	-0.021986395
204	0x3d0e87a8	0.03479734
205	0x3e1b43e2	0.15162614
206	0xbe1b1aca	-0.15146938
207	0x3d96a15c	0.073549956
208	0x3d106828	0.03525558
209	0xbe7f18e6	-0.24911842
210	0x3dafc2e8	0.08582097
211	0x3d4f0a18	0.050546736
212	0x3e29860a	0.16555038
213	0xbd0e7cf8	-0.03478715
214	0xbdb8b1a8	-0.0901826
215	0x3e057f92	0.13036945
216	0x3e27f066	0.16400298
217	0x3e215e4c	0.15758628
218	0xbd728f60	-0.059218764
219	0xbd5bb428	-0.053638607
220	0xbdca3968	-0.098742306
221	0xbd951324	-0.072790414
222	0x3d2eba80	0.04265833
223	0xbd8fdfac	-0.07025084
224	0x3b8a7b80	0.004226148
225	0x3d317b10	0.043330252
226	0x3df0bde4	0.11754969
227	0x3d9a0744	0.07520917
228	0x3d368310	0.044558585
229	0x3e3cdec4	0.18444353
230	0xbe233468	-0.1593796
231	0xbe77c70e	-0.24197027
232	0x3dd35888	0.1031962
233	0xbd36a530	-0.04459113
234	0x3e66a35a	0.22523251
235	0x3e39c9fe	0.1814346
236	0x3e242df0	0.16033149
237	0x3e572678	0.21010768
238	0xbd147868	-0.03624764
239	0x3de729b8	0.11287254
240	0xbdc234c4	-0.094827205
241	0x3cd39dc0	0.025832057
242	0xbe41b980	-0.18918419
243	0x3e0144e2	0.12623933
244	0x3e29b92a	0.1657454
245	0x3d29d620	0.04146397
246	0x3cde1fb0	0.02711472
247	0xbcc537c0	-0.024074435
248	0x3e363ffa	0.17797843
249	0xbc550a80	-0.013002992
250	0xbe0f430c	-0.1399042
251	0x3ca748b0	0.020420402
252	0xbe4b4924	-0.1985212
253	0xbe282c12	-0.16423061
254	0x3cc9de40	0.02464211
255	0x3dd1ccec	0.10244164

2 f4 [64]
0	0x3d009638	0.03139326
1	0xbd235468	-0.039875418
2	0x3e0383be	0.12843224
3	0x3dad8eec	0.08474526
4	0x3b6a1400	0.0035717487
5	0x3e3730a6	0.17889652
6	0xbe33b89e	-0.17550895
7	0x3c2886a0	0.010286003
8	0xbe3a6c5e	-0.18205401
9	0x3d04d210	0.032426894
10	0xbe3c739a	-0.18403473
11	0xbdb9fcd0	-0.09081423
12	0x3e6b94f0	0.23006034
13	0xbe2196a4	-0.15780121
14	0xbd581b88	-0.05276063
15	0xbdc93070	-0.09823692
16	0xbc1d1380	-0.009587169
17	0x3e112414	0.14173919
18	0xbd42aea0	-0.047529817
19	0x3dc45ff0	0.09588611
20	0xbc0d1b20	-0.008612424
21	0xbe4dee86	-0.2011052
22	0xbcaa39c0	-0.02077949
23	0xbdfacb4c	-0.12245807
24	0x3db990d4	0.09060827
25	0xbe157cf2	-0.14598444
26	0xbd14ae68	-0.03629914
27	0x3e3fd700	0.1873436
28	0xbdcc6cc0	-0.0998168
29	0xbd8d0840	-0.06886339
30	0x3e0505f4	0.12990552
31	0xbe16b502	-0.14717487
32	0x3dd5cbb8	0.10439247
33	0xbe09b9c0	-0.13449764
34	0xbda083ac	-0.078376144
35	0x3e4c5974	0.19955999
36	0xbd296420	-0.041355252
37	0x3de7d3e4	0.11319712
38	0x3de3fb8c	0.11131963
39	0x3e2bf3e2	0.16792253
40	0xbd91c1a8	-0.07117015
41	0xbd8bd2bc	-0.06827304
42	0xbe132cca	-0.14372554
43	0xbdd35004	-0.10317996
44	0x3d5872c8	0.05284384
45	0x3e49e776	0.19717202
46	0xbe1e3aa0	-0.15452051
47	0x3e50efe0	0.20404005
48	0xbe19a836	-0.15005574
49	0x3e73a1a0	0.23792124
50	0xbda5b24c	-0.08090648
51	0x3e2b436e	0.16724941
52	0x3e1b7d8c	0.15184611
53	0xbe2d17fc	-0.1690368
54	0x3e50ed9c	0.20403141
55	0x3e6b71da	0.2299265
56	0x3e347078	0.17621028
57	0xbc016600	-0.007897854
58	0xbdd1744c	-0.1022726
59	0xbdbc7e38	-0.09203762
60	0xbc608e00	-0.01370573
61	0xbe0a02c4	-0.13477618
62	0x3da717c8	0.08158833
63	0xbe72a018	-0.23693883

3 f4 [64]
0	0x3eab8640	0.33500862
1	0x3e2582f8	0.16163242
2	0x3d883860	0.06651378
3	0x3ededa88	0.435261
4	0x3f24a4e6	0.64314115
5	0x3f2fda4a	0.6869246
6	0x3f59d33f	0.8508796
7	0x3f2498bb	0.6429555
8	0x3edfa672	0.43681675
9	0x3e45007c	0.19238466
10	0x3d165630	0.03670329
11	0x3f3ca05d	0.73682195
12	0x3f301d15	0.68794376
13	0x3ed26d10	0.41098833
14	0x3f1cc03c	0.61230826
15	0x3e99c0e6	0.30029982
16	0x3f1b2d33	0.60615844
17	0x3f6f8eb3	0.93577117
18	0x3f1c9323	0.6116201
19	0x3d1999d0	0.037500203
20	0x3e1cebc4	0.15324312
21	0x3f07dfa1	0.53075606
22	0x3f6e46ce	0.9307679
23	0x3f6b00bf	0.91798013
24	0x3f727594	0.9471066
25	0x3e3379b4	0.17526895
26	0x3f564b9d	0.83709127
27	0x3e9e02d6	0.3086154
28	0x3f5f1ce9	0.8715349
29	0x3f58f26a	0.84744895
30	0x3f52cd5d	0.8234461
31	0x3efed4a8	0.4977162
32	0x3dc62bd0	0.09676325
33	0x3f085f6a	0.5327059
34	0x3f153e54	0.5829823
35	0x3f5e2677	0.8677744
36	0x3f434b7a	0.76287043
37	0x3d24a4a0	0.04019606
38	0x3f32007f	0.69532007
39	0x3f48075b	0.78136224
40	0x3f5f4605	0.87216216
41	0x3c1bd880	0.009512067
42	0x3f4b5d23	0.7943899
43	0x3f77209a	0.9653412
44	0x3dc095c8	0.094035685
45	0x3f367528	0.71272516
46	0x3f13afab	0.57689923
47	0x3f58bcf1	0.846633
48	0x3f22183c	0.6331823
49	0x3e033934	0.1281479
50	0x3ed40ab2	0.4141441
51	0x3f4a764f	0.79086775
52	0x3f6c4b1d	0.92302114
53	0x3e789240	0.2427454
54	0x3eb32f1e	0.34996885
55	0x3f5ab5e8	0.85433817
56	0x3f38f58b	0.7224967
57	0x3b8a4c80	0.0042205453
58	0x3e927144	0.2860204
59	0x3f39473c	0.7237432
60	0x3f752219	0.95755154
61	0x3f1eb056	0.6198782
62	0x3f3e6846	0.7437786
63	0x3f0ff3ac	0.5623119

4 f4 [64]
0	0x00000000	0.0
1	0x00000000	0.0
2	0x00000000	0.0
3	0x00000000	0.0
4	0x00000000	0.0
5	0x00000000	0.0
6	0x00000000	0.0
7	0x00000000	0.0
8	0x00000000	0.0
9	0x00000000	0.0
10	0x00000000	0.0
11	0x00000000	0.0
12	0x00000000	0.0
13	0x00000000	0.0
14	0x00000000	0.0
15	0x00000000	0.0
16	0x00000000	0.0
17	0x00000000	0.0
18	0x00000000	0.0
19	0x00000000	0.0
20	0x00000000	0.0
21	0x00000000	0.0
22	0x00000000	0.0
23	0x00000000	0.0
24	0x00000000	0.0
25	0x00000000	0.0
26	0x00000000	0.0
27	0x00000000	0.0
28	0x00000000	0.0
29	0x00000000	0.0
30	0x00000000	0.0
31	0x00000000	0.0
32	0x00000000	0.0
33	0x00000000	0.0
34	0x00000000	0.0
35	0x00000000	0.0
36	0x00000000	0.0
37	0x00000000	0.0
38	0x00000000	0.0
39	0x00000000	0.0
40	0x00000000	0.0
41	0x00000000	0.0
42	0x00000000	0.0
43	0x00000000	0.0
44	0x00000000	0.0
45	0x00000000	0.0
46	0x00000000	0.0
47	0x00000000	0.0
48	0x00000000	0.0
49	0x00000000	0.0
50	0x00000000	0.0
51	0x00000000	0.0
52	0x00000000	0.0
53	0x00000000	0.0
54	0x00000000	0.0
55	0x00000000	0.0
56	0x00000000	0.0
57	0x00000000	0.0
58	0x00000000	0.0
59	0x00000000	0.0
60	0x00000000	0.0
61	0x00000000	0.0
62	0x00000000	0.0
63	0x00000000	0.0

5 f4 [64]
0	0x00000000	0.0
1	0x00000000	0.0
2	0x00000000	0.0
3	0x00000000	0.0
4	0x00000000	0.0
5	0x00000000	0.0
6	0x00000000	0.0
7	0x00000000	0.0
8	0x00000000	0.0
9	0x00000000	0.0
10	0x00000000	0.0
11	0x00000000	0.0
12	0x00000000	0.0
13	0x00000000	0.0
14	0x00000000	0.0
15	0x00000000	0.0
16	0x00000000	0.0
17	0x00000000	0.0
18	0x00000000	0.0
19	0x00000000	0.0
20	0x00000000	0.0
21	0x00000000	0.0
22	0x00000000	0.0
23	0x00000000	0.0
24	0x00000000	0.0
25	0x00000000	0.0
26	0x00000000	0.0
27	0x00000000	0.0
28	0x00000000	0.0
29	0x00000000	0.0
30	0x00000000	0.0
31	0x00000000	0.0
32	0x00000000	0.0
33	0x00000000	0.0
34	0x00000000	0.0
35	0x00000000	0.0
36	0x00000000	0.0
37	0x00000000	0.0
38	0x00000000	0.0
39	0x00000000	0.0
40	0x00000000	0.0
41	0x00000000	0.0
42	0x00000000	0.0
43	0x00000000	0.0
44	0x00000000	0.0
45	0x00000000	0.0
46	0x00000000	0.0
47	0x00000000	0.0
48	0x00000000	0.0
49	0x00000000	0.0
50	0x00000000	0.0
51	0x00000000	0.0
52	0x00000000	0.0
53	0x00000000	0.0
54	0x00000000	0.0
55	0x00000000	0.0
56	0x00000000	0.0
57	0x00000000	0.0
58	0x00000000	0.0
59	0x00000000	0.0
60	0x00000000	0.0
61	0x00000000	0.0
62	0x00000000	0.0
63	0x00000000	0.0

6 f4 [64]
0	0x3f800000	1.0
1	0x3f800000	1.0
2	0x3f800000	1.0
3	0x3f800000	1.0
4	0x3f800000	1.0
5	0x3f800000	1.0
6	0x3f800000	1.0
7	0x3f800000	1.0
8	0x3f800000	1.0
9	0x3f800000	1.0
10	0x3f800000	1.0
11	0x3f800000	1.0
12	0x3f800000	1.0
13	0x3f800000	1.0
14	0x3f800000	1.0
15	0x3f800000	1.0
16	0x3f800000	1.0
17	0x3f800000	1.0
18	0x3f800000	1.0
19	0x3f800000	1.0
20	0x3f800000	1.0
21	0x3f800000	1.0
22	0x3f800000	1.0
23	0x3f800000	1.0
24	0x3f800000	1.0
25	0x3f800000	1.0
26	0x3f800000	1.0
27	0x3f800000	1.0
28	0x3f800000	1.0
29	0x3f800000	1.0
30	0x3f800000	1.0
31	0x3f800000	1.0
32	0x3f800000	1.0
33	0x3f800000	1.0
34	0x3f800000	1.0
35	0x3f800000	1.0
36	0x3f800000	1.0
37	0x3f800000	1.0
38	0x3f800000	1.0
39	0x3f800000	1.0
40	0x3f800000	1.0
41	0x3f800000	1.0
42	0x3f800000	1.0
43	0x3f800000	1.0
44	0x3f800000	1.0
45	0x3f800000	1.0
46	0x3f800000	1.0
47	0x3f800000	1.0
48	0x3f800000	1.0
49	0x3f800000	1.0
50	0x3f800000	1.0
51	0x3f800000	1.0
52	0x3f800000	1.0
53	0x3f800000	1.0
54	0x3f800000	1.0
55	0x3f800000	1.0
56	0x3f800000	1.0
57	0x3f800000	1.0
58	0x3f800000	1.0
59	0x3f800000	1.0
60	0x3f800000	1.0
61	0x3f800000	1.0
62	0x3f800000	1.0
63	0x3f800000	1.0

8 f4 [32, 64]
0	0xbd962f54	-0.07333246
1	0xbde12e4e	-0.1099516
2	0xbd6d8f90	-0.05799824
3	0xbcc8a090	-0.024490625
4	0x3cf3e720	0.029773295
5	0x3dbc12e4	0.091832906
6	0x3d1c6260	0.038179755
7	0x3df1b204	0.11801532
8	0xbc096850	-0.008386686
9	0x3d35c0a4	0.04437317
10	0x3ccd9398	0.025094792
11	0x3d93c7da	0.07215853
12	0xbdd5f4ce	-0.104470834
13	0x3d54e8b8	0.05197975
14	0x3dd32d4c	0.10311374
15	0x3d7cdf60	0.061736465
16	0xbdee1ee0	-0.11626983
17	0xbd6606c8	-0.05615881
18	0xbd3054bc	-0.04304956
19	0x3cbe9780	0.0232656
20	0xbceeddf8	-0.029158577
21	0xbdd20f88	-0.102568686
22	0x3dd818b4	0.10551587
23	0x3dc73978	0.09727758
24	0xbdec5cce	-0.115411386
25	0x3c8f2c28	0.01747711
26	0xbd9381a4	-0.07202461
27	0xbdf11388	-0.117713034
28	0xbdebc130	-0.11511457
29	0xbcc70778	-0.024295554
30	0xbdfea248	-0.124332964
31	0x3dfd5310	0.123693585
32	0x3d3361b8	0.043794364
33	0xbdac014a	-0.08398683
34	0xbd4f9e8c	-0.05068831
35	0xbd085cd0	-0.033291638
36	0xbdf7208e	-0.12066756
37	0xbcfbe498	-0.03074865
38	0xbda19266	-0.078892514
39	0xbdbcab86	-0.09212403
40	0xbd99231e	-0.07477401
41	0x3d6019f4	0.05471225
42	0xbdeb0614	-0.11475769
43	0xbd8b5b58	-0.06804532
44	0xbc3f5680	-0.011678338
45	0x3da24828	0.07923919
46	0xbde5dda6	-0.11223917
47	0xbdb64cea	-0.08901389
48	0xbd4da458	-0.05020556
49	0x3b48f800	0.0030665398
50	0x3d2c3cc0	0.042050123
51	0x3dfc976c	0.12333569
52	0xbdadc14c	-0.08484134
53	0xbcb3e3e8	-0.02195926
54	0xbdcca9e8	-0.099933445
55	0xbdf97554	-0.12180582
56	0xbc420e80	-0.011844277
57	0x3da533ea	0.080665424
58	0xbda512dc	-0.08060238
59	0xbdd64dae	-0.10464035
60	0xbd974008	-0.0738526
61	0x3d091cf0	0.033474863
62	0xbc5df120	-0.013546258
63	0x3cf115f0	0.029429406
64	0x3ad18300	0.0015984476
65	0x3de5dcbe	0.11223744
66	0xbd735f18	-0.05941686
67	0x3cd19b58	0.025586769
68	0xbd0daaec	-0.034586832
69	0xbdea8d7e	-0.11452769
70	0xbd955740	-0.07292032
71	0xbdbcebfe	-0.092246994
72	0xbddec128	-0.108766854
73	0xbdb988d8	-0.09059304
74	0x3d4e1808	0.050315887
75	0x3d4a8894	0.049446657
76	0x3d36e4c4	0.04465176
77	0xbc06a700	-0.008218527
78	0xbdecc4ae	-0.11560951
79	0x3ddeb782	0.10874845
80	0xbdd86b42	-0.10567333
81	0x3ddacc64	0.10683516
82	0x3dfbb2ba	0.12289949
83	0x3d8fd87a	0.070237115
84	0xbdca34ee	-0.09873377
85	0xbd6c0c80	-0.05762911
86	0xbdd35048	-0.10318047
87	0xbd883fa4	-0.066527635
88	0x3d52c404	0.051456466
89	0xbd13d7fc	-0.03609465
90	0xbd581944	-0.05275847
91	0x3d3fffa4	0.046874657
92	0x3d6eafc0	0.058273077
93	0x3dec97a8	0.11552364
94	0x3da16d1c	0.07882139
95	0x3dc6e802	0.09712221
96	0xbdf679fc	-0.120349854
97	0xbd741250	-0.059587777
98	0x3dbfcbbc	0.09365031
99	0x3df3a8f8	0.118974626
100	0xbbc95da0	-0.006145194
101	0x3de78926	0.11305456
102	0xbcbae428	-0.022813872
103	0x3df371da	0.1188695
104	0x3d699aac	0.057032272
105	0xbd78a690	-0.06070572
106	0x3d5c0100	0.05371189
107	0x3cde1a18	0.027112052
108	0xbd8eefe4	-0.06979349
109	0xbcdc4ea0	-0.02689296
110	0x3daa547e	0.08316897
111	0xbdf05cb0	-0.11736429
112	0x3ddc17aa	0.10746701
113	0xbdfb357c	-0.12266061
114	0x3d8b45ba	0.06800409
115	0x3baa7f20	0.0052031428
116	0xbddb2de8	-0.10702115
117	0xbdc1a9a2	-0.09456183
118	0x3ded9444	0.11600545
119	0x3d41d5d4	0.047323063
120	0x3c332440	0.010933936
121	0xbd17a960	-0.037026763
122	0x3d1ccdc4	0.03828217
123	0xbdc8ee72	-0.09811105
124	0xbd02672c	-0.031836674
125	0x3b1bb240	0.0023757368
126	0x3d691a58	0.05690989
127	0xbd014fd4	-0.03157027
128	0xbd99d75e	-0.07511781
129	0x3d4e7ea8	0.050413758
130	0xbd5c7aa0	-0.05382788
131	0x3c115c50	0.008872107
132	0xbc316ac0	-0.010828674
133	0x3ccd7c68	0.025083736
134	0xbd3e8bac	-0.04651992
135	0x3da788b6	0.081803724
136	0x3b542b80	0.003237456
137	0xbda73d60	-0.08166003
138	0xbdb0d3ee	-0.086341724
139	0x3c2abd70	0.010421142
140	0xbddd63b4	-0.108100325
141	0xbad97480	-0.0016590506
142	0xbdb4ddb6	-0.088313505
143	0x3d7298f8	0.059227914
144	0xbdc01a70	-0.093800426
145	0x3dfdc97a	0.12391944
146	0xbddc8372	-0.10767259
147	0xbd4cb6c4	-0.049978986
148	0xbb7f8940	-0.003899172
149	0x3dba8d6e	0.09109007
150	0xbd8d1f9e	-0.06890796
151	0x3ddd5bfe	0.10808562
152	0xbd1757cc	-0.036948964
153	0x3de848c4	0.11342004
154	0xbd3f0080	-0.046631336
155	0x3d8d6310	0.0690366
156	0x3d643aa8	0.05572
157	0xbdf95c50	-0.1217581
158	0x3dd8b2d8	0.10580987
159	0xbda4a392	-0.08039011
160	0x3d1bb6d4	0.038016155
161	0xbd90db72	-0.07073106
162	0xbcc11370	-0.023568839
163	0xbdc7eb18	-0.097616374
164	0x3d2ec490	0.042667925
165	0xbdf95c98	-0.12175864
166	0x3da8ca76	0.08241741
167	0xbde355de	-0.11100362
168	0x3b0014c0	0.0019543618
169	0xbc468870	-0.01211749
170	0x3da1247a	0.078682855
171	0xbc7fb6b0	-0.015607521
172	0x3d85b2ba	0.0652823
173	0x3cc62f58	0.024192497
174	0x3dc0849e	0.09400295
175	0xbd5c82f8	-0.05383584
176	0x3c8147d8	0.015781328
177	0xbbea9820	-0.007159248
178	0x3dc4ed6a	0.09615596
179	0xbc865320	-0.016397059
180	0xbcdc1100	-0.026863575
181	0xbde2681a	-0.11055012
182	0x3d827f3e	0.06371926
183	0x3c0bfab0	0.008543655
184	0xbdaca3c4	-0.08429673
185	0x3d7ad520	0.061238408
186	0x3d7076e8	0.058707148
187	0xbdd47f30	-0.103758216
188	0x3dd4f2ba	0.10397859
189	0xbd80b544	-0.06284574
190	0x3d985da8	0.074397385
191	0xbdd31a2e	-0.10307728
192	0xbd2172ac	-0.039416
193	0x3dd442f6	0.10364334
194	0xbdc189e4	-0.09450129
195	0x3d29cda0	0.041455865
196	0xbd2cdd30	-0.04220313
197	0x3df99c6c	0.12188038
198	0xbdde795c	-0.10862991
199	0xbc91b290	-0.01778534
200	0x3d7012e8	0.05861178
201	0x3d89023c	0.06689879
202	0x3da98cf4	0.08278838
203	0x3cda49e0	0.026646554
204	0x3d5941d8	0.05304131
205	0xbde95e88	-0.113949835
206	0xbd5b4d00	-0.05354023
207	0x3b2a4c00	0.002598524
208	0xbda9a438	-0.08283275
209	0xbdc936d2	-0.09824909
210	0xbd5257d4	-0.05135329
211	0xbcd0a228	-0.025467947
212	0x3c40c580	0.011765838
213	0x3d0e1014	0.034683302
214	0xbd32ec48	-0.043682367
215	0xbdf904be	-0.121591076
216	0xbd93bcec	-0.07213768
217	0x3b857fc0	0.004074067
218	0x3dddf934	0.10838547
219	0xbd4f8004	-0.050659195
220	0x3d42cc98	0.047558397
221	0xbda5b806	-0.0809174
222	0x3da998ba	0.082810834
223	0xbde931ee	-0.113864765
224	0x3abaca80	0.0014251024
225	0xbcf1f878	-0.029537424
226	0x3db12304	0.08649257
227	0xbdd7d06a	-0.10537799
228	0xbc239e20	-0.00998643
229	0xbadcaa80	-0.0016835481
230	0x3dff355e	0.12461351
231	0xbdcce300	-0.10004234
232	0xbdcaa6de	-0.09895109
233	0x3cf82f10	0.030295879
234	0x3d3475c4	0.044057623
235	0x3dc128de	0.09431623
236	0xbdd50e0c	-0.1040307
237	0x3cb18d68	0.021673873
238	0x3d4de574	0.05026765
239	0xbdc7e8aa	-0.09761174
240	0x3ca8e4d8	0.020616934
241	0xbdaca958	-0.08430737
242	0xbd28d35c	-0.041217193
243	0x3bea18c0	0.0071440637
244	0x3ccace70	0.02475664
245	0x3d171eec	0.036894724
246	0xbb95fae0	-0.004577026
247	0x3dc829f0	0.09773624
248	0x3bf7a860	0.0075579137
249	0x3da255da	0.07926531
250	0xbd56504c	-0.05232267
251	0x3dda2a7e	0.10652636
252	0x3d0b40c0	0.033997297
253	0xbc8d7648	-0.017268315
254	0x3d03d024	0.03218092
255	0xbdc52334	-0.09625855

9 f4 [32]
0	0x3de4d056	0.111725494
1	0x3cc49a38	0.023999318
2	0xbda7c4fa	-0.08191867
3	0xbd62f6fc	-0.055411324
4	0xbdc96624	-0.09833935
5	0x3d73e768	0.059546858
6	0x3de53150	0.11191046
7	0x3d90b520	0.07065797
8	0x3d6efd60	0.058347106
9	0x3de633e8	0.11240369
10	0xbd349670	-0.04408878
11	0xbdf9d6ca	-0.12199171
12	0x3d4a940c	0.049457595
13	0x3cc03258	0.023461506
14	0x3d70e374	0.058810666
15	0x3c5ce7f0	0.013483033
16	0xbd8da632	-0.06916465
17	0xbda099fa	-0.07841869
18	0xbd133908	-0.03594306
19	0x3dfd4a0e	0.123676404
20	0x3d6c1014	0.05763252
21	0xbcec30d8	-0.028831884
22	0xbd1cab48	-0.038249284
23	0x3cac4510	0.021029025
24	0x3df88e40	0.12136507
25	0x3cbee720	0.023303568
26	0xbd926e8a	-0.0714999
27	0x3df308ac	0.118668884
28	0xbd4feb0c	-0.050761268
29	0x3d800858	0.062515914
30	0x3d2e7eb8	0.042601317
31	0xbd85f1d2	-0.06540264

10 f4 [32]
0	0x3dfecfb0	0.12441957
1	0x3f31c5a5	0.69442207
2	0x3f3dff98	0.7421813
3	0x3f25bc53	0.64740485
4	0x3f753235	0.95779735
5	0x3f4cbb99	0.7997375
6	0x3e13355c	0.14375824
7	0x3f59432c	0.8486812
8	0x3f643e20	0.89157295
9	0x3f1e2811	0.61779886
10	0x3f531b5b	0.82463616
11	0x3e897cba	0.2685297
12	0x3f0b74ba	0.54474986
13	0x3f2037da	0.6258522
14	0x3e130840	0.14358616
15	0x3ddd3f88	0.10803133
16	0x3f526aae	0.8219403
17	0x3ed5e2cc	0.41774595
18	0x3ebf599a	0.37373048
19	0x3f58aa99	0.8463531
20	0x3ed1a10e	0.40943187
21	0x3f48a455	0.7837575
22	0x3ec740c6	0.38916606
23	0x3f588f4c	0.84593654
24	0x3f0e9dd0	0.5570955
25	0x3e168cc4	0.14702135
26	0x3f0730d3	0.52808875
27	0x3d050d90	0.032483637
28	0x3ea757ee	0.32684273
29	0x3f7fae2c	0.9987514
30	0x3ecee6e6	0.40410537
31	0x3f552076	0.83252656

11 f4 [32]
0	0x00000000	0.0
1	0x00000000	0.0
2	0x00000000	0.0
3	0x00000000	0.0
4	0x00000000	0.0
5	0x00000000	0.0
6	0x00000000	0.0
7	0x00000000	0.0
8	0x00000000	0.0
9	0x00000000	0.0
10	0x00000000	0.0
11	0x00000000	0.0
12	0x00000000	0.0
13	0x00000000	0.0
14	0x00000000	0.0
15	0x00000000	0.0
16	0x00000000	0.0
17	0x00000000	0.0
18	0x00000000	0.0
19	0x00000000	0.0
20	0x00000000	0.0
21	0x00000000	0.0
22	0x00000000	0.0
23	0x00000000	0.0
24	0x00000000	0.0
25	0x00000000	0.0
26	0x00000000	0.0
27	0x00000000	0.0
28	0x00000000	0.0
29	0x00000000	0.0
30	0x00000000	0.0
31	0x00000000	0.0

12 f4 [32]
0	0x00000000	0.0
1	0x00000000	0.0
2	0x00000000	0.0
3	0x00000000	0.0
4	0x00000000	0.0
5	0x00000000	0.0
6	0x00000000	0.0
7	0x00000000	0.0
8	0x00000000	0.0
9	0x00000000	0.0
10	0x00000000	0.0
11	0x00000000	0.0
12	0x00000000	0.0
13	0x00000000	0.0
14	0x00000000	0.0
15	0x00000000	0.0
16	0x00000000	0.0
17	0x00000000	0.0
18	0x00000000	0.0
19	0x00000000	0.0
20	0x00000000	0.0
21	0x00000000	0.0
22	0x00000000	0.0
23	0x00000000	0.0
24	0x00000000	0.0
25	0x00000000	0.0
26	0x00000000	0.0
27	0x00000000	0.0
28	0x00000000	0.0
29	0x00000000	0.0
30	0x00000000	0.0
31	0x00000000	0.0

13 f4 [32]
0	0x3f800000	1.0
1	0x3f800000	1.0
2	0x3f800000	1.0
3	0x3f800000	1.0
4	0x3f800000	1.0
5	0x3f800000	1.0
6	0x3f800000	1.0
7	0x3f800000	1.0
8	0x3f800000	1.0
9	0x3f800000	1.0
10	0x3f800000	1.0
11	0x3f800000	1.0
12	0x3f800000	1.0
13	0x3f800000	1.0
14	0x3f800000	1.0
15	0x3f800000	1.0
16	0x3f800000	1.0
17	0x3f800000	1.0
18	0x3f800000	1.0
19	0x3f800000	1.0
20	0x3f800000	1.0
21	0x3f800000	1.0
22	0x3f800000	1.0
23	0x3f800000	1.0
24	0x3f800000	1.0
25	0x3f800000	1.0
26	0x3f800000	1.0
27	0x3f800000	1.0
28	0x3f800000	1.0
29	0x3f800000	1.0
30	0x3f800000	1.0
31	0x3f800000	1.0

15 f4 [32, 32]
0	0xbe2843bb	-0.16432087
1	0xbe0baa6c	-0.1363923
2	0xbe0daca6	-0.13835391
3	0x3c85f4a8	0.016352013
4	0x3d227a68	0.039667517
5	0x3e0b8de3	0.13628344
6	0x3c15a3b0	0.009133264
7	0x3da8875a	0.08228941
8	0xbdd52eb9	-0.10409302
9	0xbe0f088d	-0.13968106
10	0xbc0768b0	-0.008264706
11	0xbcedc7e8	-0.029025987
12	0xbce84c10	-0.028356582
13	0x3d8f0a92	0.06984438
14	0x3e0cd917	0.13754688
15	0x3db9b6f2	0.09068097
16	0xbe017ab6	-0.12644467
17	0x3d81b898	0.063340366
18	0x3dc10972	0.0942563
19	0x3e17b617	0.14815556
20	0x3d2b7a5c	0.041864738
21	0xbd2bec4c	-0.041973397
22	0x3d85211a	0.06500454
23	0x3d5c04a4	0.053715363
24	0xbde2d089	-0.11074931
25	0x3dad1a1a	0.08452244
26	0xbe03fac6	-0.12888631
27	0xbe25304a	-0.16131702
28	0x3d9d364a	0.076763704
29	0x3da3aaea	0.07991584
30	0x3d982146	0.074282214
31	0xbe34b818	-0.17648351
32	0xbdbae15d	-0.09125016
33	0xbdcc4e64	-0.09975889
34	0xbdd0eb94	-0.10201183
35	0x3ccd14d0	0.025034338
36	0x3e2ce625	0.16884668
37	0xbde723db	-0.11286136
38	0xbd37a224	-0.044832364
39	0xbd965693	-0.073407315
40	0x3e27bd03	0.16380696
41	0x3cb09878	0.021557078
42	0x3aa2b280	0.0012412816
43	0x3a7b0000	0.000957489
44	0x3e2a8227	0.16651212
45	0x3c899c30	0.016798109
46	0xbdf5b830	-0.119980216
47	0xbda3d5bb	-0.0799975
48	0xbe207eb6	-0.15673336
49	0x3de10e56	0.109890625
50	0x3d704074	0.058655217
51	0xbe1d9bdc	-0.15391487
52	0x3d976456	0.073921844
53	0x3e282fd5	0.16424496
54	0xbd01675c	-0.03159271
55	0x3dd2c9fe	0.10292433
56	0x3db7b63a	0.08970304
57	0xbc02e9f0	-0.007990345
58	0xbe0bcf7a	-0.13653365
59	0xbd1bceb8	-0.03803894
60	0x3dc2c062	0.0950935
61	0x3e2cfab5	0.16892512
62	0xbe22f58f	-0.15913986
63	0x3dc66d76	0.09688847
64	0x3d851916	0.064989254
65	0xbd1c5b60	-0.03817308
66	0x3e095f21	0.13415195
67	0x3c08db60	0.008353084
68	0x3e24fe67	0.16112672
69	0xbd0e4a50	-0.03473884
70	0xbe26550d	-0.16243382
71	0x3d672144	0.05642821
72	0x3d511e68	0.05105439
73	0x3d9cc0ca	0.07653959
74	0xbc882e08	-0.016623512
75	0xbd5b7fec	-0.053588793
76	0xbd827c11	-0.0637132
77	0xbdfb4f37	-0.122709684
78	0x3dba80e2	0.09106614
79	0xbdc50686	-0.09620385
80	0xbc6a9980	-0.014318824
81	0xbe1a3747	-0.15060149
82	0xbe33c70a	-0.17556396
83	0x3e16879d	0.1470017
84	0xbdb0a1b3	-0.08624592
85	0x3e017921	0.12643863
86	0x3e27202d	0.16320868
87	0x3b7ba880	0.0038399994
88	0x3d2dc904	0.04242803
89	0xbdef94dc	-0.116983145
90	0xbe3397f3	-0.17538433
91	0xbe2bf928	-0.16794264
92	0xbde6f39b	-0.11276933
93	0xbd442cc0	-0.04789424
94	0x3e29d621	0.1658559
95	0x3dbac13a	0.09118886
96	0x3dafeaaa	0.085896805
97	0xbd5eb14a	-0.054368295
98	0xbd02abbc	-0.03190206
99	0x3b92ad60	0.0044762343
100	0xbe2f1581	-0.17098047
101	0xbdd4b826	-0.10386686
102	0x3e0ea8f7	0.13931642
103	0x3e277845	0.16354473
104	0x3dc848e6	0.09779529
105	0xbdf9af3c	-0.121916264
106	0x3dfdecba	0.12398668
107	0x3ddd4cea	0.10805686
108	0x3e1bfb5f	0.15232609
109	0x3e1b01c3	0.15137391
110	0x3e2c36b7	0.16817747
111	0xbc589190	-0.013218299
112	0x3d1a3144	0.03764464
113	0x3e20f041	0.1571665
114	0x3c371c20	0.011176139
115	0xbdcbb353	-0.09946313
116	0x3d655b84	0.05599548
117	0xbdff2a45	-0.12459234
118	0x3c0b2c50	0.008494452
119	0xbcf34370	-0.029695243
120	0xbe294e15	-0.16533692
121	0x3d32dcd0	0.043667614
122	0x3e221563	0.15828471
123	0x3d81e23a	0.063419774
124	0xbe04f0ae	-0.12982437
125	0xbd9cb92f	-0.076525085
126	0x3c9839d8	0.01858227
127	0x3e007053	0.12542848
128	0x3ccb9c48	0.024854794
129	0x3dc8f592	0.09812464
130	0x3e23183d	0.15927215
131	0xbdbd4dcb	-0.092433535
132	0xbddd9128	-0.10818702
133	0x3dde631e	0.10858749
134	0xbe30a0ee	-0.1724889
135	0x3e212d4f	0.1573994
136	0x3c51d0d0	0.012806132
137	0xbe22a72e	-0.15884086
138	0x3e33af81	0.17547418
139	0x3dd0a48a	0.10187633
140	0x3e2dbd51	0.1696675
141	0xbde5a1f9	-0.112125345
142	0xbd68c6f6	-0.05683037
143	0xbd2fb358	-0.042895645
144	0x3dbd612a	0.09247048
145	0x3e04e569	0.12978138
146	0x3d9d54c6	0.07682185
147	0xbdfd21ea	-0.12359984
148	0xbd8ac341	-0.06775523
149	0xbd934220	-0.07190347
150	0x3997c600	0.00028948486
151	0x3dbf93ba	0.093543485
152	0x3d45f18c	0.04832606
153	0xbdd312f5	-0.1030635
154	0xbd8c697f	-0.06856059
155	0xbd830f52	-0.063994065
156	0x3e1d2ca3	0.15349059
157	0xbdfd6219	-0.12372226
158	0xbe1a0702	-0.15041736
159	0x3d92cd1a	0.07168026
160	0xbd34df84	-0.044158474
161	0x3c88d8e8	0.016704991
162	0xbe26ddec	-0.16295594
163	0xbdde83fe	-0.10865019
164	0xbd9ea124	-0.07745579
165	0xbdeeccf3	-0.11660185
166	0x3dc85cae	0.09783302
167	0x3e1c0515	0.15236314
168	0x3e2b656d	0.1673791
169	0x3e1a0281	0.15040018
170	0xbe1bc55e	-0.15212008
171	0xbbd59120	-0.0065175444
172	0xbd90b99f	-0.070666544
173	0xbb80c680	-0.003929913
174	0xbdfd7fb8	-0.12377876
175	0xbda7175a	-0.08158751
176	0xbc539b90	-0.012915507
177	0x3cbcbc28	0.023038939
178	0xbd77e2be	-0.060518973
179	0x3bec9100	0.007219434
180	0xbe034a32	-0.12821272
181	0xbdc4be9e	-0.0960667
182	0x3dd62332	0.10455932
183	0x3d8985ce	0.06714974
184	0xbdd3df77	-0.10345357
185	0x3d843352	0.06455101
186	0xbe221dd2	-0.15831688
187	0xbd0ba830	-0.034095943
188	0xbd4b8a18	-0.049692243
189	0x3ceb4918	0.028721377
190	0xbdcba09e	-0.09942745
191	0xbe1cb94c	-0.1530506
192	0xbdfed1b4	-0.124423414
193	0xbe2ab39d	-0.1667008
194	0x3c955c18	0.01823239
195	0x3cbbbef0	0.022918195
196	0xbe307d1a	-0.17235222
197	0xbd710306	-0.058840774
198	0xbe1ecc3a	-0.15507594
199	0x3dda6c62	0.10665204
200	0x3cd07ce8	0.025450185
201	0xbdb1cf53	-0.08682122
202	0x3e0287a3	0.12747054
203	0x3e0a37b3	0.1349781
204	0x3d988a16	0.07448213
205	0xbd926e6a	-0.07149966
206	0xbd0d7438	-0.034534663
207	0x3cf7d218	0.030251548
208	0x3d9137f0	0.07090747
209	0x3c1c7380	0.009549022
210	0x3d71187c	0.05886124
211	0xbe01fae7	-0.12693368
212	0xbe1f8451	-0.15577818
213	0x3d9be94e	0.07612859
214	0x3e106ead	0.1410472
215	0x3c727ff0	0.0148010105
216	0xbd354704	-0.04425718
217	0xbe2c8d86	-0.16850862
218	0x3d90dc4a	0.07073267
219	0xbd810068	-0.062989056
220	0xbd95bf79	-0.07311911
221	0xbccfbad8	-0.025357649
222	0x3d09703c	0.0335543
223	0xbe3179f4	-0.17331678
224	0xbca46698	-0.020068452
225	0xbdc308c9	-0.0952316
226	0x3db5c2ae	0.08875023
227	0x3d8e9d86	0.06963639
228	0x3dc0ecbe	0.09420155
229	0xbd6506c6	-0.055914663
230	0x3e1902ad	0.14942427
231	0xbdadc03e	-0.08483933
232	0xbe0956b2	-0.13411978
233	0x3d7f7244	0.06236483
234	0x3dfa9bea	0.122367695
235	0xbddedd24	-0.10882023
236	0xbe06afea	-0.13153043
237	0x3e13de9d	0.14440389
238	0x3dec56ea	0.11540015
239	0xbbdd61c0	-0.0067560375
240	0xbdfd6bc4	-0.1237407
241	0x3e062639	0.13100518
242	0xbdc55ec4	-0.09637216
243	0x3e2d49b9	0.16922654
244	0x3e2da3ef	0.16957067
245	0x3d46c40c	0.04852681
246	0x3de77082	0.11300756
247	0x3e2303a5	0.15919359
248	0x3d20ae80	0.039228916
249	0x3dffadb6	0.124843046
250	0xbda4e7e9	-0.08052046
251	0xbc693200	-0.014233112
252	0xbdaa8be9	-0.08327467
253	0xbd4ec8d8	-0.05048451
254	0x3d6743b0	0.056461036
255	0x3df42b9a	0.11922379

16 f4 [32]
0	0xbe2e355b	-0.17012541
1	0x3d1b0750	0.03784877
2	0xbc367c40	-0.011138022
3	0xbe10156f	-0.14070676
4	0xbda0a6b0	-0.07844293
5	0x3d8c5042	0.068512455
6	0xbe0b9604	-0.13631445
7	0x3c1908a0	0.009340435
8	0x3dde05fe	0.10840987
9	0x3e115cc5	0.14195545
10	0xbc753a30	-0.014967486
11	0xbd8e2368	-0.06940347
12	0x3de8628e	0.11346923
13	0xbd44e500	-0.048069954
14	0xbe281af7	-0.16416536
15	0x3df07c5e	0.11742471
16	0xbdc639e5	-0.09679011
17	0xbce31da0	-0.027724087
18	0xbe305faf	-0.17224
19	0x3d9ad8be	0.075608715
20	0x3e1eb44f	0.1549847
21	0xbd9fb766	-0.07798652
22	0xbdb8aee7	-0.09017735
23	0xbe322bf9	-0.17399587
24	0xbd95eb0f	-0.073202245
25	0xbde0e332	-0.10980834
26	0x3dff0fa6	0.124541566
27	0xbe121d42	-0.14268973
28	0x3d666c10	0.0562554
29	0x3e2e474b	0.17019384
30	0x3e0d4cb5	0.13798793
31	0x3d30e23c	0.043184504

17 f4 [32]
0	0x3f1701b0	0.5898695
1	0x3efc0c60	0.4922819
2	0x3f5af335	0.85527354
3	0x3f1c98ba	0.6117054
4	0x3f51caae	0.8194989
5	0x3f0882ac	0.5332439
6	0x3e864a30	0.26228476
7	0x3ef9fdc6	0.48826426
8	0x3e3f5324	0.1868406
9	0x3f5a4c36	0.8527254
10	0x3f302a91	0.6881495
11	0x3e22e250	0.15906644
12	0x3f69647f	0.9116897
13	0x3f306ea7	0.6891884
14	0x3e727c44	0.23680216
15	0x3f305590	0.6888056
16	0x3f38cee2	0.7219068
17	0x3e7dd084	0.24786574
18	0x3f256de9	0.64620835
19	0x3f2552f6	0.64579713
20	0x3e5c198c	0.2149412
21	0x3ed2ee94	0.41197646
22	0x3f176882	0.5914384
23	0x3e86d51e	0.2633447
24	0x3ea51080	0.3223915
25	0x3eb5a2de	0.3547582
26	0x3f644491	0.89167124
27	0x3dc85880	0.09782505
28	0x3f6843c9	0.9072843
29	0x3de1b168	0.11020166
30	0x3e769b48	0.24082673
31	0x3ef97b38	0.4872682

18 f4 [32]
0	0x00000000	0.0
1	0x00000000	0.0
2	0x00000000	0.0
3	0x00000000	0.0
4	0x00000000	0.0
5	0x00000000	0.0
6	0x00000000	0.0
7	0x00000000	0.0
8	0x00000000	0.0
9	0x00000000	0.0
10	0x00000000	0.0
11	0x00000000	0.0
12	0x00000000	0.0
13	0x00000000	0.0
14	0x00000000	0.0
15	0x00000000	0.0
16	0x00000000	0.0
17	0x00000000	0.0
18	0x00000000	0.0
19	0x00000000	0.0
20	0x00000000	0.0
21	0x00000000	0.0
22	0x00000000	0.0
23	0x00000000	0.0
24	0x00000000	0.0
25	0x00000000	0.0
26	0x00000000	0.0
27	0x00000000	0.0
28	0x00000000	0.0
29	0x00000000	0.0
30	0x00000000	0.0
31	0x00000000	0.0

19 f4 [32]
0	0x00000000	0.0
1	0x00000000	0.0
2	0x00000000	0.0
3	0x00000000	0.0
4	0x00000000	0.0
5	0x00000000	0.0
6	0x00000000	0.0
7	0x00000000	0.0
8	0x00000000	0.0
9	0x00000000	0.0
10	0x00000000	0.0
11	0x00000000	0.0
12	0x00000000	0.0
13	0x00000000	0.0
14	0x00000000	0.0
15	0x00000000	0.0
16	0x00000000	0.0
17	0x00000000	0.0
18	0x00000000	0.0
19	0x00000000	0.0
20	0x00000000	0.0
21	0x00000000	0.0
22	0x00000000	0.0
23	0x00000000	0.0
24	0x00000000	0.0
25	0x00000000	0.0
26	0x00000000	0.0
27	0x00000000	0.0
28	0x00000000	0.0
29	0x00000000	0.0
30	0x00000000	0.0
31	0x00000000	0.0

20 f4 [32]
0	0x3f800000	1.0
1	0x3f800000	1.0
2	0x3f800000	1.0
3	0x3f800000	1.0
4	0x3f800000	1.0
5	0x3f800000	1.0
6	0x3f800000	1.0
7	0x3f800000	1.0
8	0x3f800000	1.0
9	0x3f800000	1.0
10	0x3f800000	1.0
11	0x3f800000	1.0
12	0x3f800000	1.0
13	0x3f800000	1.0
14	0x3f800000	1.0
15	0x3f800000	1.0
16	0x3f800000	1.0
17	0x3f800000	1.0
18	0x3f800000	1.0
19	0x3f800000	1.0
20	0x3f800000	1.0
21	0x3f800000	1.0
22	0x3f800000	1.0
23	0x3f800000	1.0
24	0x3f800000	1.0
25	0x3f800000	1.0
26	0x3f800000	1.0
27	0x3f800000	1.0
28	0x3f800000	1.0
29	0x3f800000	1.0
30	0x3f800000	1.0
31	0x3f800000	1.0

22 f4 [5, 32]
0	0x3dc61836	0.096725866
1	0x3dd42cf6	0.10360138
2	0x3be72560	0.007054016
3	0x3de48f3e	0.11160134
4	0xbd5a6a0c	-0.05332379
5	0xbe111249	-0.14167131
6	0xbd6fc3b2	-0.05853624
7	0xbce3c680	-0.027804613
8	0x3d3c55b8	0.045980185
9	0x3de9fabe	0.114247784
10	0x3dea972e	0.114546165
11	0xbe22fadd	-0.15916009
12	0x3e33edff	0.17571257
13	0x3e165f1d	0.1468472
14	0xbd8cd42c	-0.06876406
15	0x3dbb8e36	0.09157984
16	0xbc85de90	-0.016341478
17	0xbe062900	-0.13101578
18	0x3d4f9878	0.050682515
19	0xbe09872a	-0.13430467
20	0x3d8d0014	0.068847805
21	0xbd74dfa0	-0.059783578
22	0xbe1a5ab5	-0.15073664
23	0xbd91f18e	-0.07126151
24	0xbc841610	-0.016123801
25	0xbd99638d	-0.07489691
26	0xbd971077	-0.07376187
27	0x3db2158e	0.086955175
28	0xbde137c0	-0.109969616
29	0xbe06a50a	-0.13148895
30	0xbddfaa94	-0.10921207
31	0x3e0798a7	0.13241826
32	0x3e16c221	0.14722492
33	0xbdb0e4ff	-0.086374275
34	0x3e22bd8b	0.15892617
35	0xbe11e77e	-0.14248464
36	0xbddee719	-0.10883922
37	0xbcd1f530	-0.02562961
38	0xbde1559e	-0.11002658
39	0x3e1b9ab5	0.15195735
40	0xbda9c3e0	-0.08289313
41	0x3c9393e8	0.018014863
42	0xbe297af9	-0.16550817
43	0x3e33cdb1	0.17558934
44	0x3dc91f46	0.09820418
45	0x3dc06bbe	0.0939555
46	0x3e1cac3f	0.15300082
47	0xbcbe3a90	-0.023221284
48	0x3dd144ae	0.10218178
49	0x3d392f44	0.04521109
50	0x3de421ae	0.111392364
51	0xbda810df	-0.08206343
52	0x3d8ebd74	0.06969729
53	0xbdb22209	-0.08697898
54	0xbdcefc57	-0.10106724
55	0x3d433b58	0.047664016
56	0xbd1d7b94	-0.03844793
57	0x3bb72640	0.0055892766
58	0xbd1efc0c	-0.03881459
59	0xbd937630	-0.07200277
60	0xbd34927c	-0.04408501
61	0x3d423310	0.04741198
62	0x3e307311	0.17231394
63	0x3da772fe	0.0817623
64	0xbe1a5fe3	-0.1507564
65	0xbe20695e	-0.15665194
66	0xbc8bead0	-0.01707974
67	0x3dbeb042	0.09310962
68	0x3d347d0c	0.044064566
69	0xbe046428	-0.12928832
70	0x3e236a83	0.159586
71	0x3bc96e40	0.006147176
72	0xbcf1a3b8	-0.029497012
73	0xbdb5f481	-0.08884526
74	0x3dfe6596	0.1242172
75	0x3c22c1f0	0.009933934
76	0x3d533864	0.05156745
77	0xbd3fc670	-0.046820104
78	0x3ce85930	0.02836284
79	0xbd87d1f4	-0.06631842
80	0xbdfa4842	-0.12220813
81	0xbe05ac4b	-0.13054006
82	0x3e1cf3d7	0.15327393
83	0x3d88505e	0.06655954
84	0x3d1a0b18	0.037608236
85	0x3d8fd7fc	0.070236176
86	0x3dabb5e6	0.08384304
87	0xbc9714e0	-0.018442571
88	0x3cc57060	0.024101436
89	0xbdfee641	-0.12446261
90	0x3e04c071	0.12964036
91	0x3c311740	0.010808766
92	0x3dc3e0fe	0.09564398
93	0x3e2f7e0b	0.17137925
94	0x3d568ed8	0.05238232
95	0x3e0e712f	0.13910364
96	0x3e2cb9cf	0.16867755
97	0xbdb380e4	-0.08764818
98	0xbe1d3f43	-0.15356164
99	0xbded56d2	-0.11588825
100	0x3cb0f010	0.021598846
101	0xbdb42151	-0.08795417
102	0xbdebb2b1	-0.11508692
103	0xbe104b61	-0.14091255
104	0xbd25f9fc	-0.040521607
105	0x3d8e2286	0.069401786
106	0x3cda4540	0.02664435
107	0x3e28358f	0.16426681
108	0xbc97cd20	-0.018530428
109	0xbb944b60	-0.004525587
110	0xbdc09ef1	-0.09405316
111	0xbdbbaaab	-0.09163412
112	0xbd6da9e6	-0.058023356
113	0x3b879800	0.004137993
114	0x3d23de4c	0.04000692
115	0x3d07eb00	0.033183098
116	0xbd98be8a	-0.074582174
117	0xbddd1c9d	-0.10796473
118	0xbda58f02	-0.08083917
119	0x3e24f391	0.16108538
120	0xbdf72343	-0.120672725
121	0x3d797868	0.060905844
122	0xbcbdc0f8	-0.023163304
123	0xbdc471a2	-0.09591986
124	0x3ce0dfc8	0.027450457
125	0xbe15f64c	-0.14644736
126	0xbe07caa9	-0.13260902
127	0x3e171f75	0.14758094
128	0xbdf87cba	-0.12133165
129	0xbd1460d8	-0.03622517
130	0x3d010128	0.031495243
131	0x3e1dfffb	0.1542968
132	0xbe05454e	-0.13014719
133	0xbc0a8440	-0.008454382
134	0x3e0f29f3	0.13980846
135	0x3df0fc8e	0.11766921
136	0x3e2695e1	0.16268112
137	0xbe33be87	-0.17553149
138	0xbd2fc908	-0.042916328
139	0xbe03038a	-0.12794319
140	0xbdb917cd	-0.09037743
141	0x3e0e4635	0.1389397
142	0xbd5e01ee	-0.05420106
143	0x3cdcac70	0.026937693
144	0x3dcac306	0.09900479
145	0x3dd4ff22	0.10400225
146	0xbe052e8e	-0.1300604
147	0xbcd0c6c0	-0.025485396
148	0xbd8bed9c	-0.0683243
149	0xbe210a86	-0.1572667
150	0x3ddbe2ee	0.10736643
151	0x3e14f381	0.14546014
152	0x3db4ac36	0.08821909
153	0xbdba4060	-0.0909431
154	0xbcf27a38	-0.029599294
155	0xbd851158	-0.06497449
156	0x3d0b1114	0.033951834
157	0x3d837cc4	0.064202815
158	0xbd874992	-0.06605829
159	0xbe11bde8	-0.142326

23 f4 [5]
0	0x3e13e243	0.14441781
1	0x3e20c09b	0.15698473
2	0x3dea3b4e	0.11437093
3	0x3d56db40	0.052455187
4	0xbe091a0a	-0.1338884

24 f4 [5]
0	0x3eea0aaa	0.4571126
1	0x3ddedef8	0.10882372
2	0x3e8c5e66	0.2741577
3	0x3f09bbe7	0.5380234
4	0x3f54c553	0.8311359

25 f4 [5]
0	0x00000000	0.0
1	0x00000000	0.0
2	0x00000000	0.0
3	0x00000000	0.0
4	0x00000000	0.0

26 f4 [5]
0	0x00000000	0.0
1	0x00000000	0.0
2	0x00000000	0.0
3	0x00000000	0.0
4	0x00000000	0.0

27 f4 [5]
0	0x3f800000	1.0
1	0x3f800000	1.0
2	0x3f800000	1.0
3	0x3f800000	1.0
4	0x3f800000	1.0
