example-prjs/graph/model_4_1iteration.pt (torch_old, 10369 bytes, 27 tensors)

input_network.0.weight f4 [4, 3]
00000000: d31d edbe b4dc 843d 9560 0a3d 7217 003f
00000010: 7a9a f63e 00c1 24bc 67f6 dabd f317 f1bc
00000020: d4a1 b53b ae14 9cbe 9729 153f d79d d5bc
-0.46311817 0.06487408 0.033783514 0.50035775 0.4816473 -0.01005578 -0.10691529 -0.029430365
0.005542973 -0.30484527 0.58266586 -0.02607624

input_network.0.bias f4 [4]
00000000: 0983 acbf 0fb9 ae3f 83bb bfbe 20c9 9f3e
-1.3477489 1.3650225 -0.37447748 0.31208134

edge_network.network.0.weight f4 [4, 14]
00000000: 4248 3a40 90c2 463f a674 15be 2f59 1340
00000010: 0092 94be 1f9f 31bf ac70 233f 668d 4640
00000020: e206 aa3f 29be 343d 16e9 1740 2219 72be
00000030: da60 86bf 354d 6f3e ffee d8be 8e74 b43f
00000040: 7f0f 21bf d2e8 22c0 9f13 b4bf 1a65 bf3f
00000050: 0bd4 1740 916c a7be 2926 203f 342c 20bc
00000060: 0e58 46bf 9d50 dabe 491c 553f 2995 db3f
00000070: 04b3 143f 9e5c b13f 1b4e 063e 66f1 6c40
00000080: b9fa 8ebf d6dc cc40 8e80 653e 7655 e33e
00000090: 0499 95bd 9709 2f40 3b49 8fc0 047a 2bbf
000000a0: c559 c2c0 8113 45be 3c3f 7fbf 019c 0c3f
000000b0: 1261 1940 f8e2 a4c0 f00e fe3e 01e8 b4c0
000000c0: 899d b5be 7f0c 0340 18bc 693f a4a5 733f
000000d0: 73f9 9440 8038 653f e2d6 b740 684c 023e
2.9106603 0.7764063 -0.14595279 2.3023183 -0.2901764 -0.69383425 0.638438 3.1023803
1.328335 0.044126663 2.3736014 -0.236424 -1.0498307 0.23369296 -0.4236984 1.409807
-0.6291427 -2.5454602 -1.4068488 1.4952729 2.372317 -0.32700017 0.6255823 -0.009776164
-0.7747811 -0.42639628 0.83246285 1.7154895 0.58085656 1.385639 0.13115732 3.7022338
-1.1170264 6.4019575 0.22412321 0.4440114 -0.07304576 2.7349603 -4.4776893 -0.66983056
-6.073458 -0.19245721 -0.99705863 0.54925543 2.3965497 -5.152706 0.4962077 -5.653321
-0.35471752 2.0476377 0.91302633 0.9517462 4.6554503 0.8953934 5.744981 0.12724459

edge_network.network.0.bias f4 [4]
00000000: ccd1 3f3f 064f cb3f 3a9b 6b3f 7280 023f
0.749295 1.5883491 0.9203373 0.5097724

edge_network.network.2.weight f4 [1, 4]
00000000: 5343 45c0 741b 13c1 5c95 40c1 9ee7 1fc1
-3.0822341 -9.194202 -12.036465 -9.994047

node_network.network.0.weight f4 [4, 21]
00000000: 86fc cdbe 3a7f 53be 6846 3c3e 0e27 7e3d
00000010: d74a 013f a707 c43d 72e0 cebb 78bf 053c
00000020: 2eeb 283e 4123 ea3e 3b51 2b3e 5f22 eebe
00000030: 83dd 00be b239 933c 9880 623e 9676 3ebf
00000040: 04c0 6abc e790 613f 1b39 6e3f 5a20 90bf
00000050: abb8 b33d 9864 0f3e ceab 2b3e 7103 fcbe
00000060: 4d3e 2bbe 0ee1 28bd 9478 6f3d ea39 b13d
00000070: d17d 273f 480f cebe 7804 06be 3247 b5be
00000080: 0b63 f33e cce5 953e eef5 bc3d a647 e7bd
00000090: 5c31 b43f 3b83 fcbd 789c b1bf da15 c13d
000000a0: 05fc b73e 31e7 ffbd 25e4 e0be 4489 bebe
000000b0: ca7d 133e a999 643e 720a 393f e6cc 47bd
000000c0: 99c9 d43c 2fd8 58bf 6ffd 82bf a282 453c
000000d0: 947c 4e3f dbde 893e b65d b7be 6d13 5c3c
000000e0: 6bd7 0dbf e0a1 9fbe 3134 643e 76f6 1ebf
000000f0: 9246 4ebf b67f 293f e79f 6a3c 81ac af3e
00000100: 180b bcbe b303 47bf e1ea 943d 9d33 1c3f
00000110: 0f5e fdbd 4fc8 e5bd a745 64be f4ec 8dbf
00000120: c4fe 1cbf 019d 873e a641 f8be 3647 febd
00000130: 6c36 e73b a16d 343e 44cf 6c3e f335 1440
00000140: 37ea ecbe 8de7 febd 92ed 07bf aa4e 1e3c
-0.40231723 -0.20654002 0.18386233 0.062048964 0.5050482 0.09571772 -0.006313377 0.0081633255
0.16495964 0.45730022 0.16730206 -0.46510598 -0.125845 0.017971847 0.22119367 -0.743997
-0.014328007 0.8811173 0.93055886 -1.1259873 0.08775457 0.14003217 0.16764757 -0.49221376
-0.16722985 -0.041230254 0.0584646 0.08653624 0.65426356 -0.40246034 -0.13087642 -0.3540588
0.475365 0.29276884 0.09226595 -0.11292963 1.4077563 -0.12329718 -1.3875875 0.09427996
0.35934463 -0.12495268 -0.4392406 -0.372141 0.14403453 0.22324242 0.72281563 -0.04877939
0.025975036 -0.8470487 -1.0233592 0.012055071 0.8065884 0.26927838 -0.35813683 0.013432366
-0.55406827 -0.31178188 0.22285534 -0.6209482 -0.8057643 0.66210496 0.01432035 0.34311298
-0.36727214 -0.7774002 0.07271362 0.61016256 -0.12371456 -0.112198465 -0.22292195 -1.1087937
-0.6132624 0.26486972 -0.48487586 -0.12415926 0.007056048 0.17619945 0.2312594 2.3157928
-0.46272442 -0.124465086 -0.5309688 0.00966231

node_network.network.0.bias f4 [4]
00000000: b4b6 ffbc 96bf b3be 8b4b 893e 9b78 00bf
-0.03121505 -0.35107106 0.26815447 -0.5018403

node_network.network.2.weight f4 [4, 4]
00000000: ccb3 25be 4e3a ca3e be10 e03f 3f30 1c3f
00000010: e533 0f3f 4bbe c6bf 9065 973f 040b fdbe
00000020: b5fd 49bf 47d5 1740 51e6 f7be c8d7 a53f
00000030: 15bd 9dbf 97d7 b93e 77c1 c53f 6a92 9c3f
-0.16181868 0.39497608 1.7505109 0.6101112 0.5593856 -1.5526823 1.182787 -0.49422467
-0.7890275 2.3723924 -0.48417905 1.2956476 -1.2323328 0.36297294 1.5449666 1.2232182

node_network.network.2.bias f4 [4]
00000000: 399a f83e 8fef 503e b2b9 f1bf 51bd 923e
0.48555163 0.20403884 -1.8884795 0.28660062

exp_avg f4 [4, 3]
00000000: b25a a8ba c500 3cbc c55b e3b9 0fa9 9cba
00000010: 63ed 68bc 878d 17ba 4153 00bc 395e 9bbd
00000020: 2ef1 1ebc 910d 343c f85f 9d3c 0111 0f3c
-0.0012844412 -0.011474793 -0.00043365188 -0.0011952239 -0.014216754 -0.0005781282 -0.007832349 -0.07586331
-0.009701056 0.010989563 0.0192108 0.008732081

exp_avg_sq f4 [4, 3]
00000000: ccd7 6438 64a5 763a a116 1438 9659 d438
00000010: ba4c 7c3b 706d 3738 f632 d63a 8419 113d
00000020: 0f8e 3c3a 9799 0d3a 9093 e83b 6fcf 4b3a
5.4560413e-05 0.00094088004 3.5307025e-05 0.000101256344 0.003849788 4.373252e-05 0.0016342092 0.035424724
0.0007192799 0.000540161 0.007097669 0.00077747455

exp_avg f4 [4]
00000000: b290 91bc 35fc dfbb ceda 4cbd 1064 133d
-0.017769191 -0.0068354853 -0.050013356 0.0359841

exp_avg_sq f4 [4]
00000000: 9ba8 8c3b 1266 313c 237c 1e3e cb1b db3c
0.0042925603 0.010827558 0.15477042 0.026746651

exp_avg f4 [4, 14]
00000000: 47ad 0d3b 8c19 14bb 177e 693a 960e b0ba
00000010: 095e 37b9 2a2b b8ba afcb fab8 1823 0d3b
00000020: 8088 17bb 2542 6e3a 403a acba 1f30 95b9
00000030: 18a7 b4ba 1493 aeb8 db29 96b9 676c d739
00000040: 76c2 d3b8 1985 a5b8 ac16 6137 6efe a2b8
00000050: e1ae a7b8 9245 52b9 7b29 213a 215d 14b9
00000060: 9134 8e38 2efe d637 421f de38 c858 37b8
00000070: 05b3 963c d939 cfb7 c3ab 2fbc 7fa0 08bc
00000080: 9205 9839 49fb 57bc 9779 2cba 72d4 9c3c
00000090: 3a2c 57bb 8e0d 27bc ff49 01bc 9f67 0c3a
000000a0: d9b2 48bc f236 ddba 14c8 f63b 11da cabb
000000b0: 7baa 393b e5be ceba 787f f5b9 8f45 73bb
000000c0: 1b65 31ba cd30 ca3b 2df9 15bb 3e5d 213b
000000d0: 4d4e 1dbb 216c 39ba c1f1 93bb 5c2f 16ba
0.0021618174 -0.0022598235 0.00089070335 -0.0013432081 -0.00017487271 -0.001405095 -0.00011958868 0.002153581
-0.0023122132 0.0009088836 -0.0013139918 -0.00028455348 -0.0013782708 -8.324362e-05 -0.00028641414 0.00041088762
-0.00010097485 -7.8926045e-05 1.3416324e-05 -7.772153e-05 -7.995754e-05 -0.00020053078 0.00061478437 -0.00014149073
6.780879e-05 2.562915e-05 0.00010591607 -4.3713284e-05 0.01839591 -2.470326e-05 -0.0107221035 -0.0083390465
0.0002899585 -0.01318247 -0.00065793976 0.01914427 -0.0032832758 -0.010196103 -0.007891177 0.0005356017
-0.012249672 -0.0016877337 0.0075311754 -0.0061905463 0.0028330374 -0.0015773444 -0.00046825013 -0.0037120318
-0.000676708 0.0061703683 -0.0022884116 0.0024622227 -0.002400297 -0.00070733024 -0.0045149033 -0.0005729103

exp_avg_sq f4 [4, 14]
00000000: 5cea ff37 1fc3 0738 8dcc ad36 10ad 2137
00000010: 5898 2834 32b1 2d37 f5b7 2334 3f35 0238
00000020: d9ee 0b38 acb7 b236 c0ac 2037 d70a ee34
00000030: cc8d 3237 c1d3 a034 efdf 6836 c903 bc35
00000040: bcc6 f835 650a e434 998d bf32 91dc 8c35
00000050: 9da9 c533 057a 8c36 f987 0236 8fd0 c435
00000060: 1504 1835 e8fb 5e33 931d 8c35 ba2f 7d34
00000070: 3fd6 143c 1578 423b 3a6f ec39 7de7 153a
00000080: a0de ac37 4875 893a 4b2d b737 7e34 253c
00000090: 1596 8e3b 9323 dd39 9f64 f539 7805 6838
000000a0: c246 8d3a 2655 3238 d35e 983b a8ca a93a
000000b0: d4f8 a039 aa15 9339 ae84 2d37 1da2 d439
000000c0: f8a6 1c37 78ff b23b 76dd 013b f277 8a39
000000d0: 8a45 5839 8b6c e237 91f1 d639 6782 6f37
3.0507501e-05 3.236823e-05 5.1796146e-06 9.636642e-06 1.5701642e-07 1.035286e-05 1.5247481e-07 3.1044005e-05
3.3362627e-05 5.3261956e-06 9.576965e-06 4.4338842e-07 1.0642641e-05 2.9956394e-07 3.470104e-06 1.4008193e-06
1.8535279e-06 4.2475872e-07 2.2299718e-08 1.0495006e-06 9.20438e-08 4.18653e-06 1.9450656e-06 1.4663837e-06
5.663035e-07 5.191751e-08 1.043942e-06 2.3579824e-07 0.009084283 0.0029673625 0.00045096298 0.00057183934
2.0607666e-05 0.0010487223 2.1836391e-05 0.010083316 0.0043513873 0.0004217891 0.0004680501 5.5318204e-05
0.0010778534 4.2517808e-05 0.004649976 0.0012954073 0.0003070297 0.00028054166 1.0342495e-05 0.00040556575
9.3372e-06 0.005462583 0.001981584 0.00026410777 0.0002062527 2.6991844e-05 0.00040997242 1.4275872e-05

exp_avg f4 [4]
00000000: 3ec2 1ebb 56ea 8a39 b5e1 703b f315 bcbb
-0.0024224664 0.00026496005 0.0036755626 -0.0057399212

exp_avg_sq f4 [4]
00000000: a338 2238 4a38 2336 9b85 883b bb2e f63a
3.8676557e-05 2.4321657e-06 0.0041663176 0.0018782237

exp_avg f4 [1, 4]
00000000: 5268 a3ba 088e 8d37 b535 2e3a a46a 203a
-0.0012467003 1.6874648e-05 0.0006645576 0.00061194063

exp_avg_sq f4 [1, 4]
00000000: 6fcc 3f39 2797 3a38 9585 7136 59b4 b136
0.00018291337 4.4486627e-05 3.5989553e-06 5.2960063e-06

exp_avg f4 [4, 21]
00000000: fdc2 41bd 1eac 3d3d 706e 9ebc 7aa4 203c
00000010: 86f7 923b 969a 0ebc 514d b53a d6cf a83c
00000020: 2006 a0bc 70b5 083c 3a78 dbba 6cc1 6abb
00000030: f597 033c c45c d2ba aef4 2dbc 8787 373c
00000040: 92a6 98bb 87be 733b c815 813b 5a18 313b
00000050: 7d3f 8d3a c0b3 543b 66c8 35bb 2739 9e3a
00000060: c656 7c3a 2ce8 49b7 9477 7c3b 493a 47b9
00000070: 3e1e a2ba dffa 733a e740 dfb9 7a59 94ba
00000080: 139c 0d3a 48ac 4abb a5d6 d8b9 8876 44b9
00000090: bd89 b1b8 76d2 6bb7 fac6 7bba 0619 1839
000000a0: 7df9 03bb 0315 8ab9 4c2c 803d 5e22 6dbd
000000b0: 4c1d cb3c dfc5 3a3a 361b e8bb 0fcf 143d
000000c0: 4d87 21ba 3683 50bd 9249 503d 8bb9 adbc
000000d0: 79d0 713c 8028 003c 512f baba 0677 cc39
000000e0: 7008 783a 1cb1 13ba b6be f939 fe1f 963b
000000f0: ac73 acbb 7ea4 b53b 6669 f0ba 53a8 f63b
00000100: 04e0 e6bb 558a 453b 281b 95b9 f34d 6aba
00000110: 931a 693b e23f 39b9 b534 60bb 1396 523b
00000120: 1390 b3ba 143e 7e39 7906 a539 597e bdba
00000130: df75 cf38 03e5 b73a ce7b b8ba b891 1f3a
00000140: 0630 3cb8 ad81 54ba 99f0 9139 a255 03ba
-0.047305096 0.046306722 -0.01933977 0.009804839 0.0044850735 -0.008703848 0.0013832246 0.020606916
-0.01953417 0.008344039 -0.0016744204 -0.0035820855 0.008031835 -0.0016049375 -0.010617418 0.011201746
-0.0046585286 0.003719242 0.003939364 0.0027022571 0.0010776367 0.0032455772 -0.0027737855 0.0012071476
0.00096259674 -1.203459e-05 0.0038523423 -0.00018999832 -0.0012368632 0.0009307097 -0.0004258223 -0.001131817
0.000540198 -0.0030925442 -0.00041358653 -0.00018736173 -8.4656735e-05 -1.4056093e-05 -0.000960454 0.00014505172
-0.002013772 -0.00026337066 0.06258449 -0.057894103 0.024794243 0.0007124822 -0.007083322 0.03633028
-0.0006161824 -0.050906383 0.050851412 -0.021206638 0.014759176 0.007822156 -0.0014204775 0.00038998591
0.00094617065 -0.00056339963 0.00047635072 0.0045814505 -0.0052628126 0.0055432906 -0.0018341958 0.00752739
-0.0070457477 0.0030142267 -0.00028439728 -0.0008938007 0.0035568818 -0.00017666773 -0.0034211103 0.0032132908
-0.0013699554 0.00024246454 0.00031476075 -0.001445721 9.8924844e-05 0.0014030043 -0.0014074983 0.00060870824
-4.486742e-05 -0.00081064814 0.00027835814 -0.00050100137

exp_avg_sq f4 [4, 21]
00000000: 733e 8c3b 2917 873b b6a4 393a b8d2 d639
00000010: c344 4238 771f 313a d0cc db37 99f5 dd3b
00000020: 84cc d23b 229b 943a fdaa f739 d78c 4739
00000030: 2567 923a e5ae b538 f9ad 6b3a 6a30 5e3a
00000040: 40dc 1b39 2c3d 8938 7b6b f437 d5ab 2f39
00000050: a660 2139 af25 ea39 5afe d339 7659 9538
00000060: 701c 4738 3245 4636 0634 3d39 252a 1b36
00000070: 2fa1 073a 9c3e 093a 48e5 bd38 cab7 c138
00000080: a333 7837 88c3 1c39 1fe9 1637 1255 2c39
00000090: a359 3139 9801 ef37 2d16 3238 6f9f 0836
000000a0: bdc9 9a38 3dc6 d536 9a41 b83c e3e4 9e3c
000000b0: 2f64 653b de3e 663a d110 4a39 2c24 043c
000000c0: c03e d238 c81a 413c 1b8c 3a3c a145 033b
000000d0: cf22 ca3a e0d0 c939 92e7 6c3b 16f3 5539
000000e0: 28f5 053b d4a8 e63a 20d6 a839 e062 b538
000000f0: ce51 bd38 99c4 4e3a 4700 e039 c17a 4c39
00000100: f74c 2739 67e9 f837 18d1 a436 12e7 4c36
00000110: 7ac2 cd38 b220 1236 1618 d037 5928 b237
00000120: 1ee3 8036 0123 3735 0ede 9b34 3c22 1037
00000130: a0bf 5734 226c 5338 15b4 3038 efd3 0337
00000140: bf25 ec35 fcaa 1236 6452 d137 9778 d636
0.0042799055 0.004122634 0.0007081734 0.00040974258 4.6317244e-05 0.0006756703 2.6202208e-05 0.0067736623
0.0064330716 0.0011337737 0.00047238907 0.00019030586 0.0011169655 8.663329e-05 0.00089904625 0.0008475842
0.00014864001 6.544063e-05 2.9137116e-05 0.00016753313 0.00015390161 0.00044660034 0.00040434563 7.121537e-05
4.747178e-05 2.9544576e-06 0.00018043825 2.3121331e-06 0.00051738595 0.0005235465 9.054929e-05 9.2371905e-05
1.47939745e-05 0.0001495016 8.994974e-06 0.0001643489 0.00016913428 2.8491762e-05 4.245916e-05 2.0358382e-06
7.380869e-05 6.3709726e-06 0.022492219 0.019396251 0.003500234 0.00087831717 0.00019270486 0.008065265
0.000100252684 0.01178617 0.011385943 0.0020030516 0.0015421751 0.00038493332 0.003614877 0.0002040382
0.0020440314 0.0017597922 0.00032202993 8.6491695e-05 9.0274596e-05 0.00078875717 0.00042724816 0.00019500685
0.00015955033 2.967259e-05 4.9119226e-06 3.053287e-06 9.811386e-05 2.1774727e-06 2.4806748e-05 2.1238042e-05
3.841137e-06 6.822375e-07 2.9032566e-07 8.59104e-06 2.0093148e-07 5.0407027e-05 4.2129384e-05 7.857553e-06
1.7594356e-06 2.1855221e-06 2.4953108e-05 6.3917355e-06

exp_avg f4 [4]
00000000: 8e8a 403c ac3b 2839 c4e3 e1b9 ea91 c6ba
0.011751784 0.00016043958 -0.00043085043 -0.0015149687

exp_avg_sq f4 [4]
00000000: 0a8d 953a 6b3f 5f39 85c7 273b 67f2 8238
0.0011409831 0.00021290562 0.00256011 6.244034e-05

exp_avg f4 [4, 4]
00000000: 9589 04bc 93fc 01bc d270 883b e7ad 0ebc
00000010: d9c0 92bb 0c29 4ebb 18e7 2a3b 7b45 7fbb
00000020: 7011 c4ba 2381 b73a b165 bf3a ee8e 13bb
00000030: 025c b4b9 d6e7 cabc 1826 9bbb 4225 293c
-0.008089443 -0.007933754 0.00416384 -0.008708454 -0.0044785556 -0.0031457571 0.0026077684 -0.0038951326
-0.001495881 0.0014000278 0.001460245 -0.0022515613 -0.00034400827 -0.024768751 -0.0047347657 0.010323824

exp_avg_sq f4 [4, 4]
00000000: f5cd 3939 a280 b939 65ce bb39 3e54 203b
00000010: 6952 b638 6ead 6838 f65e a838 1be9 063a
00000020: 635f 5a37 3c6b ee38 bf2a bc37 d2d3 1f39
00000030: 3d10 bb39 3dfa 653b 5e90 8439 1db7 b93a
0.000177197 0.0003538179 0.00035821195 0.0024464275 8.6937864e-05 5.547463e-05 8.028552e-05 0.000514643
1.30160215e-05 0.00011368698 2.2431252e-05 0.00015242331 0.00035679518 0.003509178 0.00025284564 0.0014168952

exp_avg f4 [4]
00000000: e8c8 0e3c c6b7 743b 17bd 143b 75a7 35bc
0.008714892 0.0037340983 0.0022695714 -0.011087288

exp_avg_sq f4 [4]
00000000: b2cd 313b f06c 153a 3052 4539 93bc c93a
0.002713066 0.0005700132 0.00018818001 0.0015391283
