example-prjs/graph/model_3_1iteration.pt (torch_old, 10369 bytes, 27 tensors)

input_network.0.weight f4 [4, 3]
-0.21310341 0.020247675 -0.012137766 1.579169 -0.09096799 -0.0040563415 -0.12339578 0.93497276
-0.033153903 -1.1640894 1.7713182 -0.06643025
00000000: c837 5abe 74de a53c 7bdd 46bc 3622 ca3f
00000010: 6d4d babd 0feb 84bb edb6 fcbd 605a 6f3f
00000020: 63cc 07bd e200 95bf 8eba e23f 950c 88bd

input_network.0.bias f4 [4]
-0.5796971 0.97628355 0.27527222 -0.59085566
00000000: 0767 14bf b8ed 793f 7bf0 8c3e 5142 17bf

edge_network.network.0.weight f4 [4, 14]
-0.25362748 1.1017109 2.342573 -1.5043973 -0.7142959 -2.94779 0.27806053 -0.7529475
-1.519649 0.93493193 0.5483999 -0.976262 2.2594619 -0.10812073 -0.7560822 -1.5312778
2.633678 -0.124813505 0.12657052 -1.3745756 -0.055911977 -0.90357554 -1.7433846 1.8353584
1.3725387 1.1805923 -0.75916517 0.09392877 0.8197305 2.755323 -1.6151794 -0.24190214
0.9896268 -4.2954555 0.5941793 0.8448151 -2.1952503 2.8306394 1.3369001 -0.2365167
4.2412615 -0.13659905 0.8068968 -1.855638 0.5139853 -0.38719445 0.5172649 0.5356906
0.03713459 -0.7626664 -2.668958 -0.26497588 0.11913483 1.4364983 -0.86552465 -0.00037636555
00000000: 76db 81be dd04 8d3f b7ec 1540 1790 c0bf
00000010: 19dc 36bf 97a8 3cc0 f35d 8e3e 2bc1 40bf
00000020: dc83 c2bf b357 6f3f f063 0c3f 4eec 79bf
00000030: 069b 1040 676e ddbd 9a8e 41bf e900 c4bf
00000040: 2e8e 2840 399e ffbd b49b 013e 18f2 afbf
00000050: f503 65bd ba50 67bf 3a27 dfbf 06ed ea3f
00000060: 59af af3f a61d 973f a658 42bf ba5d c03d
00000070: dcd9 513f 3657 3040 33be cebf 32b5 77be
00000080: 2f58 7d3f 5f74 89c0 221c 183f cd45 583f
00000090: fb7e 0cc0 3229 3540 8b1f ab3f 6f31 72be
000000a0: 6ab8 8740 9fe0 0bbe ca90 4e3f 8c85 edbf
000000b0: 8a94 033f 5a3e c6be 796b 043f 0523 093f
000000c0: 711a 183d 1b3e 43bf 35d0 2ac0 ebaa 87be
000000d0: f6fc f33d 2ddf b73f 0693 5dbf ee52 c5b9

edge_network.network.0.bias f4 [4]
-1.4329844 3.0521803 -2.1742797 2.2163455
00000000: 086c b7bf ec56 4340 6627 0bc0 9bd8 0d40

edge_network.network.2.weight f4 [1, 4]
7.1530023 -4.1522226 -7.1089983 -4.0802803
00000000: 65e5 e440 02df 84c0 ea7c e3c0 a891 82c0

node_network.network.0.weight f4 [4, 21]
-0.6704964 0.6171411 -0.5910982 0.68892497 0.61589444 0.63313466 -0.047882635 0.89649427
-0.33503273 0.59171337 -0.81396246 -0.23444365 0.14690724 0.018037064 0.6576171 -0.9060322
-0.64179814 -0.39261812 1.39297 -1.8227525 0.051352695 -0.48771712 0.19963782 -0.41353133
0.0404287 0.34244412 -0.11532533 0.02366389 -1.0459713 -0.04956332 -0.8558705 0.18035918
1.5543349 -0.13368118 0.012857616 0.2227294 -0.312679 -0.12730339 0.5540853 -0.39718324
0.551073 -0.06751952 0.021029238 0.011846824 0.18058366 -0.048569974 -1.5511627 -0.00400175
-0.058362555 -0.33441314 0.4468848 -0.09118485 0.38487828 0.21356891 0.499836 0.002903536
0.55840623 -0.92164016 -0.2725738 -0.5882572 -1.3555233 -1.1900117 0.08144183 -1.3000771
0.5508477 0.42950943 0.37984708 -0.1550143 0.25760582 0.07764083 -0.23150134 0.5129603
0.51307034 -0.20899886 1.0293723 0.15924536 0.0053621107 0.8015729 -1.1364775 0.54979783
0.67323667 0.23505318 -0.83137584 -0.0371855
00000000: a7a5 2bbf f6fc 1d3f 3652 17bf 635d 303f
00000010: 42ab 1d3f 1d15 223f 9520 44bd a680 653f
00000020: 6989 abbe 877a 173f d85f 50bf ff11 70be
00000030: da6e 163e 77c2 933c 9859 283f baf1 67bf
00000040: e24c 24bf 3e05 c9be d74c b23f f44f e9bf
00000050: 3457 523d 0fb6 f9be db6d 4c3e 61ba d3be
00000060: 9198 253d d654 af3e b02f ecbd c6da c13c
00000070: 63e2 85bf e802 4bbd 541a 5bbf 14b0 383e
00000080: 72f4 c63f b8e3 08be c0a8 523c 2d13 643e
00000090: 7617 a0be d25b 02be 89d8 0d3f 9a5b cbbe
000000a0: 1f13 0d3f ad47 8abd 8245 ac3c 2e19 423c
000000b0: ecea 383e 4ff1 46bd 808c c6bf 1d21 83bb
000000c0: 930d 6fbd 3338 abbe 16ce e43e 1fbf babd
000000d0: c40e c53e cfb1 5a3e 81ea ff3e 4049 3e3b
000000e0: b6f3 0e3f 9cf0 6bbf cb8e 8bbe 0698 16bf
000000f0: ca81 adbf 4e52 98bf f9ca a63d ed68 a6bf
00000100: 5b04 0d3f a9e8 db3e 517b c23e 12bc 1ebe
00000110: e9e4 833e 2802 9f3d b00e 6dbe 5e51 033f
00000120: 9458 033f cc03 56be 79c2 833f 3711 233e
00000130: a5b4 af3b e233 4d3f 1878 91bf 8dbf 0c3f
00000140: 3d59 2c3f c8b1 703e 0cd5 54bf d34f 18bd

node_network.network.0.bias f4 [4]
0.20300426 0.14516015 0.049486272 0.21385989
00000000: 59e0 4f3e dda4 143e 1eb2 4a3d 16fe 5a3e

node_network.network.2.weight f4 [4, 4]
1.2711269 0.52040714 1.9917514 2.1090043 1.5586474 -1.5677735 0.95815784 1.2432665
-2.236846 2.4476805 -1.6416265 -1.7600347 -0.47092816 0.5336936 -2.8859038 -1.2373549
00000000: 49b4 a23f 6739 053f b6f1 fe3f edf9 0640
00000010: c281 c73f cdac c8bf d549 753f 5b23 9f3f
00000020: 7c28 0fc0 cca6 1c40 d120 d2bf d148 e1bf
00000030: 7f1d f1be 25a0 083f a6b2 38c0 a561 9ebf

node_network.network.2.bias f4 [4]
-0.39882818 0.43942702 0.7459406 0.13048415
00000000: 3533 ccbe 94fc e03e f7f5 3e3f a39d 053e

exp_avg f4 [4, 3]
-0.0014382444 0.02692083 -0.0031526298 -0.0009760106 -0.0063904687 0.0031200142 -0.0011063517 0.030562572
-0.0045146644 0.0005389753 -0.0048076957 0.00586717
00000000: 7983 bcba 1389 dc3c 5a9c 4ebb f6da 7fba
00000010: 2367 d1bb 2779 4c3b 0103 91ba 5c5e fa3c
00000020: c0ef 93bb 054a 0d3a e089 9dbb 6441 c03b

exp_avg_sq f4 [4, 3]
0.00036639284 0.0074948776 0.0007284042 3.8316804e-05 0.0009924708 0.00012172887 0.00017755367 0.0065826266
0.0003221359 6.551781e-05 0.0005987704 0.00020553549
00000000: 6a18 c039 9797 f53b 61f2 3e3a 5bb6 2038
00000010: cb15 823a b148 ff38 b32d 3a39 13b3 d73b
00000020: 59e4 a839 9b66 8938 cdf6 1c3a 0385 5739

exp_avg f4 [4]
-0.022408336 -0.004291272 -0.021400312 0.0065770703
00000000: b091 b7bc cc9d 8cbb b54f afbc 7784 d73b

exp_avg_sq f4 [4]
0.03696054 0.010335562 0.032270566 0.005123031
00000000: ef63 173d 7d56 293c 242e 043d 19df a73b

exp_avg f4 [4, 14]
0.0024712698 0.0019946622 0.006597701 -0.0021071392 0.00019123036 -6.8959955e-05 -0.0011735857 0.0047679115
0.003987821 0.0036554397 -0.0065366104 0.0005176095 -0.0043629142 -0.00077994843 -0.0011851651 0.0037071793
0.0018531493 0.00038424626 0.0003086535 0.0011627862 0.00010596864 -0.001686354 0.0036386393 -0.00070608704
-0.0032166014 0.00048463594 -0.002502853 -0.00092628103 -0.0039074384 0.0037600282 0.0012519995 0.0014884624
0.00028633844 0.0047681797 -0.00032710956 -0.0044087307 0.004546784 0.0022684059 0.005070595 0.00042673608
0.005946306 -0.0009073575 -0.004548003 0.0049235267 0.0036843095 0.0045779864 0.0004780786 0.005211568
0.00080305967 -0.0042471644 0.0051285215 -0.0024859337 -0.005777978 0.00069694227 -0.002842784 -0.0016216523
00000000: 07f5 213b e1b8 023b 8731 d83b ee17 0abb
00000010: 0285 4839 989e 90b8 00d3 99ba 243c 9c3b
00000020: 44ac 823b 1a90 6f3b 1031 d6bb 2fb0 073a
00000030: c7f6 8ebb 7475 4cba 8b57 9bba 26f4 723b
00000040: 5fe5 f23a a974 c939 c6d2 a139 a168 983a
00000050: 7b3b de38 a708 ddba 3d76 6e3b b318 39ba
00000060: 9ecd 52bb bc16 fe39 e806 24bb abd1 72ba
00000070: f809 80bb ce6a 763b 221a a43a 8318 c33a
00000080: b21f 9639 643e 9c3b e77f abb9 1d77 90bb
00000090: 30fd 943b 89a9 143b 3c27 a63b 8cbb df39
000000a0: 3bd9 c23b bbdb 6dba 6a07 95bb 8955 a13b
000000b0: 7574 713b ef02 963b a0a6 fa39 cdc5 aa3b
000000c0: 6c84 523a cc2b 8bbb 280d a83b 0ceb 22bb
000000d0: 3155 bdbb 01b3 363a 004e 3abb 9f8d d4ba

exp_avg_sq f4 [4, 14]
0.0007351242 0.0005217496 0.0014860611 0.000554227 4.969842e-06 0.00051488983 1.5557323e-05 0.00067333435
0.0004626196 0.0009946681 0.00041685125 1.626372e-05 0.00038901938 3.455617e-05 8.022034e-05 0.00032914366
0.0001716106 0.00015007578 1.9046175e-06 0.00013377873 3.899527e-06 0.00010194902 0.0004029202 6.729088e-05
0.0003762177 5.6984845e-06 0.00023467677 1.9734991e-05 0.0003741344 0.00031576128 0.000754103 0.00016901981
2.7653684e-06 0.00023648849 7.635491e-06 0.00028680143 0.00022512679 0.00065102126 0.0003723547 8.29155e-06
0.00028071084 2.22289e-05 0.0006322806 0.0014014731 0.0010043532 0.00065895426 7.539818e-06 0.0010198525
1.610535e-05 0.0006545422 0.0016185673 0.00019497743 0.0016665432 2.2811084e-05 0.00064796733 6.739633e-05
00000000: 5ab5 403a 06c6 083a f0c7 c23a 8b49 113a
00000010: 9ec2 a636 acf9 063a 1981 8237 b482 303a
00000020: c08b f239 865f 823a d48c da39 136e 8837
00000030: 4cf5 cb39 68f0 1038 f83b a838 ea90 ac39
00000040: 5ff2 3339 a95d 1d39 29a2 ff35 f446 0c39
00000050: afd8 8236 77cd d538 093f d339 841e 8d38
00000060: 163f c539 9c35 bf36 9113 7639 928c a537
00000070: 7827 c439 c38c a539 ffae 453a e93a 3139
00000080: ab94 3936 e5f9 7739 2f1a 0037 d65d 9639
00000090: 0310 6c39 4ca9 2a3a 9a38 c339 f01b 0b37
000000a0: 5f2c 9339 3378 ba37 a2bf 253a a2b1 b73a
000000b0: 80a4 833a acbd 2c3a 8bfe fc36 92ac 853a
000000c0: fa19 8737 9595 2b3a 1b26 d43a db72 4c39
000000d0: e96f da3a 6e5a bf37 5adc 293a 2157 8d38

exp_avg f4 [4]
0.008101171 0.0040616407 0.0030230128 0.004935869
00000000: c6ba 043c 8317 853b bd1d 463b 12bd a13b

exp_avg_sq f4 [4]
0.001917415 0.00058264367 0.00085487607 0.0023882543
00000000: c551 fb3a 8ebc 183a c319 603a 4284 1c3b

exp_avg f4 [1, 4]
0.0007821269 -0.00039187082 0.00079199736 0.0014473706
00000000: a607 4d3a 0374 cdb9 0b9e 4f3a b3b5 bd3a

exp_avg_sq f4 [1, 4]
0.00040030415 0.00024696245 0.00047985354 0.00019260003
00000000: eadf d139 bd7a 8139 da94 fb39 adf4 4939

exp_avg f4 [4, 21]
0.0043887277 -0.006465333 -0.0034956322 0.0014052617 -0.0006321589 -0.002329156 0.00035957605 0.015461432
-0.02302557 0.0061613894 0.030042492 -0.0019967107 0.015262863 -0.0044160914 0.0071899216 -0.010619004
0.0022184625 0.01077647 -0.0007729823 0.0061824806 -0.0029848448 -0.0114147905 0.017250268 0.0012955745
-0.014461302 0.0018560691 -0.00485256 -0.0015260428 -0.00091760745 0.0011838444 -0.005555671 -0.008126206
-0.00027074738 -0.008042758 0.0012569188 -0.005925502 0.008926491 -1.9073346e-05 -0.0072403103 0.001166803
-0.0032431206 0.0021340533 0.018996412 -0.028234638 -0.003669933 0.016034063 -0.0018683858 0.003714623
0.0015175554 0.0016446039 -0.0024840324 -0.009745033 -0.0126935225 -0.00057798903 -0.013100373 0.0011650845
0.0067002 -0.010121984 -0.0012949307 0.004417206 -0.0012257063 0.0012723457 0.0002815385 0.0080283275
-0.012176622 0.0070372494 0.013849386 -0.0011250392 0.011972765 0.0006133267 0.007731358 -0.011527656
0.0047128797 0.014565743 -0.00092684606 0.009992454 -0.000460198 0.006531696 -0.009832272 0.0052691866
0.010725273 -0.00093641976 0.009174845 0.0003236311
00000000: 51cf 8f3b 25db d3bb fa16 65bb c230 b83a
00000010: 77b7 25ba c1a4 18bb 7b85 bc39 f251 7d3c
00000020: 1fa0 bcbc 7be5 c93b ac1b f63c 3fdb 02bb
00000030: 1611 7a3c dcb4 90bb 6f99 eb3b 55fb 2dbc
00000040: a063 113b cb8f 303c f7a1 4aba 6896 ca3b
00000050: 639d 43bb 1a05 3bbc 6f50 8d3c 44d0 a93a
00000060: 19ef 6cbc 5847 f33a 3902 9fbb 8005 c8ba
00000070: 988b 70ba 3a2b 9b3a 590c b6bb c723 05bc
00000080: 19f3 8db9 c6c5 03bc 32bf a43a b72a c2bb
00000090: 6b40 123c b3ff 9fb7 2040 edbb 69ef 983a
000000a0: 898a 54bb 79db 0b3b 5d9e 9b3c 544c e7bc
000000b0: 4283 70bb de59 833c a0e4 f4ba 0871 733b
000000c0: b6e8 c63a c08f d73a 26cb 22bb a2a9 1fbc
000000d0: 7ef8 4fbc 3084 17ba f2a2 56bc c0b5 983a
000000e0: 5a8d db3b aed6 25bc aaba a9ba 36be 903b
000000f0: e1a7 a0ba d6c4 a63a 759b 9339 3f89 033c
00000100: 7480 47bc ba98 e63b 89e8 623c 0d76 93ba
00000110: 6b29 443c a8c7 203a 5557 fd3b 7ede 3cbc
00000120: 806e 9a3b 27a5 6e3c 96f7 72ba 64b7 233c
00000130: bb46 f1b9 d607 d63b 8a17 21bc 24a9 ac3b
00000140: 0eb9 2f3c 117a 75ba 1752 163c 08ad a939

exp_avg_sq f4 [4, 21]
0.013834607 0.030109558 0.0062864106 0.020091392 0.00012640844 0.009460509 0.00013282515 0.014724709
0.033849142 0.0038885297 0.027298303 0.0006235806 0.009932087 0.0005247057 0.0021072049 0.004732081
0.0010066414 0.003568313 5.4947657e-05 0.0016844342 0.00026906197 0.011022671 0.024566146 0.005405664
0.019057447 0.00019299472 0.008617317 0.00020741257 0.006465461 0.014340634 0.0045596287 0.0037445228
0.00014640793 0.002961476 0.00016561948 0.0018711304 0.0042232997 0.0009285706 0.0030480004 6.485492e-05
0.0013043011 0.00024843065 0.0102728605 0.022384929 0.0045728004 0.018284908 0.000107154665 0.008789298
0.00012097256 0.014180873 0.03236774 0.005770636 0.023785556 0.0005483661 0.010238518 0.00048288645
0.0015772841 0.0035110908 0.0012418566 0.0032367567 4.158018e-05 0.0020599095 0.00030889668 0.0049964353
0.011308299 0.0013639148 0.013635078 9.3830495e-05 0.0059147715 8.788651e-05 0.0021155362 0.004746094
0.0005828503 0.0036506054 4.0058785e-05 0.0015163741 4.5727542e-05 0.0008464777 0.0019381228 0.0003493511
0.0023152109 3.1139327e-05 0.0011098727 0.00011949649
00000000: 8caa 623c 52a8 f63c 3cfe cd3b b496 a43c
00000010: 828c 0439 4000 1b3c fb46 0b39 e83f 713c
00000020: 66a5 0a3d b4d6 7e3b b1a0 df3c c977 233a
00000030: 31ba 223c 678c 093a 0819 0a3b 930f 9b3b
00000040: 48f1 833a 5cda 693b 9977 6638 3cc8 dc3a
00000050: e310 8d39 6f98 343c f13e c93c ff21 b13b
00000060: 5d1e 9c3c a05e 4a39 a62f 0d3c e37c 5939
00000070: 38dc d33b fbf4 6a3c f068 953b ab66 753b
00000080: 1485 1939 5315 423b 24aa 2d39 b840 f53a
00000090: 9b63 8a3b 516b 733a f6c0 473b b802 8838
000000a0: 15f5 aa3a cc3f 8239 804f 283c 9960 b73c
000000b0: 6ed7 953b 3bca 953c 39b8 e038 fd00 103c
000000c0: a6b2 fd38 e456 683c 0994 043d 9a17 bd3b
000000d0: edd9 c23c 3ac0 0f3a 75bf 273c ec2b fd39
000000e0: dfbc ce3a 541a 663b cbc5 a23a c41f 543b
000000f0: 6166 2e38 8cff 063b 69f3 a139 23b9 a33b
00000100: 7246 393c 63c5 b23a aa65 5f3c ddc6 c438
00000110: b3d0 c13b b64f b838 cfa4 0a3b 1f85 9b3b
00000120: 6cca 183a ff3e 6f3b cb04 2838 12c1 c63a
00000130: 93cb 3f38 28e6 5d3a 9c08 fe3a 1c29 b739
00000140: cbba 173b 999b 0238 2679 913a 319a fa38

exp_avg f4 [4]
-0.013202104 0.010814113 -0.012453778 -0.01194929
00000000: a34d 58bc ad2d 313c ee0a 4cbc f4c6 43bc

exp_avg_sq f4 [4]
0.0072355005 0.006427951 0.0054425634 0.0028384095
00000000: c717 ed3b 90a1 d23b 8857 b23b 9c04 3a3b

exp_avg f4 [4, 4]
0.00092997873 -0.0017316943 -0.0009533501 5.1082225e-05 -0.0051473933 0.0020045692 0.00078476913 0.004843091
0.0020617088 0.006418053 0.00016045592 0.0067775045 0.00077768386 -0.0012275362 -0.00089318637 -0.00095301797
00000000: d1c9 733a 05fa e2ba 3eea 79ba 1f41 5638
00000010: 77ab a8bb 175f 033b f7b8 4d3a cbb2 9e3b
00000020: bc1d 073b 884e d23b 0f40 2839 d415 de3b
00000030: 7bdd 4b3a 48e5 a0ba b924 6aba f4d3 79ba

exp_avg_sq f4 [4, 4]
0.0006220006 0.0008211903 0.0005013581 0.0016792421 0.0008680615 0.00055816513 0.0005676348 0.001132517
0.0003885874 0.0007093523 0.00033023587 0.0011636139 0.0007449538 0.0008142931 5.7712998e-05 0.0011120348
00000000: c10d 233a 2645 573a 936d 033a 041a dc3a
00000010: 9f8e 633a d451 123a 54cd 143a f770 943a
00000020: 51bb cb39 d4f3 393a 8223 ad39 6784 983a
00000030: 0149 433a 4976 553a dc10 7238 b2c1 913a

exp_avg f4 [4]
-0.0014835411 0.0033350599 0.0106825065 -0.00073257467
00000000: 6173 c2ba 0591 5a3b ae05 2f3c 410a 40ba

exp_avg_sq f4 [4]
0.0022028831 0.0012138507 0.0015629596 0.0015667856
00000000: 3f5e 103b 121a 9f3a 39dc cc3a 9a5c cd3a
