example-prjs/graph/model_5_1iteration.pt (torch_old, 8119 bytes, 27 tensors)

input_network.0.weight f4 [4, 3]
000000 b5 0e ab 3d 41 1a 2b 3f 5f ff 42 bd d9 3d 0d be
       0.083524145 0.66836935 -0.047606822 -0.13793124
000010 78 5d 25 bd 90 cb cb 3b bc 3d a2 3f a4 97 69 bf
       -0.040372342 0.006219335 1.267509 -0.9124701
000020 dd 97 aa 3d 22 cb eb bd 9c 4d ec be f8 e2 fd 3c
       0.08329747 -0.11513354 -0.4615296 0.030992016

input_network.0.bias f4 [4]
000000 d5 ad 25 be 61 0d 59 3f ee f8 96 3f e9 ef 10 3e
       -0.16179593 0.8478604 1.1794717 0.14154018

edge_network.network.0.weight f4 [4, 14]
000000 4d 85 30 3f 15 c7 8c bf 7e 73 ef 3f 5e b5 95 bf
       0.689534 -1.0998255 1.870712 -1.1695974
000010 b0 c6 8e bf b3 b6 2c 3e 78 58 a4 bd 0d d3 f4 3e
       -1.1154385 0.16866569 -0.080246866 0.4781727
000020 54 da ce bf 48 74 61 3f 27 d0 67 3f 21 f6 71 bf
       -1.6160378 0.88068056 0.9055199 -0.9451619
000030 ac 1d f5 3e f1 61 83 3c 0c b2 c8 be 00 c1 de 3f
       0.478742 0.016037913 -0.3919834 1.7402649
000040 90 9a b0 bf 89 72 cc be b9 f5 19 40 c3 40 aa be
       -1.3797169 -0.39931133 2.4056227 -0.33252534
000050 ca ee b2 bc 84 76 2b bf ab 42 d5 3f 10 06 95 bf
       -0.02184238 -0.66977715 1.666097 -1.1642475
000060 54 f7 e2 3f e2 03 1d 40 06 13 66 bf 76 ac c1 3d
       1.7731729 2.453362 -0.8987278 0.094567224
000070 af a6 c5 3f a7 0c b3 3e e1 1c d6 3e 51 f7 87 c0
       1.5441493 0.3497059 0.41818908 -4.24894
000080 a1 2c 1b 3f b6 62 6f 40 f5 44 b1 bd ad d3 48 c0
       0.60614973 3.7403998 -0.08655731 -3.1379197
000090 a5 8c cd 3f 85 db 55 be 68 3a 4d 40 b6 ea 56 be
       1.6058546 -0.20884521 3.2066898 -0.20987973
0000a0 9e 09 43 c0 3f 87 a4 bd f4 e4 88 c0 77 bf 80 3f
       -3.047462 -0.08033609 -4.2779484 1.005843
0000b0 10 d0 25 3e ca 85 0d 40 c4 88 07 bd 99 5d 44 c0
       0.16192651 2.2112908 -0.033089414 -3.0682127
0000c0 57 60 8a 3d d5 b9 58 40 3f ca c3 3e 6c 34 ef 3b
       0.067566566 3.3863423 0.3824024 0.0072999503
0000d0 37 ef 52 c0 c4 56 95 3d 3d b1 3a 40 ac 9d ab 3d
       -3.2958505 0.0729194 2.9170678 0.08379683

edge_network.network.0.bias f4 [4]
000000 5e 22 84 bf 56 6b 9f 3f 37 86 8f bf f4 e2 32 bf
       -1.0322988 1.2454631 -1.1212834 -0.69877553

edge_network.network.2.weight f4 [1, 4]
000000 90 38 cd 40 af 75 c2 c0 5d b0 1d 41 93 67 28 41
       6.4131546 -6.0768657 9.855557 10.525287

node_network.network.0.weight f4 [4, 21]
000000 a0 8d 8a bd f2 6f 7b 3e b4 c4 1a bd 38 e9 1e be
       -0.06765294 0.24554422 -0.037785247 -0.15518653
000010 df 9d f4 bd be 67 92 bb 62 7b ba 3b 34 a4 6f be
       -0.11944174 -0.0044679334 0.005690978 -0.23402482
000020 5f aa 1f 3f 17 88 2a 3f af 43 a8 3d 29 2a 82 be
       0.6236934 0.66613907 0.082160346 -0.2542279
000030 bf 45 d8 3c 85 29 18 bd 28 a9 33 be bd 28 61 bd
       0.026400445 -0.03714897 -0.17544997 -0.05497049
000040 e4 61 7b be 50 c4 18 3d 76 ea 23 3e 4e e7 c4 3d
       -0.24549061 0.037296593 0.16007408 0.0961443
000050 34 50 94 bc 19 32 95 be 2e 57 1c bf 34 a3 99 3e
       -0.01810465 -0.29139784 -0.61070526 0.30007327
000060 7b da 99 3d 7c 08 00 be 40 f7 4e 3e c9 f3 56 3c
       0.07512375 -0.12503237 0.20211506 0.013119646
000070 60 a4 c1 be 74 ca 8d bf 8c 91 1a 3e 86 c8 d2 3e
       -0.3782072 -1.1077409 0.15094584 0.41168612
000080 7e d7 b4 be ad 00 22 3e 49 d5 fb bb 68 db 25 bf
       -0.35320657 0.1582057 -0.0076853377 -0.6478791
000090 9f 8d 0c bf 83 b9 16 3f 9f 8e 91 be a4 78 ed 3e
       -0.54903597 0.5887682 -0.28429124 0.46381104
0000a0 b3 b7 78 3c 48 74 0c bc ae dd 99 be 57 80 d5 3d
       0.015180516 -0.0085726455 -0.3005194 0.104248695
0000b0 19 74 47 bc 96 39 31 bf fa 66 ba 3c cd 08 11 be
       -0.012173676 -0.69228494 0.022754181 -0.14163513
0000c0 0e 84 53 3c f8 4a cb bc 00 73 ba be c3 da d2 3e
       0.012909902 -0.024816021 -0.36415863 0.41182527
0000d0 a5 72 cc be 68 df 13 be 9a 77 49 be 64 b7 0b 3c
       -0.39931217 -0.14440691 -0.1967453 0.00852761
0000e0 9b 67 29 bf 4d 7e b0 3e ca 1f 84 bf 3a f0 3d 3f
       -0.66173714 0.3447136 -1.0322201 0.7419468
0000f0 b9 d5 c6 3e c1 4a a3 3f bf 72 a3 bd 07 77 03 3f
       0.38834932 1.2757188 -0.079808705 0.51353496
000100 4b 2b 96 be 92 2d 53 bf b8 b6 59 bf 1c 14 b7 3d
       -0.29329905 -0.8249141 -0.8504443 0.089393824
000110 56 a0 10 be 29 4a 03 bd 7e 31 df 3c 82 58 10 bf
       -0.14123663 -0.032053147 0.02724528 -0.5638505
000120 06 f5 a4 3f 23 7e 3c bf 35 02 24 3c 79 ab 47 bf
       1.2887275 -0.7362997 0.010010292 -0.7799602
000130 b3 5f 44 3d 7c a5 8e 3f 02 bf 8a bf d7 d2 4c c0
       0.04794283 1.1144252 -1.0839541 -3.2003686
000140 fd d1 3a be 21 7e 9f bf 4e f7 01 40 b5 1e 93 bd
       -0.18244167 -1.2460366 2.0307193 -0.07183591

node_network.network.0.bias f4 [4]
000000 d9 43 1b 3e 71 73 b5 be 3e e5 03 3f 42 11 9f bf
       0.151626 -0.35439637 0.5152167 -1.2427142

node_network.network.2.weight f4 [4, 4]
000000 84 56 b9 3f c5 7f bf 3f ba c1 3f 40 b7 fe 27 3f
       1.4479527 1.4960867 2.9961991 0.6562304
000010 df 39 5a be 25 4b d6 3d 52 73 c2 bf a5 e3 d6 bf
       -0.21311139 0.104635514 -1.5191443 -1.6788222
000020 1f 5c 08 bf a2 ff 90 3e 2a bb ed 3f 17 5b 1a bf
       -0.53265566 0.28320032 1.8572743 -0.6029524
000030 19 78 2a 3d 35 c0 8e bf 38 33 2f c0 42 6a db 3f
       0.04161844 -1.1152407 -2.7375011 1.7141802

node_network.network.2.bias f4 [4]
000000 a3 ed 9c 3d 3c 1c 35 3f 51 4e a3 bf e0 c5 91 3f
       0.07662513 0.7074621 -1.2758275 1.1388512

exp_avg f4 [4, 3]
000000 5d 1e 98 39 97 b2 19 ba 4b 6a dd 3b 6e f5 76 ba
       0.00029014322 -0.0005863099 0.006757056 -0.0009420727
000010 6f c4 8b 3b 8b 1f 5e 3a 17 9c 2e 3a 4b 9e 6a ba
       0.00426536 0.0008473328 0.00066608324 -0.0008949979
000020 e5 c1 25 3a 5b bc 18 bb 79 69 d5 bb 18 fc a8 3b
       0.0006323143 -0.0023305628 -0.0065128175 0.005157005

exp_avg_sq f4 [4, 3]
000000 4e 1a 2a 3a a9 5c 10 3b 87 83 ee 3a b2 63 90 39
       0.0006488905 0.0022027886 0.0018197157 0.000275401
000010 03 87 66 3a b4 c9 1a 39 b2 09 2f 38 62 67 b7 39
       0.0008793922 0.00014761725 4.173228e-05 0.00034981506
000020 f2 eb e1 38 b3 a1 0b 3a e9 7a 60 3b 42 86 61 3a
       0.00010772784 0.0005326524 0.0034252948 0.0008603075

exp_avg f4 [4]
000000 8b f8 24 bc 27 54 f9 bb cd 5f cb b9 ac 1e 6d bc
       -0.010069023 -0.0076089087 -0.00038790554 -0.014472645

exp_avg_sq f4 [4]
000000 5c 49 ba 3c ac 85 c5 3b 51 8d 54 3a eb 59 0c 3d
       0.022740059 0.006027898 0.0008108216 0.03426544

exp_avg f4 [4, 14]
000000 8b 67 96 39 fb c5 33 b9 ce 1b 88 b8 a2 c7 3d b9
       0.00028687375 -0.00017144524 -6.4901644e-05 -0.00018098814
000010 d7 4b aa 38 6e 75 90 39 3a 56 f7 b9 86 78 aa 39
       8.120358e-05 0.00027553312 -0.00047175755 0.00032514724
000020 48 b2 1b b9 2a e9 06 b9 0b 12 69 b9 b0 e2 d2 38
       -0.00014848367 -0.00012866096 -0.00022227333 0.00010055804
000030 98 e7 b7 39 e5 10 13 ba 74 7d 30 39 55 b5 a6 38
       0.0003507703 -0.00056101225 0.00016831403 7.9492725e-05
000040 34 a4 e8 b8 d6 d6 f4 b8 45 46 57 b8 e6 24 d3 39
       -0.00011093207 -0.00011674843 -5.1325438e-05 0.00040272548
000050 fa 9d e8 37 e7 a8 55 38 81 05 25 38 2c 74 c4 b7
       2.7730119e-05 5.094046e-05 3.934419e-05 -2.3419117e-05
000060 56 a6 10 b7 20 ed 85 b8 6d bd 61 39 f4 07 a1 38
       -8.621797e-06 -6.386102e-05 0.00021528239 7.6785596e-05
000070 35 24 57 ba b1 53 33 bb 80 1d df ba 2f eb 62 3a
       -0.00082069944 -0.0027363116 -0.0017022341 0.0008656261
000080 37 e1 76 b8 0d 02 43 ba f8 c2 48 b9 34 14 0e 39
       -5.8860718e-05 -0.0007438965 -0.00019146118 0.00013549702
000090 70 95 3f bb 86 bf f0 ba 3d f6 21 39 4a 44 41 b9
       -0.0029233359 -0.0018367625 0.00015445887 -0.00018431354
0000a0 79 9c 00 3a 1e 61 33 ba b2 ef 50 3a f7 d8 94 bb
       0.0004906129 -0.00068427797 0.00079702877 -0.004542466
0000b0 76 d4 24 3b 36 7d 9f b9 b1 e2 92 b9 aa 17 0f 3a
       0.002515105 -0.00030420133 -0.00028016188 0.00054585433
0000c0 e5 8f e7 ba ee 9e 22 3a 48 38 8c bb 04 a1 22 3a
       -0.0017666785 0.0006203492 -0.00427917 0.0006203803
0000d0 b3 4f 9a 3a 62 41 05 ba a1 2f a5 b9 67 60 20 bb
       0.001177302 -0.000508329 -0.0003150674 -0.0024471523

exp_avg_sq f4 [4, 14]
000000 d5 99 1b 37 4e 9f c1 38 85 33 e1 38 79 4a 87 36
       9.274537e-06 9.23263e-05 0.00010738432 4.0319833e-06
000010 44 2b 2f 36 c7 d9 36 38 69 02 1f 36 3f fe 13 37
       2.6102216e-06 4.3595002e-05 2.369425e-06 8.821079e-06
000020 ab cc bd 38 d9 ba f3 38 e6 44 7d 36 ee 4b d3 36
       9.050345e-05 0.00011621946 3.7740042e-06 6.2971294e-06
000030 f8 04 30 38 71 fa 2f 36 4b ab 84 35 d9 a6 01 37
       4.1966297e-05 2.6222808e-06 9.884619e-07 7.727846e-06
000040 67 c6 ee 36 9b 36 98 34 6f c9 19 34 62 a4 00 37
       7.11605e-06 2.8351937e-07 1.4322517e-07 7.667668e-06
000050 b4 ef 67 34 8f fb 8d 35 d3 42 f7 36 97 36 00 37
       2.1600755e-07 1.0578532e-06 7.368953e-06 7.642105e-06
000060 cc 38 bb 34 7d a5 c0 34 5d 63 00 37 a0 f1 4d 34
       3.487279e-07 3.5883195e-07 7.652529e-06 1.9180015e-07
000070 5f 13 2a 39 a6 a7 85 39 d5 fe 4f 3b df a8 0b 39
       0.0001621968 0.00025492645 0.0031737585 0.00013318982
000080 00 fb 45 37 7b 26 35 39 83 d1 47 37 69 52 01 39
       1.18005555e-05 0.0001727584 1.1910105e-05 0.00012333099
000090 e5 e9 81 39 c5 a8 43 3b 53 f8 5a 39 2a 37 eb 37
       0.00024779062 0.0029855233 0.00020882608 2.803987e-05
0000a0 39 3d 32 39 10 63 ef 37 ba e5 0f 39 c1 d4 e6 39
       0.0001699821 2.853715e-05 0.00013723123 0.00044027533
0000b0 16 a2 4d 3b cd c3 ec 38 70 1d 82 37 9c ff 50 39
       0.0031377128 0.00011289828 1.5510916e-05 0.00019931648
0000c0 12 d9 80 37 07 ac e5 38 d7 42 e1 39 82 d4 4a 3b
       1.535987e-05 0.000109516135 0.00042965144 0.0030949418
0000d0 92 af 29 39 10 85 1c 38 ff 5b 52 39 52 d2 ec 37
       0.00016182501 3.7317222e-05 0.00020061432 2.823133e-05

exp_avg f4 [4]
000000 ae 42 5a b9 39 10 a2 38 8c 3d 72 bb 02 45 a0 bb
       -0.0002081494 7.727784e-05 -0.0036962954 -0.004891039

exp_avg_sq f4 [4]
000000 55 52 50 39 45 79 8b 37 24 65 47 3a 39 64 94 3a
       0.00019867097 1.6626562e-05 0.00076063187 0.0011321373

exp_avg f4 [1, 4]
000000 93 42 a9 39 24 1b 9c b9 59 bb 7c ba 23 b3 2d ba
       0.00032283794 -0.0002977486 -0.0009640954 -0.000662612

exp_avg_sq f4 [1, 4]
000000 71 f4 09 37 89 89 56 37 dc 37 86 36 e1 24 34 36
       8.22275e-06 1.2787416e-05 4.000014e-06 2.6843556e-06

exp_avg f4 [4, 21]
000000 32 c0 d6 ba 4e 41 39 bb 5a e9 3c bb d4 de 87 3a
       -0.0016384183 -0.0028267684 -0.0028825612 0.001036609
000010 58 52 42 ba 38 0e 5b bb 91 b7 3a 39 a0 76 d0 b9
       -0.0007412783 -0.0033425223 0.00017806726 -0.00039761234
000020 f6 7d e3 3a 10 a4 19 3b 0f 6a a9 39 a0 05 32 3a
       0.0017356265 0.0023443736 0.00032313212 0.00067909993
000030 43 c8 69 b9 02 f6 d4 ba d8 72 f8 b9 64 36 1a bb
       -0.00022295215 -0.0016247632 -0.0004738781 -0.0023530954
000040 b0 f6 3b bb 23 c9 97 39 30 a9 92 ba f3 50 c0 ba
       -0.0028680973 0.00028950823 -0.0011189338 -0.0014672562
000050 48 cd 38 b8 60 5d d1 ba 81 dd 37 ba dc fc ab b9
       -4.40602e-05 -0.0015973262 -0.00070139027 -0.00032804057
000060 f0 49 87 3a b6 d2 91 ba c7 67 0a bb af 83 ab b8
       0.0010321718 -0.0011125419 -0.0021118985 -8.1784434e-05
000070 87 f4 08 bb 82 7f 98 3b 4d a0 d1 3b 56 2b d3 3a
       -0.0020897703 0.004653872 0.006397283 0.0016110938
000080 ce 71 b7 3a 11 30 0a bb 1c 83 42 bb aa ed 02 ba
       0.0013995708 -0.0021085779 -0.0029680198 -0.0004994521
000090 0a fb 51 ba c2 f6 9e ba 77 5b cf 39 b4 71 a5 ba
       -0.0008010125 -0.0012127983 0.00039550263 -0.0012622387
0000a0 a6 38 85 ba c1 78 3b 3a 02 21 16 ba 08 2a 76 3c
       -0.0010163977 0.00071514776 -0.00057269644 0.0150246695
0000b0 37 15 8d 3c 4f 1e 52 3a e7 f1 ae b9 12 62 af 3b
       0.01722203 0.00080153806 -0.00033368098 0.005352267
0000c0 37 cf 48 bb fa 1c 42 b6 55 9b 8e 3c ae 34 a9 3c
       -0.0030641088 -2.892512e-06 0.017408052 0.020655002
0000d0 ee c2 18 3a 25 72 a7 3b cb 87 89 3b 9c 9f 38 bc
       0.00058273866 0.0051100426 0.004197096 -0.011268523
0000e0 33 69 dd b8 da 09 9e 3b 10 2d af 3b c2 cd de 39
       -0.00010557696 0.0048229517 0.005345948 0.0004249644
0000f0 91 16 84 ba 0e 4f 70 3a f8 33 43 bb b0 84 1e b7
       -0.0010077526 0.00091670535 -0.0029785614 -9.448428e-06
000100 87 42 a0 37 6b 66 4c 37 c6 ed 05 37 34 94 43 b7
       1.9104466e-05 1.2183194e-05 7.982779e-06 -1.1657412e-05
000110 1d fe c4 b6 7a f2 91 37 38 07 80 b7 34 86 85 b7
       -5.870838e-06 1.7398259e-05 -1.526215e-05 -1.5917329e-05
000120 6c 7a 10 b7 3f e9 ef 36 f5 05 4b 37 89 3a 8a b7
       -8.611572e-06 7.1499085e-06 1.210113e-05 -1.647814e-05
000130 69 dd be 38 99 cd 84 b8 8b 0f e0 b8 b9 fb 90 b8
       9.101147e-05 -6.332546e-05 -0.000106840474 -6.913342e-05
000140 a9 ce 24 38 fb fd c0 34 c0 cc 08 b9 7c f6 71 38
       3.9293114e-05 3.5947582e-07 -0.00013046246 5.7688434e-05

exp_avg_sq f4 [4, 21]
000000 b1 93 a6 38 9a 15 85 3a 71 6e b9 3a 67 0b 25 38
       7.9430065e-05 0.0010153532 0.0014147294 3.9349685e-05
000010 a3 d4 82 38 2c db 9e 39 55 1f 04 38 13 93 0e 38
       6.23849e-05 0.00030299404 3.1500433e-05 3.399241e-05
000020 c7 5b 6f 39 c2 8c b0 39 e9 7a 98 37 6b e9 a0 37
       0.00022827006 0.0003367421 1.8177047e-05 1.918218e-05
000030 aa 10 a4 38 a6 16 21 37 bd 7a 4c 38 5b 59 18 3a
       7.823233e-05 9.601621e-06 4.87517e-05 0.0005811655
000040 2a 45 70 3a 03 7c d3 37 b8 57 b1 38 47 ca 21 39
       0.00091655797 2.5210908e-05 8.4563566e-05 0.0001542951
000050 fb 23 f9 38 a4 97 5a 39 70 08 ba 3a 11 15 10 3b
       0.00011879947 0.0002084659 0.0014193188 0.0021985213
000060 a1 e0 ee 38 47 a7 c0 38 5c 16 db 39 5b 5b 6c 38
       0.00011390565 9.186431e-05 0.00041787594 5.6351866e-05
000070 f7 da ca 39 97 ea a0 3a e4 0a 17 3b 0b 7a 5e 39
       0.00038691584 0.0012276944 0.0023047263 0.00021217034
000080 8e a7 12 39 b9 e8 f8 39 1b 6b af 38 a2 7f 33 38
       0.00013986064 0.00047475638 8.3646e-05 4.2795793e-05
000090 8d 48 03 3a b0 15 5c 3a 6c f8 b2 37 ec 4a 03 39
       0.00050080643 0.00083955657 2.1334934e-05 0.00012521044
0000a0 69 cc 18 39 81 9a 9f 39 a9 13 f1 3a 85 41 59 3c
       0.00014571998 0.00030441958 0.00183927 0.01326025
0000b0 49 f6 a2 3c f8 d8 8f 3a 65 17 4c 39 8b 71 04 3b
       0.019892829 0.0010974696 0.00019463671 0.0020209278
0000c0 4f b7 40 39 ed 75 8c 3b 0f c0 d1 3c 41 78 31 3d
       0.00018378835 0.004286519 0.025604276 0.043327574
0000d0 e5 bf 17 3b eb b0 3a 3b da 31 d8 3b 17 7a b5 3a
       0.002315515 0.00284868 0.0065977396 0.001384559
0000e0 94 0a 47 39 3f 2e 4a 3a bd 2d 94 3a 3c f1 eb 38
       0.0001898206 0.00077125797 0.0011305135 0.000112506066
0000f0 71 17 38 39 53 38 98 39 6e 74 cb 3a 8a c0 1a 35
       0.0001755634 0.00029033664 0.001552237 5.764965e-07
000100 08 4b d9 35 46 e7 25 35 1e 09 85 34 b9 d3 9d 32
       1.6189597e-06 6.1803837e-07 2.4779814e-07 1.8373486e-08
000110 43 d0 2c 36 b5 d4 29 32 98 c6 ed 35 2e c1 ad 36
       2.5751222e-06 9.885459e-09 1.7715674e-06 5.178291e-06
000120 57 0e 33 36 e6 5c 50 35 2c a8 1f 34 60 27 05 37
       2.6681425e-06 7.7621223e-07 1.486921e-07 7.9365855e-06
000130 d1 a4 c6 33 40 d9 b4 35 00 b8 67 36 cf 79 a4 35
       9.2500734e-08 1.3474273e-06 3.4528784e-06 1.2254403e-06
000140 a4 1f 1e 35 74 89 2d 33 4c cc c6 36 7c dd 0e 33
       5.890563e-07 4.0404714e-08 5.924643e-06 3.326339e-08

exp_avg f4 [4]
000000 1f 9d 6a bb d4 c5 ae ba 35 15 e3 3b f2 da 26 b9
       -0.0035799218 -0.0013334104 0.0069300183 -0.00015912557

exp_avg_sq f4 [4]
000000 24 36 a7 3a eb 19 92 3a de 28 d0 3a ba 8e fa 36
       0.0012757224 0.001114664 0.001588132 7.467196e-06

exp_avg f4 [4, 4]
000000 48 15 11 3c 75 be e6 bb df 18 8d 3a 15 87 c9 bb
       0.0088551715 -0.007041747 0.0010764858 -0.0061501362
000010 55 12 8a ba c0 1b 8f 3a ab 90 98 b9 fa 4c a8 3a
       -0.0010534028 0.0010918304 -0.00029099485 0.0012840324
000020 80 4a f4 b9 a8 cb 22 3a 11 2d 44 b9 a2 4e 0f 3a
       -0.00046594813 0.0006210157 -0.00018708805 0.00054667343
000030 8b a4 e7 3a e4 53 5b bb 3b 1b b1 3a d4 fe 93 bb
       0.0017672939 -0.003346675 0.0013512144 -0.004516462

exp_avg_sq f4 [4, 4]
000000 5f 9d fd 3a 19 ab 98 3a 08 5f cd 38 8a f5 f5 3a
       0.0019349268 0.0011647671 9.792863e-05 0.0018765193
000010 be b8 8d 38 45 5f ae 38 89 50 e2 37 ef 82 df 38
       6.757815e-05 8.314712e-05 2.6978802e-05 0.00010657857
000020 8c 66 e3 37 4c 8d 29 38 b6 18 9a 37 27 52 1d 38
       2.710826e-05 4.0424333e-05 1.8369738e-05 3.7508227e-05
000030 9d 50 cc 3a 66 0b 85 3a ab e9 ba 38 db 93 c4 3a
       0.001558799 0.0010150492 8.912695e-05 0.0014997678

exp_avg f4 [4]
000000 1b 93 c1 3b d3 41 a6 ba a6 35 e7 b9 ef 4c 97 3b
       0.005907429 -0.0012684412 -0.00044099725 0.0046173255

exp_avg_sq f4 [4]
000000 0f 27 f7 3a e6 d6 e5 38 8c c4 41 38 8f bf c5 3a
       0.0018856245 0.00010959599 4.6197834e-05 0.0015086996
