example-prjs/graph/model_1iteration.pt (torch_old, 10369 bytes, 27 tensors)

input_network.0.weight f4 [4, 3]
-0.1012519 -0.88363266 0.20575474 -0.3141126 0.48333395 0.11155275 -0.0380341 -0.4639443
-0.20494358 0.11430331 -0.32328075 -0.4595754
00000000: 285d cfbd c035 62bf 5fb1 523e 5ed3 a0be
00000010: 8c77 f73e c575 e43d a5c9 1bbd 1b8a edbe
00000020: bbdc 51be db17 ea3d 0e85 a5be 784d ebbe

input_network.0.bias f4 [4]
0.0832662 0.34554845 0.06793283 -0.038821857
00000000: 7887 aa3d baeb b03e 5e20 8b3d ab03 1fbd

edge_network.network.0.weight f4 [4, 14]
2.0327146 1.569943 0.8010468 0.06334731 1.0347583 -1.7675792 -1.7086568 -1.9883564
-2.0329723 0.4780296 0.26879102 1.3729737 1.9125383 0.32003012 -1.4886707 -2.380587
0.24782811 0.6687144 -0.3249341 0.10792382 3.5146823 -1.7156936 -2.3982728 0.41724193
0.43387625 -0.42974734 0.005899605 0.30247843 -2.466705 -1.7530848 -0.3273387 -0.4756257
-0.0035437183 -0.080432214 1.8595955 -2.358726 -1.7987332 -0.10753579 0.055800386 -0.27783206
0.10933272 -0.3333609 1.6794535 1.58206 -0.70603573 -0.35786197 -1.1532598 -1.9405813
-1.0079342 -2.334795 -1.137315 -1.130962 0.19627623 -1.1099123 1.759533 -0.8056106
00000000: ff17 0240 e4f3 c83f 6711 4d3f 3cbc 813d
00000010: f672 843f 0940 e2bf 44b5 dabf 7682 febf
00000020: 381c 02c0 4cc0 f43e fa9e 893e 9abd af3f
00000030: 0ece f43f fdda a33e c38c bebf 8a5b 18c0
00000040: a7c6 7d3e de30 2b3f c35d a6be 2a07 dd3d
00000050: 8ef0 6040 d99b dbbf 4d7d 19c0 bca0 d53e
00000060: 0725 de3e d807 dcbe 7951 c13b 74de 9a3e
00000070: 7fde 1dc0 1565 e0bf f098 a7be 3685 f3be
00000080: ba3d 68bb a5b9 a4bd 3a07 ee3f 5ef5 16c0
00000090: e43c e6bf b93b dcbd f28e 643d 0140 8ebe
000000a0: d5e9 df3d 48ae aabe 55f8 d63f f180 ca3f
000000b0: c2be 34bf af39 b7be 049e 93bf f864 f8bf
000000c0: fd03 81bf 486d 15c0 8a93 91bf 5dc3 90bf
000000d0: a3fc 483e 9b11 8ebf 6138 e13f 7f3c 4ebf

edge_network.network.0.bias f4 [4]
1.0021778 -0.3472392 -0.1870121 -0.68883026
00000000: 5d47 803f 56c9 b1be 1a80 3fbe 2e57 30bf

edge_network.network.2.weight f4 [1, 4]
3.7779179 -4.2620645 4.6618404 -3.6290371
00000000: 68c9 7140 d562 88c0 cc2d 9540 2542 68c0

node_network.network.0.weight f4 [4, 21]
0.6452167 -0.3794129 0.6194187 0.48995623 -0.028168524 -0.7424958 -0.0694373 0.69222665
-0.29422653 0.3290787 0.35799527 -0.11526675 -0.7224696 0.09270692 -1.3254869 0.6875326
-0.90854037 -0.77198124 -0.143932 1.5654725 -0.12547526 -0.10718747 -0.38334453 0.2865556
-0.17135654 -0.060622677 -0.48416868 0.9768765 0.106081106 -0.6729241 0.19325568 0.38207775
-0.2862125 -0.49215403 0.39048663 -0.79077643 -0.1973907 -0.1743478 -0.29481256 -0.5399296
0.84696025 0.12973143 0.59850794 -0.1823583 0.08585905 0.22641134 0.08945671 -0.5829228
-0.2673027 0.7919451 -0.07799566 0.07879585 -0.019913903 0.23271756 -0.6071388 -0.110350676
-0.64269525 0.5564324 -0.6822246 -0.41891584 -0.32882345 1.127333 -0.28511047 -0.6004626
0.15655397 -0.5190272 -0.27320263 -0.15641081 0.6136002 -0.0070896083 -0.51681966 0.31935647
-0.42140022 -0.4140132 0.03177193 0.7128744 -0.04183441 1.2856961 -0.5037481 0.756408
0.646937 -0.100217395 -1.3759991 0.0881433
00000000: ec2c 253f 6842 c2be 3992 1e3f 8bdb fa3e
00000010: adc1 e6bc 3414 3ebf 2535 8ebd c435 313f
00000020: dca4 96be 017d a83e 284b b73e f910 ecbd
00000030: c5f3 38bf 20dd bd3d 8ea9 a9bf 2302 303f
00000040: 1a96 68bf 90a0 45bf e962 13be 6761 c83f
00000050: 967c 00be 1b85 dbbd bc45 c4be 6ab7 923e
00000060: 1778 2fbe 7c4f 78bd f5e4 f7be 9414 7a3f
00000070: 0d41 d93d c144 2cbf d1e4 453e b29f c33e
00000080: 728a 92be 9dfb fbbe dded c73e 5370 4abf
00000090: ca20 4abe 3b88 32be acf1 96be d438 0abf
000000a0: 63d2 583f 51d8 043e d137 193f 22bc 3abe
000000b0: dfd6 af3d 60d8 673e 1435 b73d 6e3a 15bf
000000c0: e6db 88be eabc 4a3f 30bc 9fbd b85f a13d
000000d0: 7b22 a3bc 834d 6e3e 736d 1bbf 89ff e1bd
000000e0: ad87 24bf 5b72 0e3f 45a6 2ebf 237c d6be
000000f0: 8c5b a8be 734c 903f 00fa 91be ebb7 19bf
00000100: af4f 203e f7de 04bf 37e1 8bbe 282a 20be
00000110: e714 1d3f f24f e8bb 4b4e 04bf b182 a33e
00000120: c5c1 d7be 8af9 d3be 4923 023d f07e 363f
00000130: 8f5a 2bbd b191 a43f a3f5 00bf f4a3 413f
00000140: aa9d 253f c73e cdbd bd20 b0bf 7984 b43d

node_network.network.0.bias f4 [4]
-0.09035895 -0.4082778 0.06352439 -0.092374556
00000000: 1d0e b9bd ca09 d1be 1319 823d df2e bdbd

node_network.network.2.weight f4 [4, 4]
-3.0415833 -1.2772672 -1.1422303 1.9291619 -2.0677829 -0.23009783 -1.6204749 2.3686182
0.7308147 -2.4969287 1.0776021 0.97804755 0.2727432 -2.4422538 0.6634358 0.4503177
00000000: 4da9 42c0 7e7d a3bf 9a34 92bf c7ee f63f
00000010: 8e56 04c0 c49e 6bbe b96b cfbf 7197 1740
00000020: ac16 3b3f aecd 1fc0 deee 893f 5361 7a3f
00000030: ffa4 8b3e e34d 1cc0 eed6 293f 0b90 e63e

node_network.network.2.bias f4 [4]
0.0667207 -0.49503875 0.5797217 0.65307003
00000000: dda4 883d b875 fdbe a468 143f 992f 273f

exp_avg f4 [4, 3]
-0.0034826284 -0.0047004167 0.031782795 0.0014944626 -0.002972926 -0.015486441 -0.0021654097 0.004099253
0.022168022 -0.0025317506 -0.0033807748 0.020007864
00000000: cf3c 64bb f405 9abb ad2e 023d d8e1 c33a
00000010: 6cd5 42bb d7ba 7dbc 8ce9 0dbb 0753 863b
00000020: b699 b53c baeb 25bb fd8f 5dbb 88e7 a33c

exp_avg_sq f4 [4, 3]
0.00011496924 0.00026861823 0.0030281388 2.4565554e-05 0.00026149885 0.00075454597 2.6930866e-05 0.0003843341
0.0016256359 3.136666e-05 0.00011221783 0.0011501834
00000000: a41b f138 54d5 8c39 bd73 463b 2012 ce37
00000010: c819 8939 b9cc 453a 98e9 e137 7380 c939
00000020: 4a13 d53a b28f 0338 7d56 eb38 c0c1 963a

exp_avg f4 [4]
-0.0058142105 -0.004580743 0.019074427 0.0009880447
00000000: 2285 bebb 0f1a 96bb f941 9c3c 4781 813a

exp_avg_sq f4 [4]
0.0009989751 0.00058744766 0.0017144035 0.00010568175
00000000: 0bf0 823a f2fe 193a d6b5 e03a 75a1 dd38

exp_avg f4 [4, 14]
0.00052558846 -0.0006597078 0.0010821242 0.0010714907 4.7674384e-05 2.70733e-05 0.00022369884 0.0010359816
0.00032013378 0.0010226294 0.00096344604 0.00010645933 -0.00012782372 0.0004917323 -6.260334e-05 0.00072663766
-0.0012952152 -0.0013016026 -4.032632e-05 -0.001400658 -0.000393278 -0.0007344604 -0.00031666452 -0.0010320538
-0.0010639109 -9.098244e-05 -0.0012208179 -0.0009798905 -0.00079526205 -0.0017349352 0.00085538 0.0008454305
3.4104323e-05 0.0015042194 0.00010569584 0.0011563897 6.701537e-05 0.0005791786 0.000537578 7.761644e-05
0.0010099304 0.0003004486 0.0022593406 0.00022986125 0.0024442242 0.0024220843 8.193219e-05 0.001496102
-0.00026953462 0.00013193772 -0.0021778701 0.002434053 0.0024936937 0.00018123236 0.00159986 -0.001031901
00000000: a5c7 093a 3ef0 2cba 10d6 8d3a 4371 8c3a
00000010: fbf5 4738 781b e337 b390 6a39 c6c9 873a
00000020: a1d7 a739 c009 863a c58f 7c3a eb42 df38
00000030: 6b08 06b9 99e7 003a ea49 83b8 d47b 3e3a
00000040: 36c4 a9ba 899a aaba 0e24 29b8 4996 b7ba
00000050: e130 ceb9 ce88 40ba fe05 a6b9 fb45 87ba
00000060: ed72 8bba d3cd beb8 da03 a0ba ab6f 80ba
00000070: 2279 50ba c466 e3ba 953b 603a e19f 5d3a
00000080: 3d0b 0f38 3a29 c53a 06a9 dd38 0092 973a
00000090: 9a8a 8c38 05d4 173a 40ec 0c3a 02c6 a238
000000a0: a45f 843a 8785 9d39 7211 143b e906 7139
000000b0: 472f 203b d5bb 1e3b 02d3 ab38 da18 c43a
000000c0: 5350 8db9 c358 0a39 99ba 0ebb a284 1f3b
000000d0: 3d6d 233b 3109 3e39 65b2 d13a da40 87ba

exp_avg_sq f4 [4, 14]
7.859477e-06 2.9466197e-05 4.3984583e-05 4.3905882e-05 5.829656e-08 1.2468036e-05 3.445862e-07 3.232739e-05
6.9417483e-06 4.1038104e-05 4.240068e-05 2.955481e-07 1.0874924e-05 1.6989443e-06 5.9308186e-05 3.7057784e-05
9.396156e-05 9.397085e-05 1.0154769e-07 3.2713524e-05 1.366753e-06 6.955848e-05 3.130382e-05 8.7363085e-05
9.154248e-05 5.1645776e-07 3.2568387e-05 4.8479183e-06 5.322574e-05 7.5028605e-05 0.00011687345 0.00011689434
1.17137596e-07 3.4503955e-05 8.8096976e-07 4.598401e-05 7.741892e-05 0.00011024599 0.00011391577 5.919813e-07
3.553942e-05 5.032165e-06 3.919273e-05 7.3766987e-06 5.1662126e-05 5.2186457e-05 5.8912487e-08 1.19120705e-05
3.2790408e-07 4.1577755e-06 4.3251755e-05 4.9233666e-05 5.023978e-05 3.0000626e-07 1.173471e-05 1.8890986e-06
00000000: 32dc 0337 2d2e f737 167c 3838 9527 3838
00000010: bf61 7a33 cf2d 5137 91ff b834 4597 0738
00000020: 2aed e836 5420 2c38 62d7 3138 d2ab 9e34
00000030: 7173 3637 4807 e435 aec1 7838 7e6e 1b38
00000040: 3a0d c538 3712 c538 6f12 da33 e135 0938
00000050: 4771 b735 eddf 9138 394c 0338 b336 b738
00000060: 7ffa bf38 b5a2 0a35 0a9a 0838 4dab a236
00000070: b43e 5f38 ad58 9d38 f519 f538 2c25 f538
00000080: 138d fb33 57b8 1038 c87b 6c35 f4de 4038
00000090: f75b a238 dd33 e738 10e6 ee38 a5e8 1e35
000000a0: 2910 1538 f8d9 a836 e062 2438 5c85 f736
000000b0: c9af 5838 c8e2 5a38 f706 7d33 f4d9 4737
000000c0: cb0a b034 0583 8b36 3869 3538 3f80 4e38
000000d0: 8eb8 5238 8c10 a134 32e0 4437 ef8c fd35

exp_avg f4 [4]
0.001495776 -0.001292246 0.0011311079 0.002525705
00000000: ea0d c43a 9560 a9ba af41 943a 4c86 253b

exp_avg_sq f4 [4]
5.7296726e-05 9.962737e-05 0.00011446679 5.7758196e-05
00000000: e451 7038 09ef d038 e40d f038 6441 7238

exp_avg f4 [1, 4]
-0.001047967 0.000101670455 0.0005893468 -0.0007922805
00000000: f05b 89ba e937 d538 657e 1a3a 0bb1 4fba

exp_avg_sq f4 [1, 4]
4.897325e-05 4.754419e-05 5.2789455e-05 5.0235354e-05
00000000: a068 4d38 2f6a 4738 3f6a 5d38 cdb3 5238

exp_avg f4 [4, 21]
-0.0014062031 0.022930803 0.00012231876 -0.005013333 0.001978994 0.009450666 -9.570579e-05 0.020239666
-0.014619363 0.0066620344 0.0024525726 -0.0018083318 -0.022998964 0.012695166 0.0056967386 0.0033243883
0.0050410037 0.0043163593 0.0018155002 -0.004580863 -0.007572505 -0.0024516818 0.007290299 -0.0010781941
-0.0021230052 0.00054615596 0.005094274 -0.000160357 -0.0010112586 0.0011680353 -0.001219203 -0.001333022
-4.0542545e-05 0.002332761 0.0014366629 -0.0029330933 0.004311317 -0.0009987905 -0.0006550896 0.0006094157
0.0047141667 -0.0024662707 0.0027513336 0.0075126584 0.0020024106 -0.0006060213 0.0008015822 -0.00053376134
-0.00013555828 0.012908585 -0.011345178 0.0047778427 0.002695298 -0.0014403864 -0.01614699 0.006808658
0.005981292 -0.0024054262 0.004262744 0.003908597 0.00057797576 -0.0073189703 -0.003686243 -0.0036604283
-0.012379247 -0.0027096167 0.0013548117 -0.001271114 -0.00017695181 4.550899e-05 -0.018907335 0.015739616
-0.006620597 -0.0032796047 0.002032982 0.02285227 -0.010856135 -0.00838485 0.0024286609 -0.0060344497
-0.0054712496 -0.00097279367 0.009730688 0.0056555187
00000000: 5950 b8ba 61d9 bb3c b142 0039 e346 a4bb
00000010: 03b2 013b f7d6 1a3c a8b5 c8b8 a8cd a53c
00000020: 0d86 6fbc 324d da3b 57bb 203b 8c05 edba
00000030: 5368 bcbc 63ff 4f3c b5ab ba3b fbdd 593b
00000040: 012f a53b 3f70 8d3b 14f6 ed3a 101b 96bb
00000050: c722 f8bb 65ac 20bb 76e3 ee3b 3152 8dba
00000060: 1e22 0bbb e82b 0f3a deed a63b 8125 28b9
00000070: 358c 84ba c318 993a aacd 9fba ccb8 aeba
00000080: 3a0c 2ab8 3ce1 183b 684e bc3a 2439 40bb
00000090: f345 8d3b d9e9 82ba 52ba 2bba 32c1 1f3a
000000a0: 4c79 9a3b 28a1 21bb b84f 343b bf2c f63b
000000b0: e03a 033b 67dd 1eba 4521 523a 1eec 0bba
000000c0: a624 0eb9 887e 533c 20e1 39bc 738f 9c3b
000000d0: 99a3 303b 59cb bcba b146 84bc 2a1b df3b
000000e0: b7fe c33b 5ba4 1dbb 7dae 8b3b b013 803b
000000f0: 4c83 173a f9d3 efbb e594 71bb cce3 6fbb
00000100: 53d2 4abc d393 31bb f093 b13a 829b a6ba
00000110: 248c 39b9 e8e0 3e38 8ee3 9abc 5ef0 803c
00000120: 98f1 d8bb a3ee 56bb c73b 053b af34 bb3c
00000130: eedd 31bc 9c60 09bc 2b2a 1f3b a2bc c5bb
00000140: 2b48 b3bb 1403 7fba 776d 1f3c ee51 b93b

exp_avg_sq f4 [4, 21]
0.006808045 0.0033845801 0.002492664 0.00097253313 3.1333242e-05 0.010461207 9.332233e-05 0.008327875
0.004133848 0.0028322528 0.0011308598 0.00017078289 0.013247808 0.0006015336 0.0060154055 0.0026046315
0.0022945092 0.0010333778 6.369702e-05 0.009553332 0.0005784435 0.00024399598 0.00022524247 8.1170714e-05
4.4969085e-05 1.4228411e-06 0.0004149322 5.2868177e-06 0.00046906763 4.1645384e-05 0.00017295027 4.150217e-05
7.422928e-06 0.000689157 2.5018262e-05 0.00026726644 8.902347e-05 0.00010233784 4.00856e-05 2.9169057e-06
0.0004128301 2.3244265e-05 0.0020250871 0.0009877818 0.0007375517 0.00029656652 8.623282e-06 0.003147781
2.4593326e-05 0.002154719 0.001343371 0.00070706685 0.0003212787 4.570815e-05 0.003553273 0.00017693586
0.001676587 0.00081396307 0.00062598614 0.0003006986 1.7124396e-05 0.0027299202 0.00017591074 0.0046828804
0.0019950876 0.0017398297 0.0006418091 2.0473153e-05 0.0070832814 5.57479e-05 0.0064465594 0.0032396428
0.0021737046 0.00087893585 0.00012853721 0.010321156 0.0004949318 0.004451312 0.0017826589 0.0016821577
0.0007274818 4.2874362e-05 0.007038038 0.0003931615
00000000: 0516 df3b d5cf 5d3b f65b 233b 98f1 7e3a
00000010: d06b 0338 7b65 2b3c 0bb6 c338 a471 083c
00000020: 3b75 873b 519d 393b 5c39 943a 2f14 3339
00000030: 560d 593c 3db0 1d3a e11c c53b 77b2 2a3b
00000040: 7a5f 163b 6872 873a 1495 8538 9485 1c3c
00000050: b0a2 173a 2cd9 7f39 112f 6c39 323a aa38
00000060: 309d 3c38 73f8 be35 428b d939 6b65 b136
00000070: 31ed f539 64ac 2e38 fc59 3539 9e12 2e38
00000080: 7712 f936 8ba8 343a 4fde d137 e51f 8c39
00000090: 1db2 ba38 369e d638 9621 2838 0fc0 4336
000000a0: 1e71 d839 aefc c237 53b7 043b 7578 813a
000000b0: 4258 413a 7c7c 9b39 b7ac 1037 004b 4e3b
000000c0: c44d ce37 3036 0d3b 0d14 b03a 745a 393a
000000d0: 4c71 a839 c1b6 3f38 07de 683b dc87 3939
000000e0: edc0 db3a 2360 553a 3819 243a 15a7 9d39
000000f0: 5ca6 8f37 76e8 323b ae74 3839 d972 993b
00000100: 04c0 023b ff0a e43a 143f 283a c3bd ab37
00000110: df1a e83b dad2 6938 a93d d33b 3050 543b
00000120: b674 0e3b 6368 663a f2c7 0639 111a 293c
00000130: 50be 013a 50dc 913b 1ba8 e93a d97b dc3a
00000140: 7ab4 3e3a ffd3 3338 589f e63b 3e21 ce39

exp_avg f4 [4]
0.018789984 0.0085113095 0.0026478695 -0.005997728
00000000: 74ed 993c 0573 0b3c e187 2d3b 9788 c4bb

exp_avg_sq f4 [4]
0.022572234 0.0010243036 0.0060029975 0.015744014
00000000: 68e9 b83c ed41 863a cbb4 c43b 97f9 803c

exp_avg f4 [4, 4]
0.00032931572 0.004841806 -0.0020382183 0.0027686243 -0.00018998852 -0.0031076318 -0.0012323888 7.6911434e-05
-0.00012078349 0.0001575879 -0.00013084697 0.0002488922 -0.00021158802 -2.945795e-05 -0.00013067205 0.00018352323
00000000: 02a8 ac39 03a8 9e3b a193 05bb cf71 353b
00000010: a837 47b9 69a9 4bbb 1b88 a1ba 834b a138
00000020: 244d fdb8 2e3e 2539 f733 09b9 bf7d 8239
00000030: badd 5db9 771c f7b7 0305 09b9 2470 4039

exp_avg_sq f4 [4, 4]
1.010087e-05 0.00048915064 0.000101774254 4.2255117e-05 3.697248e-05 0.00054129446 5.9666567e-05 9.592329e-06
9.458543e-07 5.603841e-07 9.2618706e-07 1.0854657e-06 1.2296055e-06 3.2627776e-07 1.2199654e-06 1.2212009e-06
00000000: e876 2937 583a 003a a36f d538 163b 3138
00000010: e612 1b38 a8e5 0d3a 7d42 7a38 bdee 2037
00000020: 9de6 7d35 4d6d 1635 179f 7835 51b0 9135
00000030: ec08 a535 462b af34 b1bd a335 25e8 a335

exp_avg f4 [4]
-0.008452897 0.0036644246 -0.00042615287 -0.00018106912
00000000: 057e 0abc d826 703b 456d dfb9 5fdd 3db9

exp_avg_sq f4 [4]
0.001276686 0.0011654322 2.6600899e-06 1.8104022e-06
00000000: 7956 a73a 6ac1 983a ff83 3236 f2fc f235
